ASS1/models/best_cnn_model.pth (torch, 251441 bytes, 22 tensors)

block.0.weight f4 [32, 3, 3, 3]
0	0xbd9bee4a	-0.076138094
1	0xbd95ff57	-0.07324093
2	0xba63e155	-0.000869294
3	0xbe81f12a	-0.25379306
4	0x3c434da5	0.011920367
5	0x3ea6e619	0.32597426
6	0xbe67bd12	-0.22630718
7	0xbcf5423c	-0.02993881
8	0x3e994aa5	0.29939762
9	0x3e0b9527	0.13631116
10	0x3d9c3694	0.076275975
11	0xbde3b573	-0.11118593
12	0x3d549102	0.051896103
13	0xbddc6f29	-0.107633896
14	0x3d9652e3	0.07340028
15	0xba602a57	-0.0008551231
16	0xbd046e8c	-0.03233199
17	0xbdce5760	-0.10075259
18	0x3d4aff34	0.049559787
19	0x3d3acff1	0.045608465
20	0xbdfcdfb8	-0.123473585
21	0x3cf59919	0.02998023
22	0x3da18e56	0.078884766
23	0xbdc7e79d	-0.097609736
24	0x3d25cc5f	0.040478107
25	0xbe02fe14	-0.12792236
26	0x3dcb0443	0.09912922
27	0xbd8962de	-0.067083105
28	0x3cb17793	0.021663463
29	0xbbb9c5dc	-0.0056693386
30	0x3ded6d5c	0.11593124
31	0x3d5554c7	0.052082803
32	0xbd9be871	-0.07612694
33	0x3c57dd5d	0.013175336
34	0x3db359ce	0.08757363
35	0x3cef61a1	0.029221358
36	0xbe9fd6a3	-0.31218442
37	0xbeacbda1	-0.33738425
38	0x3da113f8	0.07865137
39	0xbe69d6ee	-0.22835895
40	0xbe6b3695	-0.2297004
41	0x3e88207e	0.2658729
42	0xbcf8c916	-0.030369323
43	0xbdc82201	-0.09772111
44	0x3df9486a	0.12172015
45	0x3ba98599	0.005173397
46	0xbd51e9eb	-0.051248472
47	0x3c227363	0.009915206
48	0xbd889cae	-0.06670509
49	0xbe7ff2a4	-0.24994904
50	0x3d7d62cc	0.0618618
51	0x3d8d454d	0.06897984
52	0x3d237499	0.039906118
53	0xbd4507c2	-0.0481031
54	0x3cef52a6	0.029214215
55	0x3e01e44b	0.12684743
56	0xbdd58bcf	-0.10427057
57	0x3e5049ec	0.20340699
58	0x3e022681	0.1271
59	0xbd8c7896	-0.068589374
60	0x3c89af84	0.016807325
61	0xbc96c991	-0.018406661
62	0xbe315205	-0.17316444
63	0x3d9e305f	0.0772407
64	0xbe3564d6	-0.17714247
65	0xbe294cd1	-0.1653321
66	0x3d616d35	0.05503579
67	0xbe1524c1	-0.14564802
68	0xbe35f4be	-0.17769143
69	0x3dbc4b9d	0.091941096
70	0xbd362eed	-0.044478346
71	0xbd83331e	-0.06406234
72	0x3d98d891	0.07463182
73	0xbe06c564	-0.13161236
74	0x3e06e5fa	0.13173667
75	0x3dd4bc11	0.10387433
76	0xbe12e84a	-0.14346424
77	0x3e180dd0	0.14849019
78	0x3e376d1c	0.17912716
79	0xbc75a695	-0.0149933295
80	0x3dc7a871	0.097489245
81	0xbbc58790	-0.006028123
82	0xbdca558e	-0.098795995
83	0x3e31ecc3	0.17375474
84	0x3d44d513	0.048054766
85	0xbd99a718	-0.07502574
86	0x3dc7cf02	0.097562805
87	0xbe0be64b	-0.13662069
88	0xbd0c8353	-0.034304928
89	0x3d2524f7	0.040318456
90	0xbd9ef68a	-0.07761867
91	0xbd015330	-0.031573474
92	0x3d4e76fb	0.050406437
93	0x3cdeb789	0.027187126
94	0xbe28dc45	-0.16490276
95	0x3db6df54	0.08929315
96	0x3e3fd57e	0.18733785
97	0x3db0a3d6	0.08624999
98	0xbe20a526	-0.15687999
99	0x3cfc9077	0.030830605
100	0x3c3e595a	0.011617983
101	0xbdbc9be0	-0.09209418
102	0x3e7c4fef	0.24639867
103	0xbdf580a3	-0.11987426
104	0xbdc0e968	-0.09419519
105	0x3e879705	0.26482406
106	0xbd991c4f	-0.074761026
107	0xbe4e44a8	-0.20143378
108	0x3d637ba3	0.05553783
109	0xbe104e51	-0.14092375
110	0xbce3902f	-0.027778713
111	0xbdfda038	-0.12384075
112	0x3e32e73c	0.17471021
113	0x3d680066	0.056641005
114	0xbdf96f12	-0.12179388
115	0xbd16b2d8	-0.036791652
116	0xbcf20c4c	-0.02954688
117	0xbe54e2b1	-0.20789601
118	0xbdc65dd5	-0.09685866
119	0xbe3bb4fd	-0.1833076
120	0x3decf195	0.115695156
121	0x3dbcf5e3	0.09226587
122	0xbe1da353	-0.15394334
123	0x3ce45a35	0.027875045
124	0xbe7d3235	-0.24726184
125	0xbd7b37f8	-0.061332673
126	0x3e60ca9e	0.21952292
127	0xbc0eb258	-0.008709513
128	0x3e0b11a2	0.13580945
129	0x3e6e0b8c	0.23246592
130	0xbd0d24af	-0.034458812
131	0x3e38c2e4	0.18043095
132	0x3c08dac5	0.00835294
133	0x3c2f1e60	0.010688394
134	0x3e1e38ad	0.15451308
135	0xbe04a34c	-0.12952918
136	0xbd169d83	-0.03677131
137	0xbd2167b9	-0.03940556
138	0xbe553c0d	-0.20823689
139	0xbd91b713	-0.07114997
140	0xbdd3a7cb	-0.10334738
141	0xbe2778f0	-0.16354728
142	0xbdb52f2b	-0.08846887
143	0xbc93de76	-0.018050414
144	0x3de34dad	0.110988
145	0xbe1ab69a	-0.1510872
146	0xbdcc3109	-0.0997029
147	0xbe662f6f	-0.22479032
148	0x3e0c0794	0.13674766
149	0x3d2ff8c5	0.042961854
150	0x3d981e52	0.07427658
151	0x3e1df4d2	0.15425423
152	0xbe2702a0	-0.16309595
153	0x3e1d4152	0.15356949
154	0x3da4e209	0.08050925
155	0xbd09f8da	-0.03368459
156	0xbd4a9e1a	-0.049467184
157	0xbdb2437a	-0.087042764
158	0x3e1e0c52	0.15434387
159	0x3de1dc5b	0.110283576
160	0xbda69cbf	-0.08135366
161	0xbc5536df	-0.013013571
162	0xbdba3fec	-0.090942234
163	0x3cb655f8	0.02225779
164	0xbe4b50fb	-0.1985511
165	0x3d3a6537	0.045506682
166	0x3dd218a6	0.102586076
167	0xbe3eee7c	-0.18645662
168	0xbdd8a39b	-0.1057808
169	0xbdab0d9a	-0.08352204
170	0x3d9a012c	0.07519755
171	0xbdc0306d	-0.093842365
172	0x3dc3b21c	0.09555456
173	0x3c5126e2	0.012765618
174	0x3c9d749e	0.019220646
175	0x3d011b1f	0.031520005
176	0x3e0e721b	0.13910715
177	0x3db3c264	0.087773114
178	0x3e081bf5	0.13291915
179	0xbdf3b435	-0.11899606
180	0xbd5591ad	-0.05214088
181	0xbe27524b	-0.16339986
182	0x3db76da6	0.08956461
183	0x3d2ebd64	0.042661086
184	0x3e686e5b	0.22698347
185	0xbc329d2a	-0.010901729
186	0xbd2d32c1	-0.04228473
187	0x3e61a5ed	0.22035952
188	0x3e277842	0.16354468
189	0x3e42ad3b	0.19011395
190	0xbdbac273	-0.091191195
191	0x3e5287e0	0.20559645
192	0xbb98ec72	-0.0046668584
193	0x3d926b54	0.071493775
194	0xbe1110ad	-0.14166518
195	0x3cc0f887	0.023556007
196	0xbe2da83a	-0.16958705
197	0xbda017bc	-0.07817027
198	0x3e1a5662	0.15072015
199	0xbdcb4458	-0.09925145
200	0xbddddb97	-0.10832899
201	0xbe23186b	-0.15927283
202	0x3df0a2e9	0.11749823
203	0x3dc35082	0.0953684
204	0x3d40af7d	0.04704236
205	0xbe546df1	-0.20745064
206	0x3e32d409	0.17463697
207	0xbe0c07ed	-0.13674898
208	0xbdca7660	-0.098858595
209	0xbdb5c268	-0.08874971
210	0xbe35ef45	-0.17767055
211	0x3e903dbd	0.28172103
212	0xbcbcbe43	-0.023039943
213	0x3e308e3d	0.1724176
214	0xbd609f6f	-0.054839548
215	0x3d9a0c63	0.07521894
216	0xbd9f08d2	-0.07765354
217	0xbe0d7ea8	-0.13817847
218	0x3ddbc18d	0.10730276
219	0xbe01f038	-0.12689292
220	0xbe2daa4e	-0.16959497
221	0x3d08a6b7	0.033362117
222	0xbddfd20d	-0.10928736
223	0xbd751b68	-0.05984059
224	0xbcf1adda	-0.029501844
225	0x3e8847f4	0.26617396
226	0x3e134acc	0.14384001
227	0x3def0a3c	0.11671874
228	0x3e7c2b30	0.2462585
229	0xbdbdd856	-0.092697784
230	0x3e27af04	0.16375357
231	0xbd2c9aae	-0.0421397
232	0x3e3fef86	0.18743715
233	0xbd6dd891	-0.058067862
234	0xbe01342f	-0.12617563
235	0xbe284dd9	-0.16435947
236	0xbc32d301	-0.010914565
237	0x3e0c82aa	0.1372172
238	0xbd9a7c57	-0.07543247
239	0xbde80c19	-0.113304324
240	0xbe0dbd33	-0.13841705
241	0x3dc6cf22	0.09707476
242	0xbd652868	-0.055946738
243	0x3dde253a	0.10846944
244	0x3e04146b	0.12898414
245	0xbcc73b4b	-0.024320265
246	0xbc8f8a41	-0.01752198
247	0xbd96b578	-0.07358831
248	0xbd0f5333	-0.034991454
249	0xbe081c7e	-0.13292119
250	0xbd7df886	-0.06200459
251	0xbe62936d	-0.22126551
252	0x3cc323eb	0.023820838
253	0x3cb34d95	0.02188758
254	0x3e4c9d04	0.19981772
255	0x3e7c4e41	0.24639226

block.0.bias f4 [32]
0	0x3ddbf537	0.107401304
1	0x3ba5a543	0.005055101
2	0xbd8f43ca	-0.069953516
3	0xbe57470e	-0.21023199
4	0x3e512156	0.20422873
5	0x3d8522d4	0.065007836
6	0x3e1e135f	0.15437077
7	0xbe49d1d1	-0.19708945
8	0xbcab6fb7	-0.020927293
9	0xbc9893ec	-0.018625222
10	0xbe09d7e9	-0.1346127
11	0xbc682c40	-0.014170706
12	0x3e26c623	0.1628652
13	0x3e160bd6	0.14652953
14	0x3e7ccdba	0.24687853
15	0x3d71e317	0.05905446
16	0x3d960825	0.07325772
17	0x3c270006	0.010192877
18	0xbc648f8e	-0.013950242
19	0xbe1232af	-0.14277147
20	0xbd91df3e	-0.07122658
21	0xbe28ae15	-0.16472657
22	0x38809693	6.131562e-05
23	0x3b1f1492	0.0024273735
24	0xbde31843	-0.11088612
25	0x3e214ba6	0.15751514
26	0xbe207aa5	-0.15671785
27	0xbe066c4f	-0.13127254
28	0xbe205d25	-0.15660532
29	0xbe0ab518	-0.13545644
30	0x3ce511c1	0.027962567
31	0xbddd2b70	-0.10799301

block.1.weight f4 [32]
0	0x3f8a2202	1.0791628
1	0x3f43c84d	0.7647751
2	0x3f74a859	0.9556938
3	0x3f958075	1.1679827
4	0x3f6d1a11	0.926179
5	0x3f630129	0.88673645
6	0x3f5a6f41	0.8532601
7	0x3fafe933	1.3743042
8	0x3f7a67f8	0.97814894
9	0x3f685177	0.90749305
10	0x3fbedca6	1.4911087
11	0x3f4943be	0.7861899
12	0x3f70d5ee	0.9407643
13	0x3fa0eb47	1.2571801
14	0x3f9b232f	1.2120112
15	0x3f89a854	1.0754495
16	0x3f99d174	1.2017045
17	0x3f5ee04d	0.87061006
18	0x3f62b788	0.88561296
19	0x3f8048b3	1.0022186
20	0x3f7bf64b	0.9842269
21	0x3f5c7b24	0.861254
22	0x3f6a9d5a	0.9164635
23	0x3f91b992	1.1384757
24	0x3f90bed6	1.1308239
25	0x3f8729af	1.0559596
26	0x3f8e8c41	1.1136552
27	0x3f641c4d	0.89105684
28	0x3f6d1f70	0.92626095
29	0x3f583919	0.84462124
30	0x3f6b18ca	0.918347
31	0x3f4ee733	0.8082153

block.1.bias f4 [32]
0	0xbd49c9ce	-0.04926472
1	0xbe776a70	-0.24161696
2	0xbe0eb4ee	-0.13936207
3	0xbe49b6b9	-0.1969861
4	0xbe2b88e2	-0.16751435
5	0xbcd5ec0a	-0.026113529
6	0xbe252810	-0.16128564
7	0x3ddaa586	0.10676102
8	0x3d98d27f	0.07462024
9	0xbe4f9da8	-0.20274985
10	0x3ecb57c5	0.397154
11	0xbdae2737	-0.085035734
12	0xbe68a2ba	-0.22718325
13	0xbdeaf3f7	-0.11472314
14	0x3cc7ddeb	0.02439781
15	0x3da568f3	0.08076658
16	0xbde663a8	-0.11249477
17	0xbd7f5b27	-0.06234279
18	0xbe07a68f	-0.13247131
19	0xbd99efd2	-0.07516445
20	0xbd101f36	-0.035186015
21	0xbe14efc8	-0.14544594
22	0xbe4020e6	-0.1876255
23	0xbe604b85	-0.21903808
24	0xbe03f987	-0.12888156
25	0xbd92c695	-0.07166783
26	0xbc83b29d	-0.01607638
27	0xbe1d2f79	-0.1535014
28	0xbdd54dce	-0.10415231
29	0xbe47fd90	-0.1953032
30	0xbdec7122	-0.11545016
31	0xbe3dbc92	-0.18528965

block.1.running_mean f4 [32]
0	0x3de592cf	0.11209642
1	0x3e0f14d6	0.13972792
2	0xbe06ed32	-0.1317642
3	0xbe50c17b	-0.20386307
4	0x3d877b6e	0.06615339
5	0x3d8560f8	0.06512636
6	0x3d361e39	0.044462416
7	0xbe3da1b2	-0.18518713
8	0x3cbd5627	0.02311237
9	0x3cc2152b	0.023691734
10	0xbe0294a3	-0.12752013
11	0x3dfc6058	0.123230636
12	0x3eb4214b	0.3518165
13	0x3e184a12	0.14872006
14	0x3e83cc93	0.25742015
15	0x3d7247ad	0.059150387
16	0x3d9eb096	0.07748525
17	0xbd23de38	-0.040006846
18	0xbe04b14e	-0.12958261
19	0xbe3d5fbb	-0.1849355
20	0xbdc13b84	-0.0943518
21	0xbea5b527	-0.3236477
22	0x3b780bbb	0.0037848789
23	0x3c1e1353	0.009648162
24	0xbddd43d3	-0.10803952
25	0x3e2c3167	0.1681572
26	0xbe1b86d0	-0.15188146
27	0xbe7951a9	-0.24347557
28	0xbdad7100	-0.08468819
29	0xbe145e14	-0.14489013
30	0x3cd331f0	0.025780648
31	0xbe16bde1	-0.1472087

block.1.running_var f4 [32]
0	0x3c48598b	0.01222838
1	0x3e47b88c	0.19503993
2	0x3d0fb3b7	0.0350835
3	0x3c60a358	0.013710819
4	0x3d875376	0.06607716
5	0x3e33371e	0.17501494
6	0x3d6cad52	0.05778248
7	0x3b9d7fd5	0.0048064985
8	0x3d0081b4	0.031373695
9	0x3d431fd6	0.047637783
10	0x3b76249a	0.0037558437
11	0x3e12837c	0.1430797
12	0x3e12a8a1	0.1432214
13	0x3cd6f5ec	0.026240312
14	0x3c4ff696	0.012693068
15	0x3b4c0a60	0.0031134114
16	0x3cf4de56	0.029891174
17	0x3d988f96	0.07449262
18	0x3da56173	0.080752276
19	0x3d33d714	0.043906286
20	0x3cbfba42	0.023404244
21	0x3d8e2000	0.06939697
22	0x3d0f7f00	0.035033226
23	0x3c0de71f	0.008661061
24	0x3d3cc50f	0.046086367
25	0x3c983798	0.018581197
26	0x3ce0ab85	0.027425537
27	0x3f2a1ad7	0.66447204
28	0x3cfd6a53	0.030934488
29	0x3cdb417d	0.026764626
30	0x3ccb3036	0.024803262
31	0x3d85adeb	0.06527313

block.3.block.0.weight f4 [64, 32, 3, 3]
0	0x3d9ad9ed	0.07561097
1	0xbce7dcdc	-0.028303556
2	0xbdc63750	-0.09678519
3	0x3deaeb80	0.11470699
4	0xbd13a7be	-0.036048643
5	0xbdeeae68	-0.11654359
6	0x3e10fadc	0.14158195
7	0xbd9edca0	-0.07756925
8	0xbd909dbb	-0.07061335
9	0xbc6488e8	-0.013948657
10	0xbcf175c7	-0.029475106
11	0xbd6c2ee5	-0.05766191
12	0x3d0de856	0.0346454
13	0x3cb9263c	0.02260124
14	0xbcaef2a7	-0.02135594
15	0x3d2289ba	0.039682128
16	0xbd693e93	-0.05694444
17	0x3b903973	0.0044013797
18	0xbe11a9b0	-0.14224887
19	0x3b9a380b	0.004706388
20	0x3d83ca5a	0.0643508
21	0xbdecc174	-0.11560336
22	0x3dbe2417	0.09284227
23	0x3da6d56e	0.08146177
24	0xbdbe5047	-0.092926554
25	0x3beb2633	0.0071761846
26	0x3dbc53d5	0.09195677
27	0x3be74836	0.0070581688
28	0xbd74f87c	-0.059807286
29	0xbd5dcb37	-0.05414888
30	0x3da48e82	0.08034994
31	0xbd45eb9e	-0.048320405
32	0x3d0ec2bf	0.034853693
33	0x3d581084	0.052750126
34	0xbc1595a5	-0.009129916
35	0x3dc407fd	0.09571836
36	0xbd755749	-0.059897695
37	0xbd5ed06c	-0.054397985
38	0xbd18a251	-0.037264172
39	0x3da9c539	0.0828957
40	0x3d4ed8ae	0.05049961
41	0x3d1f7bec	0.03893654
42	0x3d1dfe1d	0.03857242
43	0x3bb36f3d	0.005475907
44	0x3d31aabd	0.04337572
45	0x3cf92aba	0.030415881
46	0x3c8c6d09	0.017141836
47	0xbd9c463d	-0.076305844
48	0x3cfbfb44	0.030759461
49	0xbd3c6247	-0.045992162
50	0x3cb01db8	0.021498546
51	0x3c3859ce	0.01125188
52	0xbc3b4fb2	-0.011432575
53	0xbd409215	-0.047014315
54	0xbd0d582f	-0.034507927
55	0xbd04d533	-0.032429885
56	0xbd343e40	-0.04400468
57	0x3ca4f05a	0.02013414
58	0x3cce88e3	0.025211757
59	0x3d563dbe	0.052304976
60	0x3c683844	0.014173571
61	0xbd91ba79	-0.07115645
62	0xbcef5477	-0.02921508
63	0xbe35ded6	-0.17760786
64	0xbe10194d	-0.14072151
65	0x3c46e5e8	0.012139775
66	0xbaf24ced	-0.001848606
67	0xbe09a3db	-0.13441412
68	0x3e090315	0.13380082
69	0xbe42bf55	-0.190183
70	0xbe562588	-0.20912755
71	0x3cbc8bd3	0.023015892
72	0xbca9464e	-0.020663407
73	0xbc2d26b2	-0.010568308
74	0xbd4f4e40	-0.050611734
75	0xbbe363f5	-0.006939406
76	0xbd3932e8	-0.045214564
77	0x3be133bf	0.0068726237
78	0x3d02a3a8	0.031894356
79	0xbc4f1859	-0.012640082
80	0xbdca23ea	-0.09870131
81	0xbd4b9bb7	-0.049709048
82	0xbd5cecd0	-0.05393678
83	0x3d328cb2	0.04359121
84	0xbbefb2ef	-0.0073150317
85	0x3cf6d7dc	0.030132227
86	0x3df3ac3c	0.118980855
87	0xbd4965ac	-0.049169227
88	0xbc9b5536	-0.01896153
89	0x3d7537a9	0.059867535
90	0xbcc5084a	-0.024051804
91	0xbc2fa29c	-0.010719921
92	0xbce74e56	-0.028235596
93	0xbd373f73	-0.044738244
94	0x3d2721fe	0.0408039
95	0xbd7594ab	-0.059956234
96	0xbcf3b73d	-0.02975046
97	0xbdad379d	-0.08457873
98	0xbde3426f	-0.110966556
99	0xbb8b656f	-0.004254035
100	0x3c348b55	0.0110195475
101	0x3d661baf	0.056178745
102	0x3d6c5ccb	0.05770568
103	0xbce60920	-0.028080523
104	0xbb60f76b	-0.003432716
105	0xbcdb095f	-0.026737867
106	0x3d63fc4e	0.05566054
107	0x3d08ac26	0.0333673
108	0xbdb71609	-0.0893975
109	0x3cca9396	0.024728578
110	0xbc9bb452	-0.019006882
111	0xbd86c17e	-0.065798745
112	0xbca27812	-0.019832645
113	0xbd0edfb3	-0.034881305
114	0x3ce559d0	0.027996927
115	0x3c5ea24f	0.013588502
116	0x3d565177	0.052323785
117	0xbd9a34c6	-0.07529597
118	0x3da24a19	0.07924289
119	0x3cc8bc7f	0.024503944
120	0xbd85cc64	-0.06533125
121	0x3dc12e28	0.09432632
122	0x3db35a88	0.08757502
123	0xbd05b1c8	-0.03264025
124	0x3d309107	0.04310706
125	0x3d76f615	0.060293276
126	0x3d29297c	0.04129933
127	0xbe6aa4c3	-0.22914414
128	0x3dd07bb4	0.101798445
129	0x3d3ff27a	0.046862103
130	0xbe2b26fa	-0.16714087
131	0x3dcd3e6c	0.10021672
132	0x3bb871d1	0.0056288023
133	0xbdd24406	-0.10266881
134	0x3dbaa515	0.09113518
135	0xbcc3116a	-0.023812015
136	0x3d550411	0.05200583
137	0xbdc4f87a	-0.09617706
138	0xbcbd5076	-0.023109656
139	0xbdf3d381	-0.119055755
140	0xbd72284f	-0.059120473
141	0xbdb9af46	-0.09066634
142	0xbdaed543	-0.0853677
143	0xbbd2c3de	-0.0064320406
144	0xbe3958e0	-0.1810031
145	0xbe03b5e6	-0.12862357
146	0xbd484ce1	-0.048901442
147	0xbdd8f087	-0.10592752
148	0x3c7ca29e	0.01541963
149	0x3c43c6a5	0.011949216
150	0xbe77ebbc	-0.2421102
151	0xbc9c4b5b	-0.019078901
152	0xbd1c491d	-0.038155664
153	0x3be59628	0.0070064254
154	0xbdc2e64b	-0.09516581
155	0x3cc3dbb0	0.023908466
156	0xbd7116b3	-0.05885954
157	0x3ce400b3	0.027832365
158	0xbc9f42e0	-0.019441068
159	0xbd5dedaf	-0.05418175
160	0x3cd533ee	0.026025739
161	0xbd2061d5	-0.0391558
162	0x3b62763c	0.0034555336
163	0xbda44bed	-0.08022294
164	0xbd971f4c	-0.07379016
165	0x3c988ba4	0.018621273
166	0x3d105c22	0.035244115
167	0x3d2fdbf1	0.04293436
168	0xbd53d088	-0.051712543
169	0xbcb4163d	-0.02198326
170	0xbcfe97bc	-0.031078212
171	0xbd8faeed	-0.07015786
172	0xbd986264	-0.074406415
173	0xbd83c40a	-0.06433876
174	0x3c8cb22e	0.017174806
175	0x3d87cd91	0.066310056
176	0x3d79c9e3	0.06098355
177	0x3c1293a0	0.008946329
178	0xbc40d803	-0.011770251
179	0xbd6fa5ab	-0.058507603
180	0xbc9d3358	-0.019189522
181	0x3be15b5b	0.0068773455
182	0xbd51b065	-0.051193614
183	0xbcce53c7	-0.025186433
184	0x3d180e09	0.03712276
185	0xbdb50704	-0.08839229
186	0xbd0c1945	-0.034203786
187	0xbd09ffa0	-0.03369105
188	0xbdfec7f5	-0.124404825
189	0xbd84026d	-0.06445775
190	0xbda4be1f	-0.08044075
191	0xbd49d9b9	-0.049279902
192	0x3d4ce1d2	0.050020047
193	0x3bb16a35	0.005414272
194	0x3bcec26d	0.0063097985
195	0xbbc1317a	-0.0058957906
196	0xbd1641af	-0.036683735
197	0x3cff12d4	0.031136908
198	0xbd776f93	-0.06040914
199	0xbd24e91c	-0.040261373
200	0xbcf7917b	-0.030220738
201	0x3c922fc7	0.017845048
202	0xbd4d84f7	-0.050175633
203	0x3d841de3	0.06451013
204	0xbcef0a03	-0.029179579
205	0xbd836564	-0.06415823
206	0xbc115369	-0.008869984
207	0x3c98938d	0.018625045
208	0xbd03f9c1	-0.032220606
209	0xbdc22e57	-0.09481495
210	0x3dc75fac	0.09735045
211	0xbcec114c	-0.028816842
212	0x3c18aafd	0.0093181105
213	0x3c930b2d	0.017949665
214	0xbe032f8d	-0.12811108
215	0xbdba191d	-0.09086821
216	0x3dcf58bc	0.101243466
217	0x3dd86d5c	0.10567734
218	0xbe061a95	-0.13096078
219	0x3de80834	0.113296896
220	0x3dfb030e	0.12256442
221	0xbdb79527	-0.089639954
222	0x3d955285	0.0729113
223	0x3dfcd59a	0.12345429
224	0xbd838154	-0.06421152
225	0x3cfedbb8	0.03111063
226	0xbdb05fcf	-0.08612024
227	0xbda8643f	-0.082222454
228	0x3d0b1622	0.033956654
229	0xbdc7c5cc	-0.09754524
230	0xbd88f10b	-0.066866
231	0x3dc13d9a	0.09435578
232	0xbd879f0c	-0.06622133
233	0xbe18dc9b	-0.14927904
234	0x3bfc629f	0.0077021862
235	0xbd1c68cf	-0.03818589
236	0xbdf4030e	-0.11914645
237	0xba4ea530	-0.0007882891
238	0xbda0fe5f	-0.078610174
239	0xbe00572a	-0.1253325
240	0xbd34d589	-0.044148955
241	0xbe33bd97	-0.17552792
242	0xbe2b41a0	-0.16724253
243	0xbd6b25cb	-0.05740909
244	0x3d073191	0.033006255
245	0xbd0aff1d	-0.0339347
246	0xbc9f492c	-0.01944407
247	0x3bbecd1b	0.0058227903
248	0x3bbf9b73	0.0058473884
249	0x3b33c308	0.002742948
250	0xbc8895ad	-0.016672933
251	0x3c8c9a3f	0.017163394
252	0xbc19ff2e	-0.0093992185
253	0xbbc71ac4	-0.0060761888
254	0xbe2730ef	-0.1632726
255	0xbc151c95	-0.009101053

block.3.block.0.bias f4 [64]
0	0x3c804edf	0.015662609
1	0x3c5b9a7f	0.013403534
2	0x3cb418fc	0.02198457
3	0xbbf3c4a0	-0.007439211
4	0x3a077115	0.0005166692
5	0x3d51ab4a	0.051188745
6	0xbca56981	-0.02019191
7	0x3bac5033	0.005258584
8	0x38a5cb4c	7.90568e-05
9	0xbd133121	-0.035935525
10	0x3bf9dcc3	0.007625194
11	0xbcfe1cf0	-0.031019658
12	0xbcfb63ad	-0.030687178
13	0x3a5db6bf	0.0008457712
14	0xbd581c61	-0.05276144
15	0x3c12bde6	0.008956408
16	0xbd124d12	-0.03571803
17	0x3d1c6a00	0.038187027
18	0x3c8ab399	0.016931342
19	0xbba62434	-0.0050702337
20	0xbd215002	-0.039382942
21	0x3ca96995	0.020680228
22	0x3d6d6751	0.05795986
23	0xbd5c8c83	-0.05384494
24	0x3d1cd683	0.03829051
25	0x3d4d49ac	0.050119087
26	0x3b3c5106	0.0028734817
27	0x3d354348	0.044253618
28	0xbcd6f1d1	-0.026238354
29	0x3bfab1c4	0.007650586
30	0x3cad039e	0.021119889
31	0x3d550daa	0.052014984
32	0x3d300946	0.042977594
33	0xbd532340	-0.05154729
34	0xbbaa7eb7	-0.005203094
35	0x3b610557	0.0034335458
36	0x3c8d5073	0.017250275
37	0xbd498d51	-0.049207035
38	0x3d451e46	0.048124574
39	0xbc152564	-0.009103153
40	0x3d1c809b	0.038208585
41	0xbd777a6f	-0.060419496
42	0xbc2c201d	-0.010505703
43	0xbcfdea74	-0.030995585
44	0x3d17fa40	0.03710389
45	0xbcc2e389	-0.023790138
46	0xbc300fe0	-0.010745972
47	0xbb0300db	-0.0019989524
48	0xbc5dac55	-0.013529857
49	0xbd2c6211	-0.04208571
50	0xbd0d5174	-0.034501508
51	0xbd52ba20	-0.051447034
52	0xbc014067	-0.00788889
53	0x3d2e5a78	0.042566746
54	0x3b987dd1	0.0046536704
55	0x3d19004d	0.037353802
56	0x3cf72181	0.030167343
57	0xbd6dd6b7	-0.058066096
58	0xbcae2473	-0.021257615
59	0xbd3fdd0a	-0.04684166
60	0xbd14b215	-0.036302645
61	0xba181ce7	-0.00058026466
62	0xbb1a1ab8	-0.002351446
63	0x3d6149c0	0.055001974

block.3.block.1.weight f4 [64]
0	0x3f7b95d5	0.982755
1	0x3f6ba3a2	0.9204656
2	0x3f74e8d8	0.9566779
3	0x3f6f66f7	0.93516487
4	0x3f5e5b0c	0.86857677
5	0x3f6953d4	0.91143537
6	0x3f65b7e0	0.89733696
7	0x3f806a65	1.0032469
8	0x3fa3bb7c	1.2791591
9	0x3f8a557e	1.080734
10	0x3f88cd12	1.0687582
11	0x3f7681d5	0.9629186
12	0x3f8aa90b	1.0832838
13	0x3f5e3667	0.8680176
14	0x3f596ab9	0.8492847
15	0x3f729edc	0.9477365
16	0x3f829ce7	1.0204133
17	0x3f73ee80	0.952858
18	0x3fadc99a	1.3577149
19	0x3f6e0ac8	0.929852
20	0x3f687f0d	0.90818864
21	0x3f5b7688	0.8572774
22	0x3f6306f5	0.8868249
23	0x3f879770	1.059309
24	0x3f74c974	0.95619893
25	0x3f60edba	0.8786274
26	0x3f8725e2	1.0558436
27	0x3f4fe0fa	0.8120266
28	0x3f604e77	0.8761973
29	0x3f8216b0	1.0163174
30	0x3f77af59	0.96751934
31	0x3f4ada6b	0.7923953
32	0x3f840a95	1.0315729
33	0x3f6005fb	0.87509125
34	0x3f65d2e3	0.8977491
35	0x3f69d6bd	0.9134329
36	0x3f78ba39	0.97159153
37	0x3f6fff07	0.93748516
38	0x3f42ccb0	0.7609358
39	0x3f754424	0.958071
40	0x3f6a9be2	0.9164411
41	0x3f8ab0ca	1.0835202
42	0x3f6c6b76	0.9235147
43	0x3f808833	1.0041565
44	0x3f691baf	0.91057867
45	0x3f653744	0.89537454
46	0x3fa50382	1.2891695
47	0x3f9a5262	1.2056391
48	0x3f6e34c2	0.9304925
49	0x3f6b4d04	0.9191439
50	0x3f594090	0.8486414
51	0x3f5a47bb	0.852657
52	0x3f61c8db	0.88197106
53	0x3f6e6e56	0.9313711
54	0x3f7ef7be	0.99596775
55	0x3f68e403	0.9097292
56	0x3f69a8fe	0.91273487
57	0x3f50a782	0.81505597
58	0x3f683e7f	0.9072036
59	0x3f6f1d1d	0.934038
60	0x3f6857ec	0.9075916
61	0x3f807771	1.0036451
62	0x3f7b780b	0.98230046
63	0x3f6cf443	0.92560214

block.3.block.1.bias f4 [64]
0	0xbeb407ef	-0.35162303
1	0xbe84f668	-0.25969243
2	0xbeda713d	-0.4266452
3	0xbe232e86	-0.15935716
4	0xbeccef32	-0.40026242
5	0xbeb86d53	-0.36020908
6	0xbe3d149a	-0.1846489
7	0xbeb0cd95	-0.34531847
8	0xbd9ad9c9	-0.075610705
9	0xbdcf25c7	-0.10114627
10	0xbf08e247	-0.5347027
11	0xbe329011	-0.1743777
12	0xbf171766	-0.5902008
13	0xbe28aaec	-0.16471452
14	0xbe99d2bd	-0.30043593
15	0xbea515de	-0.32243246
16	0xbee4087c	-0.44537723
17	0xbe95a8dc	-0.29230392
18	0x3d684c70	0.05671352
19	0xbeacc679	-0.33745173
20	0xbedc5fdd	-0.43041888
21	0xbe74d4a2	-0.23909238
22	0xbec135cf	-0.37736365
23	0xbee8a9d2	-0.45442063
24	0xbe817ea7	-0.2529194
25	0xbed818f8	-0.4220655
26	0xbea29b1b	-0.3175896
27	0xbeb1b6fb	-0.34709916
28	0xbea57e38	-0.3232286
29	0xbea49fe5	-0.3215324
30	0xbed7c0be	-0.42139238
31	0xbe546a52	-0.20743683
32	0xbee15326	-0.4400875
33	0xbec01b5a	-0.37520868
34	0xbe2721f4	-0.16321546
35	0xbe5920f6	-0.2120398
36	0xbea6629a	-0.32497102
37	0xbe807889	-0.2509196
38	0xbe95ba19	-0.29243544
39	0xbe813167	-0.25233003
40	0xbe81bde4	-0.25340188
41	0xbe1918cc	-0.14950866
42	0xbe81180d	-0.25213662
43	0xbe2cd29f	-0.1687722
44	0xbe93d02d	-0.28869763
45	0xbe1fba66	-0.15598449
46	0xbee485de	-0.44633383
47	0xbd339ab4	-0.04384871
48	0xbe900932	-0.28132015
49	0xbe8c8932	-0.27448422
50	0xbed2add2	-0.4114824
51	0xbe2d966a	-0.1695191
52	0xbeacb369	-0.3373063
53	0xbea3ed40	-0.32016945
54	0xbe5bb488	-0.21455586
55	0xbe76e778	-0.24111736
56	0xbec59884	-0.38592923
57	0xbeeed64d	-0.46647874
58	0xbe511c24	-0.20420891
59	0xbe306096	-0.17224345
60	0xbe9a059a	-0.300824
61	0xbdd9e1f9	-0.10638804
62	0xbe8a7911	-0.2704549
63	0xbe7f9f36	-0.24963078

block.3.block.1.running_mean f4 [64]
0	0xbffcbdf5	-1.974547
1	0xbf813db0	-1.009695
2	0xbef0e006	-0.47045916
3	0xbfb12966	-1.3840759
4	0xbf952c10	-1.1654072
5	0xbe310485	-0.1728688
6	0xbfb4a604	-1.4113164
7	0xbefa2f5f	-0.48864266
8	0xbf6b4add	-0.9191111
9	0xbf5d39ec	-0.86416507
10	0xbf487a91	-0.7831202
11	0xc0419306	-3.0245986
12	0xbf8219e6	-1.0164154
13	0xbf85bccb	-1.044824
14	0xbf70efa2	-0.9411565
15	0xbf9df734	-1.2341065
16	0xbf9639e2	-1.1736414
17	0xbd269751	-0.04067165
18	0xbf784a91	-0.9698878
19	0xbfaef316	-1.3667934
20	0x3f3e1dd0	0.7426424
21	0xbff122d5	-1.8838755
22	0x3f30b4c8	0.6902585
23	0xbf7e75ab	-0.993983
24	0xbf7a6286	-0.97806585
25	0xbeffe4ca	-0.4997924
26	0xbeef6d73	-0.4676319
27	0xbf9b759b	-1.2145265
28	0x3ea44c7e	0.3208961
29	0xbff592d3	-1.9185432
30	0x3e516a4a	0.20450702
31	0xbfb16e23	-1.3861736
32	0xbe4620d0	-0.19348454
33	0xbf0ec764	-0.55772996
34	0xbf80cee5	-1.0063139
35	0xbe65e30d	-0.22449894
36	0xbfea93f1	-1.8326398
37	0xc007ec4f	-2.1237981
38	0x400f2930	2.236889
39	0xc00f9ad0	-2.243824
40	0xbfdfa31f	-1.7471656
41	0xbf992d11	-1.1966878
42	0xbfb2161f	-1.3913001
43	0xbfa56a79	-1.2923118
44	0xbf435ab1	-0.7631026
45	0xbfcaa1f4	-1.5830674
46	0xbf45a711	-0.7720805
47	0xbfaf07d3	-1.3674263
48	0xbfd48f40	-1.6606216
49	0xbe42c42c	-0.19020146
50	0xbfc07ee4	-1.5038724
51	0x3ee32db0	0.44370794
52	0xbfb780d6	-1.4336193
53	0xbfee983c	-1.8640208
54	0xbfc75eb0	-1.5575771
55	0x3f37830e	0.7168435
56	0xbe23b600	-0.15987396
57	0x3f4626c0	0.7740288
58	0xc010383f	-2.253433
59	0xbf1bf6df	-0.6092357
60	0xc022f40d	-2.5461457
61	0xbfe12fd4	-1.7592721
62	0xbf4a81d7	-0.7910437
63	0xbfbe779b	-1.4880251

block.3.block.1.running_var f4 [64]
0	0x4049d6f2	3.1537442
1	0x3fe1f972	1.765425
2	0x3fd1543b	1.635383
3	0x402f6f48	2.741167
4	0x3fe1d006	1.7641609
5	0x401ab127	2.4170625
6	0x40352c12	2.8308148
7	0x3fd2bdff	1.6464232
8	0x400413ed	2.0637162
9	0x4002ebc9	2.0456412
10	0x3f844e15	1.0336329
11	0x40c64f3b	6.1971717
12	0x4006555b	2.0989597
13	0x40235a3a	2.552382
14	0x3fe86530	1.815588
15	0x401cda79	2.4508345
16	0x4009ed28	2.1550999
17	0x4030bed1	2.7616465
18	0x3fd2441e	1.6427038
19	0x402c06e2	2.68792
20	0x3fd17dde	1.6366537
21	0x402a9f3f	2.6659696
22	0x3f8fbf32	1.1230223
23	0x3faf7954	1.3708901
24	0x4007e932	2.123608
25	0x3ff2322b	1.892156
26	0x3fa528b6	1.2903049
27	0x405248ed	3.285701
28	0x401d5b1b	2.4586856
29	0x403f8b21	2.9928668
30	0x3fa10d11	1.2582113
31	0x40a7a984	5.239443
32	0x3f70da95	0.9408353
33	0x3fd5fce7	1.6717805
34	0x3fe71614	1.8053613
35	0x4063a95f	3.5572126
36	0x405da0d7	3.462942
37	0x409d6ccc	4.919531
38	0x401bb8cd	2.4331543
39	0x403d5af7	2.958677
40	0x40307668	2.757227
41	0x3feab218	1.83356
42	0x40155d56	2.3338218
43	0x3fefad2c	1.8724723
44	0x3fad388f	1.3532885
45	0x4027c762	2.6215444
46	0x3fb36cc2	1.4017565
47	0x4036df73	2.8573883
48	0x4014848b	2.3205898
49	0x3fe2c5f1	1.7716657
50	0x402abf77	2.667936
51	0x40509e0d	3.2596467
52	0x401f85bc	2.4925375
53	0x4036299c	2.8462896
54	0x401f67db	2.4907138
55	0x4027d62f	2.6224477
56	0x3f6e0c0c	0.9298713
57	0x3f97f59e	1.1871831
58	0x405d4c3b	3.4577777
59	0x3fda2d4d	1.7045075
60	0x40813062	4.037156
61	0x4051a6f7	3.2758157
62	0x3fb45eaf	1.4091395
63	0x402eb1e8	2.7296085

block.3.block.3.weight f4 [64, 64, 3, 3]
0	0xbce375ba	-0.027766097
1	0xbce3e768	-0.027820304
2	0xbc92ee6a	-0.01793595
3	0xbd03476f	-0.032050546
4	0xbd2ff0d2	-0.042954274
5	0xbb8d3c47	-0.004310164
6	0xbd08b21c	-0.033372983
7	0xbc40c1f7	-0.011764995
8	0xbd4ebfa3	-0.050475728
9	0xbccfbaf8	-0.025357708
10	0x3c498d6f	0.012301787
11	0x3cfb790c	0.030697368
12	0x3cfd8973	0.03094933
13	0x3d2751d4	0.04084952
14	0xb9f0a27a	-0.00045897422
15	0x3ac76053	0.0015211202
16	0xbcbf8a3f	-0.02338135
17	0x3d2db75e	0.0424112
18	0xbc102c23	-0.0087995855
19	0x3cdfacb6	0.027304035
20	0xbd147110	-0.036240637
21	0x3d3ff9ad	0.04686897
22	0xbcf17f2c	-0.029479586
23	0x3c6a34fc	0.014294859
24	0xbcecfea4	-0.028930016
25	0x3d81235c	0.063055724
26	0xbc98ebe7	-0.018667175
27	0xbd5ba8c8	-0.05362776
28	0x3a65d45b	0.00087673
29	0xbcd7c811	-0.026340516
30	0xbc627318	-0.013821386
31	0xbd49c64f	-0.049261387
32	0xbc04b820	-0.008100539
33	0xbb8d352e	-0.004309318
34	0x3bd1b49a	0.006399703
35	0x3c5d9a81	0.013525606
36	0x3cd3e0be	0.025864001
37	0xbb9a0813	-0.0047006696
38	0x3c12046a	0.008912185
39	0x3c077513	0.008267659
40	0x3c32b28e	0.010906829
41	0x3d2bdf6e	0.041961126
42	0x3d0d3ed2	0.03448374
43	0x3d3a0a2d	0.04541986
44	0x3d3a4572	0.045476384
45	0x3d7bc6f7	0.061469045
46	0x3d846e08	0.06466299
47	0x3da59784	0.0808554
48	0x3cfca6d3	0.030841267
49	0x3d4b4ab7	0.0496318
50	0x3d1397b6	0.036033355
51	0x3c8f6ffa	0.01750945
52	0x3d24b98b	0.04021601
53	0x3d26ca4c	0.04072027
54	0xbd004470	-0.031315267
55	0xbd3333be	-0.043750517
56	0x386d7c51	5.6620982e-05
57	0xbcc0762b	-0.023493847
58	0xbd3dd16f	-0.04634231
59	0xbd3918a0	-0.0451895
60	0xbba63bca	-0.0050730454
61	0xbcd1e5fb	-0.025622359
62	0xbd53de12	-0.051725455
63	0x3d417823	0.047233712
64	0x3d0a6b52	0.033793755
65	0x3b941565	0.004519152
66	0x3c841f05	0.016128073
67	0x3cdb15e8	0.026743844
68	0x3cef3cf2	0.029203866
69	0xbc9c4fd9	-0.019081043
70	0x3cf5a8ba	0.029987682
71	0x3ca4b4a6	0.020105671
72	0x3dd2725f	0.10275721
73	0xbe57d9ac	-0.21079129
74	0x3d9a6dd3	0.075404786
75	0xbe88c501	-0.26712802
76	0x3e8b2dfe	0.27183527
77	0xbe55b5ca	-0.20870128
78	0x3e111a4c	0.14170188
79	0xbe7c6662	-0.24648431
80	0x3da30ac2	0.07961036
81	0xbd88788f	-0.0666362
82	0x3e0324eb	0.12807052
83	0xbd13df72	-0.036101766
84	0x3dcd5272	0.10025491
85	0xbdae9d82	-0.08526136
86	0x3d76829f	0.060183164
87	0xbbcb100c	-0.0061969813
88	0x3e06aba9	0.1315142
89	0xbd3044c0	-0.043034315
90	0xbc88c74f	-0.0166966
91	0xbd2d67bc	-0.042335257
92	0xbce9d1bf	-0.028542398
93	0xbc254784	-0.010087851
94	0xbbd6953e	-0.006548553
95	0xbcbed215	-0.023293534
96	0xbd224b0c	-0.03962235
97	0xbc90d929	-0.017681675
98	0xbb8f3da8	-0.0043713637
99	0xbc078a63	-0.00827274
100	0x3d9886da	0.07447596
101	0x3d799a37	0.060938086
102	0x3d56816b	0.052369516
103	0xbd3757de	-0.04476153
104	0x3cad01aa	0.021118958
105	0xbad620d6	-0.001633669
106	0x3db37ff3	0.08764639
107	0x3d8222c6	0.06354289
108	0x3b5a8f17	0.0033349448
109	0x3bdd7d26	0.0067593036
110	0xbcde8390	-0.027162343
111	0xbba23093	-0.004949638
112	0xbcb64796	-0.022250932
113	0x3cb860b1	0.022507044
114	0xbce878c2	-0.028377894
115	0xbd8514ce	-0.06498109
116	0xbcd0e7a1	-0.025501074
117	0x3c6b3323	0.014355454
118	0x3d17148a	0.036884822
119	0x3d44fba6	0.048091553
120	0x3b40ca72	0.0029417542
121	0xbb9dced5	-0.004815916
122	0x3d521f0b	0.051299136
123	0x3bd7e12f	0.0065881233
124	0x3cf3f9dc	0.029782228
125	0x3cfe27b6	0.031024795
126	0xbce24a53	-0.027623331
127	0x3d10bf90	0.03533894
128	0xbc38d00b	-0.01128007
129	0xbb95d0a3	-0.0045719906
130	0xbc35c350	-0.011093929
131	0x3da0a1fd	0.07843397
132	0x3d55c6cc	0.05219154
133	0x3d5ad88c	0.05342917
134	0x3be289e2	0.0069134096
135	0x3d5105ef	0.05103105
136	0xbcf17f9f	-0.0294798
137	0x3da8a3dd	0.082343794
138	0xbd430cba	-0.04761956
139	0x3da4362f	0.08018147
140	0xbd4bd1e5	-0.049760718
141	0x3cdbf163	0.0268485
142	0xbde55517	-0.1119787
143	0x3d85d182	0.06534101
144	0x3c7fd40f	0.015614524
145	0x3c5ad4c0	0.013356388
146	0xbcea8dac	-0.028632008
147	0x3d68b8c2	0.056816824
148	0xbc8b0538	-0.016970262
149	0x3d06accc	0.032879636
150	0x3cd4fc58	0.025999233
151	0x3c994adc	0.018712454
152	0x3bbe3bd4	0.005805472
153	0x3d28fb43	0.041255247
154	0x3d52fa68	0.051508337
155	0x3d50c755	0.050971348
156	0x3cbc42bc	0.02298104
157	0xbc13e5c9	-0.009026953
158	0x3c6417c7	0.013921685
159	0x3c8c4002	0.017120365
160	0xbc6f5fdc	-0.014610257
161	0x3c5081ba	0.012726242
162	0xbe19c368	-0.15015948
163	0x3e6b02e4	0.22950321
164	0xbd33c027	-0.043884423
165	0x3e848efa	0.25890332
166	0xbea880c4	-0.3291074
167	0x3e0b438b	0.13599984
168	0xbe2077d9	-0.15670718
169	0x3e7df0fd	0.24798961
170	0xbdd38def	-0.10329806
171	0xbc225e8a	-0.009910235
172	0xbd0916a5	-0.03346886
173	0xb817bbc5	-3.617608e-05
174	0xbc8a54d2	-0.016886149
175	0xbd323dae	-0.043515854
176	0x3c438760	0.011934131
177	0xbd4dab56	-0.050212227
178	0x3ad99275	0.0016599434
179	0xbbd2c4ec	-0.0064321663
180	0xbdf8633e	-0.12128304
181	0x3d13567d	0.035971154
182	0xbe05301a	-0.1300663
183	0x3cc9c006	0.024627697
184	0xbe3bfba9	-0.1835772
185	0x3d509d68	0.050931364
186	0xbe091912	-0.1338847
187	0x3dcc0133	0.09961166
188	0xbdca0696	-0.098645374
189	0x3cd4a173	0.025955891
190	0xbc317181	-0.010830284
191	0x3cf713c3	0.03016079
192	0xbb88497b	-0.00415915
193	0xbc128941	-0.008943857
194	0xbd1ff635	-0.03905316
195	0xb79012ff	-1.7174983e-05
196	0xbcca4598	-0.024691388
197	0xbcab3612	-0.020899806
198	0xbd457a7f	-0.048212525
199	0x3ba12b0f	0.004918463
200	0xbcd332c8	-0.02578105
201	0xbd14245d	-0.03616749
202	0xbd2a0836	-0.041511737
203	0x3bbd4cb4	0.005776966
204	0xbd3cb92f	-0.046075042
205	0xbb142167	-0.0022602917
206	0xbddf595e	-0.10905717
207	0xbdb07ee7	-0.08617955
208	0x3d07f694	0.03319414
209	0xbd8161ea	-0.06317504
210	0x3d4d371e	0.050101392
211	0xbded0d5c	-0.11574814
212	0x3d84d5fa	0.06486125
213	0xbd7a8fdb	-0.061172348
214	0x3d9c6f0b	0.07638367
215	0xbdb1fbe9	-0.08690626
216	0xbd152736	-0.036414348
217	0xbd1c8cf4	-0.03822036
218	0x3ceae466	0.028673362
219	0xbd5a837e	-0.053348057
220	0x3d03fef8	0.03222558
221	0xba98d9a6	-0.0011661544
222	0x3b905bf7	0.0044054943
223	0xbca75378	-0.020425543
224	0xbcc7897a	-0.024357546
225	0x3d52821c	0.051393613
226	0x3d9fa3b1	0.077948935
227	0x3cd42433	0.025896167
228	0x3c945758	0.018108055
229	0x3d0dc52d	0.03461187
230	0x3d81322f	0.063084
231	0x3b0c5010	0.0021410026
232	0x3d4d528d	0.050127555
233	0x3c6f5522	0.0146077
234	0xbd1c23fd	-0.03812026
235	0x3e1a34c6	0.15059194
236	0x3d0d68ec	0.03452389
237	0x3e4aaaf6	0.19791779
238	0x3c98ec81	0.018667461
239	0x3e08f4e1	0.13374664
240	0x3ac50c03	0.0015033487
241	0x3e1a9a97	0.15098034
242	0xbbc02d23	-0.0058647557
243	0x3bf7065d	0.0075386004
244	0xbd94441a	-0.07239552
245	0x3ae13cf7	0.0017184307
246	0xbc98ef06	-0.018668663
247	0xbc3bd341	-0.011463941
248	0xbd46d46c	-0.048542425
249	0x3cf81e33	0.030287838
250	0xbc51ec39	-0.0128126675
251	0x3d07d003	0.03315736
252	0xbd30fe90	-0.04321152
253	0x3acb665d	0.0015518178
254	0xbd0a33b5	-0.033740718
255	0xbcc898ce	-0.024486925

block.3.block.3.bias f4 [64]
0	0x3c1470af	0.009060069
1	0x3d25d9fd	0.040491093
2	0xbac65ff8	-0.0015134802
3	0x3c076c18	0.008265518
4	0xbca22380	-0.019792318
5	0x3c934d0e	0.017981078
6	0xbd3314d8	-0.04372105
7	0xbcd93075	-0.026512364
8	0x3cb90771	0.022586556
9	0xbd0be789	-0.034156356
10	0x3ce31ced	0.027723754
11	0x3d1d0d3e	0.038342707
12	0x3c1eafad	0.009685439
13	0xbcfc502d	-0.03079995
14	0xbc2d34f7	-0.01057171
15	0x3cba7a09	0.022763269
16	0x3cf1dbe6	0.029523801
17	0xbb521faa	-0.003206233
18	0xbc87f61a	-0.016596843
19	0x3cee1bb0	0.029065937
20	0xbcf329a7	-0.029682947
21	0xbc8ed021	-0.017433228
22	0xbc3cbb93	-0.011519331
23	0xbbd51f41	-0.00650397
24	0x3c9756a7	0.018473936
25	0xbc56a223	-0.01310018
26	0x3cd43ec2	0.025908832
27	0xbcf54d9b	-0.029944232
28	0x3cf579e6	0.029965352
29	0x3d0e04c9	0.034672532
30	0x3d218138	0.039429873
31	0xbd1eb6d6	-0.038748585
32	0xbcf4d95e	-0.029888805
33	0x3d24c6cd	0.040228654
34	0x3c2c095e	0.01050028
35	0x3c52bee0	0.012862891
36	0xbce6e13e	-0.028183576
37	0xb94aa60d	-0.0001932608
38	0xbaa0f617	-0.0012280372
39	0xbc8c05f2	-0.017092679
40	0x3d12e7b7	0.03586551
41	0xbcbe0308	-0.023194805
42	0x3d222246	0.039583467
43	0xbd1b9cce	-0.037991337
44	0x3c20d7aa	0.009817043
45	0x3cc6f10f	0.024284868
46	0x3c3a7006	0.0113792475
47	0x3d372782	0.044715412
48	0x3cf324ab	0.02968057
49	0xbb3ace30	-0.0028504245
50	0xbcbf2389	-0.023332374
51	0x3cdc1dde	0.02686971
52	0x3cde8d10	0.027166873
53	0x3d24406a	0.040100493
54	0x3cbefdda	0.023314405
55	0xbcfbd6e9	-0.030742126
56	0xbcf9c95a	-0.03049152
57	0x3c50ebdc	0.012751546
58	0xbbabac9c	-0.0052390825
59	0xbd17f19b	-0.037095647
60	0xbd040846	-0.032234453
61	0x3d4dd8c0	0.050255537
62	0x3ca2b71d	0.019862706
63	0x3ab8dd5f	0.001410406

block.3.block.4.weight f4 [64]
0	0x3fc9053f	1.5704726
1	0x3fb8cbfc	1.4437251
2	0x3fcdaffc	1.6069331
3	0x3fb71b43	1.4305195
4	0x3fc7cbb4	1.560904
5	0x3fa1efe7	1.2651337
6	0x3fbb26aa	1.4621174
7	0x3fc52cd9	1.5404311
8	0x3fb91534	1.4459596
9	0x3fc33afb	1.5252374
10	0x3fb4666b	1.4093755
11	0x3fc8693c	1.5657115
12	0x3fb0c19d	1.3809086
13	0x3fc9c21b	1.5762361
14	0x3fb22b5e	1.3919485
15	0x3fb6a964	1.4270444
16	0x3fce1c02	1.6102297
17	0x3fbd3b7e	1.478378
18	0x3fc8af11	1.5678426
19	0x3fcf92fc	1.6216731
20	0x3fc1f79a	1.5153687
21	0x3fbb2298	1.4619932
22	0x3fbfc8f0	1.4983196
23	0x3fa7ca92	1.3108695
24	0x3fc2358a	1.5172589
25	0x3fb5ef38	1.4213629
26	0x3fbf8037	1.4961003
27	0x3fa8d037	1.3188542
28	0x3fc05fe7	1.5029267
29	0x3fbf8b59	1.49644
30	0x3fcb4100	1.5879211
31	0x3fadfc6c	1.3592658
32	0x3fc38533	1.5275024
33	0x3fbc2c87	1.4701089
34	0x3fd3934e	1.6529329
35	0x3fb40a8c	1.4065719
36	0x3faf446e	1.3692758
37	0x3faa23c1	1.3292161
38	0x3fc7b4f4	1.5602098
39	0x3fc4a578	1.5362997
40	0x3fc6c64e	1.5529268
41	0x3fb9275e	1.4465139
42	0x3fb1718c	1.3862777
43	0x3fc0d9af	1.5066432
44	0x3fbdc351	1.4825231
45	0x3fb29507	1.395173
46	0x3fd26c7e	1.6439359
47	0x3fb79792	1.434313
48	0x3fbc82d4	1.4727426
49	0x3fac03ad	1.3438622
50	0x3fce8b76	1.613631
51	0x3fb66a4b	1.4251188
52	0x3fc58051	1.5429784
53	0x3fbc7513	1.4723228
54	0x3fbe5e53	1.4872535
55	0x3faa938a	1.3326275
56	0x3fa3c2aa	1.2793782
57	0x3fb2fa10	1.3982563
58	0x3fb4f6d3	1.4137825
59	0x3fb2986d	1.3952767
60	0x3fb39a5f	1.4031485
61	0x3fba9129	1.4575549
62	0x3fc7b021	1.5600625
63	0x3fb44fb3	1.4086822

block.3.block.4.bias f4 [64]
0	0x3dd21986	0.102587745
1	0x3d7ab0b2	0.061203666
2	0x3e2b618f	0.16736434
3	0x3d4ac0b0	0.049500167
4	0x3e1b622c	0.15174168
5	0x3dca7c2e	0.09886967
6	0x3de78eb6	0.11306517
7	0xbd4c41dc	-0.049867496
8	0x3c7b63e3	0.015343639
9	0x3d0e06dd	0.034674514
10	0x3dd598cf	0.104295366
11	0x3dfcf63f	0.12351655
12	0x3dc22c97	0.09481161
13	0x3e502d78	0.20329845
14	0x3e17414a	0.14771
15	0x3e190dfa	0.14946738
16	0x3de5ac04	0.1121445
17	0x3d7ccf4f	0.061721142
18	0x3db6dbf8	0.089286745
19	0x3e10bc7a	0.14134398
20	0x3d622f5c	0.055220947
21	0x3dac412c	0.08410868
22	0x3e0776ad	0.13228865
23	0x3dc592b2	0.096471205
24	0x3d03f633	0.032217216
25	0x3e5112a3	0.20417266
26	0x3e411141	0.18854238
27	0x3e1d9d0a	0.15391937
28	0x3e09578d	0.13412304
29	0x3de7c0d1	0.11316074
30	0x3d72f13f	0.0593121
31	0x3ddebe64	0.10876158
32	0x3e1ae992	0.15128163
33	0x3da819a3	0.08208015
34	0x3e349d27	0.17638074
35	0x3e060406	0.13087472
36	0x3de92fbd	0.113860585
37	0x3da8f6cc	0.08250198
38	0x3d9168f4	0.07100096
39	0x3de2cd0f	0.11074268
40	0x3d3b2449	0.0456889
41	0x3dcf0775	0.10108844
42	0x3ddcdd52	0.10784401
43	0x3e13d36e	0.14436123
44	0x3d187ae1	0.03722656
45	0x3d9e1a1f	0.07719826
46	0x3ddb5e55	0.10711352
47	0x3e39edb0	0.18157077
48	0x3dac94a8	0.084267914
49	0x3e050c4f	0.12992977
50	0x3c23ab49	0.009989568
51	0x3d819f89	0.06329257
52	0x3e352083	0.17688183
53	0x3dafa740	0.08576822
54	0x3e49a815	0.19693024
55	0x3e24a68b	0.16079156
56	0x3dc16f35	0.09445039
57	0x3dc1672b	0.09443506
58	0x3dae3c1f	0.08507561
59	0x3d83fb73	0.064444445
60	0x3e015382	0.12629512
61	0x3e009161	0.12555458
62	0x3dad521e	0.08462928
63	0x3de78bba	0.113059476

block.3.block.4.running_mean f4 [64]
0	0xbde484df	-0.11158156
1	0xbf085572	-0.5325538
2	0x3e05decf	0.13073276
3	0x3fa3e735	1.2804934
4	0xbe6cf584	-0.23140532
5	0x3d4f7fad	0.05065887
6	0x3f37881c	0.7169206
7	0x3e570f55	0.21001942
8	0x3c934289	0.017976062
9	0xbea1cea0	-0.31602955
10	0x3de6f28a	0.112767294
11	0x3deeabc9	0.11653859
12	0x3eecf944	0.46283925
13	0x3decae66	0.11556701
14	0xbf466683	-0.7750017
15	0x3e2e637d	0.1703014
16	0x3ed422f7	0.41432926
17	0x3e0533f6	0.13008103
18	0x3ca65bd5	0.02030746
19	0x3eba3b9c	0.36373603
20	0x3e031f82	0.12804988
21	0xbed31e13	-0.41233882
22	0x3e976844	0.29571736
23	0xbf496872	-0.78674996
24	0x3ef89cc2	0.48557097
25	0xbed34447	-0.4126303
26	0x3f44c5f2	0.7686454
27	0x3f82ed8f	1.0228747
28	0xbf4c6274	-0.7983773
29	0xbeffbfd4	-0.4995104
30	0x3de35b22	0.111013666
31	0x3f85991e	1.0437353
32	0xbd8e3c13	-0.06945052
33	0xbeaeaf17	-0.34117958
34	0x3ea848c1	0.32868007
35	0xbea02a6b	-0.31282362
36	0xbf766857	-0.9625296
37	0xbf771e1e	-0.9653033
38	0x3e539a3f	0.20664309
39	0xbea5e8f1	-0.32404283
40	0xbf253a90	-0.64542484
41	0xbebc7889	-0.3681071
42	0x3f14afc7	0.58080715
43	0xbf2cac8e	-0.674508
44	0xbf0ff3d6	-0.5623144
45	0xbf0b8121	-0.5449391
46	0xbe87e9a5	-0.26545444
47	0xba0d0120	-0.0005378891
48	0x3db15b2d	0.086599685
49	0x3e7dd7af	0.24789308
50	0x3eb059bb	0.3444346
51	0xbe341c9c	-0.17589039
52	0x3f89c9e7	1.0764741
53	0x3f0c3db3	0.54781646
54	0x3cdb3960	0.026760757
55	0x3dc3096a	0.0952328
56	0xbe83ea15	-0.25764528
57	0xbea96030	-0.33081198
58	0x3e8c715c	0.27430236
59	0xbf0ce677	-0.5503916
60	0x3eafe9da	0.34358102
61	0xbf700364	-0.93755174
62	0xbeeac7d7	-0.4585559
63	0x3d520b33	0.05128021

block.3.block.4.running_var f4 [64]
0	0x3f333238	0.699985
1	0x3f92623d	1.143623
2	0x3fb7e4e8	1.4366732
3	0x3f9bd13b	1.2173227
4	0x3f554ceb	0.8332049
5	0x3f5e850f	0.8692178
6	0x3fbf2947	1.4934472
7	0x3f7fa73b	0.9986455
8	0x3fa2958a	1.2701886
9	0x3f9df751	1.23411
10	0x3f57db06	0.8431858
11	0x3fbd7c49	1.4803554
12	0x3fa03c1a	1.2518342
13	0x3f968c8c	1.1761642
14	0x3f79e15f	0.97609514
15	0x3fa5c741	1.2951432
16	0x3fc0e0d3	1.5068611
17	0x3faa986e	1.3327768
18	0x3f695c75	0.91156703
19	0x3f575b01	0.84123236
20	0x3f372772	0.71544564
21	0x3f798e08	0.9748235
22	0x3f66f89b	0.9022309
23	0x3f43cc58	0.7648368
24	0x3f7bbe76	0.98337495
25	0x3f8851b2	1.0649931
26	0x3f92fa5b	1.1482652
27	0x3fae316b	1.3608831
28	0x3f7b777e	0.98229206
29	0x3f645a9e	0.8920077
30	0x3f808fa2	1.0043833
31	0x3fb0d285	1.3814245
32	0x3f9d8a2a	1.2307789
33	0x3f900a1e	1.1253088
34	0x3f8c3abc	1.0955424
35	0x3f483444	0.7820475
36	0x3f9795a3	1.184254
37	0x3f48b907	0.7840733
38	0x3f34e093	0.70655173
39	0x3f2d804e	0.677739
40	0x3f9d08a3	1.2268261
41	0x3f495dda	0.7865883
42	0x3f80c01a	1.0058625
43	0x3f633271	0.8874884
44	0x3f9e9c0d	1.2391373
45	0x3f2e85f3	0.6817314
46	0x3f980512	1.1876547
47	0x3f6e0f2a	0.9299189
48	0x3fa2eae6	1.2727935
49	0x3f5ce7c3	0.8629114
50	0x3feae9a6	1.8352554
51	0x3f849f8f	1.0361193
52	0x3fd58258	1.6680403
53	0x3f832c27	1.0247849
54	0x3f9e4050	1.2363377
55	0x3f8019a7	1.0007828
56	0x3f49e955	0.7887166
57	0x3f5dee59	0.86691815
58	0x3f82e246	1.0225303
59	0x3f8777f1	1.0583478
60	0x3f5d8fe1	0.86547667
61	0x3f69c0e1	0.91309935
62	0x3f3a61f7	0.7280573
63	0x3f3639e1	0.71182066

block.3.skip_conv.weight f4 [64, 32, 1, 1]
0	0xbcdf45b8	-0.027254924
1	0x3e22bb43	0.15891747
2	0x3cbab990	0.022793561
3	0xbe56d559	-0.20979823
4	0xbdaf0f84	-0.08547881
5	0xbd7b1fd8	-0.061309665
6	0x3cf7f663	0.030268854
7	0xbdadffab	-0.084960304
8	0xbd24f0dd	-0.040268768
9	0xbde3b6d1	-0.11118854
10	0xbd96cce0	-0.073632956
11	0xbe4ed8ac	-0.20199841
12	0x3ced2641	0.028948905
13	0xbe337d01	-0.17528154
14	0x3c38ba54	0.011274893
15	0x3d5592a7	0.05214181
16	0xbe40c74d	-0.18826027
17	0xbce3d5e3	-0.02781195
18	0x3d00a3cd	0.031406213
19	0xbdcd9f67	-0.10040169
20	0xbe226a44	-0.1586085
21	0xbdbc8863	-0.09205701
22	0xbdaf4b4c	-0.085592836
23	0xbc002bce	-0.007822944
24	0xbe9d1e9a	-0.3068741
25	0xbe35664e	-0.17714807
26	0xbd54d426	-0.051960133
27	0x3cf03358	0.029321358
28	0xbe5362ad	-0.2064311
29	0xbe389eee	-0.18029377
30	0xbe433e43	-0.1906672
31	0x3d8e4b69	0.06947977
32	0xbda64e6f	-0.08120429
33	0xbe3b95ee	-0.18318912
34	0xbdd7c0b0	-0.10534799
35	0xbd7a6e0e	-0.061140113
36	0x3ce6e603	0.02818585
37	0xbda18bca	-0.07887991
38	0x3ca662c5	0.020310769
39	0xbc230f82	-0.009952428
40	0x3d00b769	0.031424914
41	0xbddb9b61	-0.107229955
42	0xba3bf265	-0.00071696035
43	0xbcab1ab2	-0.020886753
44	0x3d7d31db	0.061815124
45	0xbd0d3293	-0.03447206
46	0x3d44d79f	0.048057195
47	0x3d409c1f	0.04702389
48	0xbe4289b5	-0.18997844
49	0xbe36791b	-0.17819636
50	0xbd18a1fc	-0.037263855
51	0xbdf2bbff	-0.11852264
52	0xbe5e9c0d	-0.21739216
53	0xbe3b0ab5	-0.18265803
54	0xbe290846	-0.16507062
55	0xbcee09b9	-0.02905737
56	0xbe45f4e5	-0.19331701
57	0xbcbc5c6b	-0.022993287
58	0x3e4321f8	0.19055927
59	0xbe03e705	-0.12881096
60	0xbdff4f45	-0.12466291
61	0xbe7f276c	-0.24917382
62	0x3d8cac4d	0.06868801
63	0xbd681c6b	-0.056667726
64	0xbe25e928	-0.16202223
65	0xbd98e143	-0.0746484
66	0x3d67d1e8	0.056596667
67	0x3d314f0e	0.043288283
68	0xbc2aab4e	-0.010416819
69	0xbe8713b2	-0.26382214
70	0xbdf33b22	-0.11876513
71	0x3b871039	0.004121807
72	0xbe8ddf65	-0.277095
73	0xbc018c89	-0.007907041
74	0x3d088e5a	0.033338882
75	0xbda6af65	-0.081389226
76	0xbd79bc34	-0.0609705
77	0x3e9f3131	0.31092218
78	0xbe5e522e	-0.21711037
79	0xbd543198	-0.05180511
80	0x3ba595dd	0.0050532655
81	0xbc221039	-0.009891563
82	0x3dc8340f	0.097755544
83	0xbe152fa0	-0.14568949
84	0x3dfd9b11	0.12383092
85	0xbd8f7ac1	-0.07005835
86	0xbe398bce	-0.18119738
87	0x3dc0c1c6	0.09411959
88	0x3d319d62	0.043362983
89	0xbe011f0c	-0.126095
90	0x3d270071	0.040771905
91	0x3b52e279	0.0032178445
92	0xbdbe0358	-0.092779815
93	0x3d96d86d	0.07365499
94	0xbdda85e1	-0.106700666
95	0x3dd0b6a1	0.10191084
96	0x3e38c2d1	0.18043067
97	0x3bc7d474	0.0060983244
98	0xbe19c6ca	-0.15017238
99	0x3df1172c	0.11771998
100	0x3c6b42e9	0.014359214
101	0xbd258601	-0.040411
102	0xbe1da0dd	-0.15393396
103	0xbca79be5	-0.020460078
104	0x3e1b0a69	0.1514069
105	0x3d6fb82f	0.05852526
106	0xbe19c2f2	-0.15015772
107	0xbdfff429	-0.12497742
108	0xbc40e675	-0.011773695
109	0xbe397426	-0.18110713
110	0xbd4c8ded	-0.04994004
111	0xbdc47428	-0.095924675
112	0xbe1b9f5a	-0.15197507
113	0x3de0efab	0.10983213
114	0xbe7229bf	-0.23648737
115	0xbe2d98ca	-0.16952816
116	0xbe474792	-0.19460896
117	0xbdfa6849	-0.12226922
118	0x3cc67281	0.024224522
119	0xbba16309	-0.004925136
120	0x3d2a3431	0.04155368
121	0x3dafc96d	0.08583341
122	0xbdd9d676	-0.10636608
123	0xbd40d5b6	-0.04707881
124	0x3e0cb009	0.13739027
125	0xbc86ad42	-0.016440038
126	0xbca6911b	-0.020332864
127	0x3daebc2c	0.08531985
128	0xbde3627e	-0.1110277
129	0x3d92071f	0.071302645
130	0xbcbb8165	-0.022888849
131	0x3e11622d	0.14197607
132	0xbe2f9bfa	-0.17149344
133	0xbe42e353	-0.1903203
134	0x3e53e2d2	0.20691994
135	0x3dbb9b30	0.09160459
136	0x3dd3078d	0.103041746
137	0x3da70426	0.08155088
138	0x3d4bb59f	0.049733754
139	0xbe272e6f	-0.16326307
140	0xbd141a30	-0.036157787
141	0xbd76ea9b	-0.06028233
142	0x3d056198	0.032563776
143	0x3d52a1dc	0.051423892
144	0xbe2c4c84	-0.16826063
145	0xbaa4a6f0	-0.0012561958
146	0xbdc94e4a	-0.098293856
147	0xbcd1edfc	-0.025626175
148	0xbdf6eb0b	-0.1205655
149	0x3e8d3a97	0.27583763
150	0x3d455df3	0.0481853
151	0xbe417b1f	-0.18894623
152	0xbe8c45f8	-0.27397132
153	0xbe1d95fe	-0.15389249
154	0xbd380d14	-0.044934347
155	0xbd46de43	-0.04855181
156	0x3d19798d	0.037469435
157	0xbe8cfebe	-0.27538103
158	0xbe756ed3	-0.23968057
159	0x3a67263f	0.000881765
160	0xbdd47639	-0.10374112
161	0x3dfe042b	0.12403139
162	0xbc3dec45	-0.011591976
163	0xbd7185dd	-0.058965553
164	0x3e6976d5	0.22799237
165	0x3d66771f	0.056265946
166	0x3e4d7762	0.20065072
167	0xbe3e0926	-0.18558177
168	0x3d03f6cc	0.032217786
169	0xbdc929fb	-0.0982246
170	0x3de09ead	0.10967765
171	0xbe0d59ec	-0.13803834
172	0x3dc0af42	0.09408428
173	0xbe967011	-0.29382375
174	0x3c927ed6	0.017882746
175	0x3d8343f3	0.06409445
176	0xbdfffb2c	-0.12499079
177	0x3e38a47d	0.18031497
178	0x3e6b7032	0.22992018
179	0x3c8e30f5	0.017357329
180	0xbc4c16c9	-0.012456604
181	0xbc8d13a7	-0.017221285
182	0xbde2235c	-0.110419005
183	0xbe635fa0	-0.22204447
184	0xbddf7b56	-0.10912196
185	0xbdd8dae0	-0.10588622
186	0xbe467d55	-0.19383748
187	0x3db88264	0.09009245
188	0x3d10333f	0.035205122
189	0x3ca0bcf2	0.019621346
190	0x3df54d1b	0.11977597
191	0xbd845e99	-0.064633556
192	0xbd27eef6	-0.040999375
193	0xbde85c88	-0.11345774
194	0xbdb9c231	-0.09070242
195	0x3c47f548	0.012204476
196	0x3d96c314	0.07361427
197	0x3d1997c4	0.03749825
198	0x3c91afa5	0.01778395
199	0xbcd4ca41	-0.025975348
200	0x3ddb29b2	0.10701312
201	0x3ddcffb2	0.107909575
202	0x3dda5359	0.106604286
203	0x3df4a3db	0.119453155
204	0x3dc402ea	0.09570868
205	0xbe38de3f	-0.1805353
206	0xbd02e154	-0.03195317
207	0x3e390350	0.1806767
208	0xbdf9a9a4	-0.121905595
209	0xbc6391b2	-0.013889717
210	0xbe60abc6	-0.21940526
211	0x3d877eb4	0.066159636
212	0x3d81f880	0.06346226
213	0x3d962837	0.07331889
214	0xbe17bc53	-0.14817934
215	0x3c2e8528	0.010651864
216	0xbdbc1474	-0.091835886
217	0xbda63d11	-0.08117116
218	0x3d5b8d82	0.05360175
219	0x3e09fecc	0.13476104
220	0xbe6e7b26	-0.23289165
221	0x3da2e1d6	0.07953231
222	0x3d82670a	0.063673094
223	0x3d43962d	0.04775064
224	0xbce85105	-0.028358946
225	0x3d41a9b5	0.047280986
226	0xbe320f11	-0.1738856
227	0xbce59755	-0.028026262
228	0xbe707134	-0.23480684
229	0xbd8c2740	-0.06843424
230	0x3d4156a4	0.047201768
231	0x3cfd0133	0.03088436
232	0xbe3e29b2	-0.18570593
233	0xbe6a5399	-0.22883452
234	0x3da106fc	0.0786266
235	0x3df2905f	0.11843943
236	0x3e3a4be9	0.1819302
237	0xbe3af924	-0.18259102
238	0xbe235951	-0.1595204
239	0xbd4964fd	-0.049168576
240	0xbdc27664	-0.094952375
241	0x3d4dbbe5	0.05022802
242	0xbdf9310e	-0.121675596
243	0x3d9e915a	0.07742567
244	0x3e08cea2	0.13360074
245	0xbdc26baf	-0.09493195
246	0x3c936038	0.017990217
247	0xbc747408	-0.014920242
248	0xbda3c0c4	-0.079957515
249	0x3db907e1	0.09034706
250	0x3dc2ac66	0.09505539
251	0xbe11615d	-0.14197297
252	0xbe2dbd58	-0.1696676
253	0x3d83270b	0.06403931
254	0xbdf87660	-0.12131953
255	0xbde919f4	-0.11381903

block.3.skip_conv.bias f4 [64]
0	0xbde75cc0	-0.112969875
1	0xbd4f97e8	-0.05068198
2	0xbd6e2663	-0.058142077
3	0x3d524411	0.051334444
4	0x3dcaeed5	0.09908835
5	0x3e1ddb61	0.15415718
6	0x3e2a7717	0.16646992
7	0xbd6a4dd9	-0.057203148
8	0xbd850acc	-0.064962
9	0xbd430140	-0.047608614
10	0xbdff2c76	-0.12459652
11	0x3ddad195	0.10684506
12	0xbe31c5cd	-0.17360611
13	0x3d2cb8bc	0.042168364
14	0x3da93605	0.082622565
15	0xbc237fde	-0.009979216
16	0x3db2835a	0.087164596
17	0xbe114a60	-0.14188528
18	0xbe811f5e	-0.25219244
19	0xbe5004d2	-0.20314339
20	0xbc303abf	-0.010756194
21	0x3d34ed2c	0.044171497
22	0xbd8e4acd	-0.06947861
23	0xbcbd2f7d	-0.023093933
24	0xbe2088f6	-0.15677246
25	0xbdfca83e	-0.12336777
26	0x3d979579	0.074015565
27	0x3e376034	0.17907792
28	0xbe38b5e6	-0.18038139
29	0xbdcfff5a	-0.10156126
30	0xbca19995	-0.019726554
31	0xbdd33a07	-0.10313802
32	0x3d933f4d	0.07189808
33	0x3cb1978d	0.02167871
34	0xbe0b5d9d	-0.1360993
35	0xbe055430	-0.13020396
36	0xbc46dad7	-0.012137136
37	0xbe2c6685	-0.16835983
38	0xbe80058b	-0.2500423
39	0xbe15f621	-0.14644672
40	0x3e34d8ca	0.17660823
41	0xbddf4dad	-0.10903487
42	0xbe3a741f	-0.18208359
43	0x3df9111f	0.12161469
44	0xbd8f2613	-0.06989684
45	0x3d125af6	0.03573128
46	0xbc28ccac	-0.010302704
47	0x3c8b2de3	0.016989654
48	0xbd28351e	-0.04106628
49	0x3dae7b68	0.085196316
50	0xbdf501a8	-0.119632065
51	0xbe1ce21c	-0.15320629
52	0xbce1d967	-0.027569486
53	0xbe6bb6c1	-0.23018934
54	0x3c699cfa	0.014258618
55	0x3c185941	0.009298624
56	0x3dd33616	0.103130504
57	0xbca3d499	-0.019998835
58	0xbe088ec4	-0.13335711
59	0x3d1f92e4	0.038958445
60	0x3d1a8b8a	0.03773073
61	0xbdedeab0	-0.11617029
62	0xbe866a3c	-0.26252925
63	0x3bcf47cb	0.006325697
