ASS1/models/best_mixup_model.pth (torch, 251247 bytes, 22 tensors)

block.0.weight f4 [32, 3, 3, 3]
0	0x3e38b234	0.18036729
1	0x3e0ca4cb	0.13734739
2	0x3e1b0afe	0.15140912
3	0x3e4384d4	0.19093639
4	0xbaa84743	-0.001283862
5	0xbcf91902	-0.030407432
6	0x3d936946	0.07197814
7	0xbd81f47b	-0.06345459
8	0xbdd057a0	-0.10172963
9	0xbe5ec4f8	-0.21754825
10	0xbdf7076e	-0.12061964
11	0xbd1af6e1	-0.0378331
12	0x3dc7b40e	0.097511396
13	0x3dc22166	0.094790265
14	0xbe4480fc	-0.19189829
15	0xbdcdd56f	-0.10050475
16	0xbd05dcb7	-0.032681193
17	0x3d6ea34d	0.058261205
18	0xbe4274a1	-0.18989803
19	0xbde6787a	-0.11253448
20	0x3e118a7f	0.14212988
21	0xbe04d45c	-0.12971634
22	0xbdb37f98	-0.08764571
23	0x3dba206a	0.09088214
24	0x3dcc0ff2	0.09963979
25	0xbe379a7f	-0.1793003
26	0xbdffecf6	-0.124963686
27	0xbdfa5d46	-0.12224822
28	0x3e027dc8	0.12743294
29	0x3e492c36	0.19645771
30	0x3de98c78	0.114037454
31	0xbd8dd482	-0.06925298
32	0xbd9d0f10	-0.076688886
33	0xbe307bd8	-0.17234743
34	0xbd088515	-0.033330042
35	0x3dbe40bc	0.09289691
36	0xbe26fdd5	-0.16307767
37	0xbe31ec2b	-0.17375247
38	0x3d54d052	0.051956482
39	0xbcad02cb	-0.021119496
40	0xbe6baaec	-0.2301442
41	0xbe484f97	-0.19561611
42	0xbe14a597	-0.14516293
43	0xbd9bf973	-0.07615938
44	0xbdd046b6	-0.10169737
45	0x3d0da3af	0.03457993
46	0x3d80c4e5	0.06287555
47	0xbd4069a0	-0.04697573
48	0xbd0e8ae6	-0.034800433
49	0x3e51f2b5	0.20502742
50	0xbd665773	-0.05623574
51	0x3c673a05	0.014112954
52	0x3e51700c	0.20452899
53	0x3d0e7345	0.0347779
54	0xbd898b9c	-0.067160815
55	0xbe296d19	-0.16545524
56	0x3e16dd73	0.14732914
57	0xbdd0edf7	-0.10201638
58	0x3dea1925	0.11430577
59	0x3e66b89e	0.22531363
60	0xbe06c990	-0.13162827
61	0x3dbda90c	0.09260759
62	0xbdce1e29	-0.10064346
63	0xbdb72443	-0.08942463
64	0x3dbf28b4	0.093339354
65	0x3dae1819	0.0850069
66	0xbc5fcb8c	-0.013659369
67	0xbe1e883b	-0.15481655
68	0xbe2acf79	-0.16680707
69	0x3e211786	0.1573163
70	0xbdb58a33	-0.0886425
71	0x3e209ae8	0.15684092
72	0x3dbcd876	0.09220974
73	0x3d867796	0.06565778
74	0xbe04f18f	-0.12982772
75	0x3e556f45	0.20843227
76	0x3d6df38b	0.05809359
77	0xbe6905e9	-0.22756161
78	0xbb370a53	-0.0027929738
79	0x3ce54516	0.027987044
80	0xbd8c50e5	-0.06851367
81	0x3e0eac99	0.13933028
82	0xbce388c6	-0.02777518
83	0xbde376e1	-0.11106659
84	0xbda60de9	-0.08108122
85	0xbe17e136	-0.14832005
86	0x3d8f485d	0.06996224
87	0xbe0f98b9	-0.14023103
88	0xbd4df57f	-0.05028295
89	0xbdfea739	-0.12434239
90	0x3ced98b9	0.029003488
91	0x3cc8defe	0.024520393
92	0xbd6f28b8	-0.05838844
93	0x3dc23e68	0.09484559
94	0x3e569993	0.20957021
95	0x3e27f77f	0.16403006
96	0x3df5a698	0.11994666
97	0x3e269a83	0.16269879
98	0xbe05330c	-0.13007754
99	0x3ca512f2	0.020150635
100	0xbc46fb2a	-0.012144843
101	0x3bd0524b	0.0063574663
102	0x3e5bed65	0.21477278
103	0x3dc752ba	0.09732576
104	0x3dd60e5d	0.10451958
105	0x3e08df80	0.13366508
106	0xbd8f7b77	-0.07005971
107	0xbe4bf86c	-0.19918984
108	0xbd80ac1d	-0.06282828
109	0x3dcfcb2e	0.10146175
110	0xbd83e796	-0.06440656
111	0xbdeab3bd	-0.114600636
112	0x3dece064	0.115662366
113	0x3dfe5d7b	0.12420174
114	0xbda7e560	-0.08198047
115	0x3e377449	0.17915453
116	0x3e193d7c	0.1496486
117	0xbdb99a64	-0.09062651
118	0x3da4d252	0.08047928
119	0xbd87dc87	-0.06633859
120	0xbe33f7eb	-0.17575042
121	0x3e2858a3	0.16440062
122	0xbe357e1d	-0.1772389
123	0xbd86a6e3	-0.065748
124	0xbe3a92b3	-0.18220024
125	0x3cd7c344	0.026338227
126	0x3e3811ec	0.17975587
127	0x3dda4294	0.1065723
128	0xbdec9050	-0.11550963
129	0x3db32232	0.087467566
130	0x3dc0e431	0.09418524
131	0x3d1008b4	0.03516455
132	0xbc1646fa	-0.009172196
133	0xbcf2140f	-0.02955058
134	0x3db4d569	0.08829767
135	0x3e81c95e	0.25348943
136	0x3dc0be31	0.09411276
137	0xbdb27ad0	-0.08714831
138	0x3c01e9fa	0.0079293195
139	0xbe0f24ac	-0.13978833
140	0xbded4661	-0.11585689
141	0x3ddb4561	0.10706592
142	0xbe16ad21	-0.14714481
143	0x3d6899ac	0.056787178
144	0x3df1d47e	0.11808108
145	0xbe28f886	-0.16501054
146	0xbdfe7297	-0.124242
147	0x3e8c101d	0.27356043
148	0xbd71f4b7	-0.05907127
149	0xbe16dfca	-0.14733806
150	0x3ceed554	0.029154457
151	0x3e0ebf66	0.139402
152	0xbda38388	-0.07984072
153	0x3e341611	0.17586543
154	0xbe055f55	-0.13024648
155	0xbdefd758	-0.117109954
156	0xbcb02ecf	-0.021506695
157	0xbca07b96	-0.01959018
158	0x3e24a0be	0.16076943
159	0x3deec23e	0.116581425
160	0x3d234266	0.039858244
161	0xbe4fd422	-0.20295766
162	0xbdc7e639	-0.09760708
163	0x3e02c1ce	0.12769243
164	0xbd2cab42	-0.04215551
165	0x3dcd4d7c	0.100245446
166	0x3e280bf7	0.16410814
167	0xbd80183f	-0.062546246
168	0x3c29c5b1	0.010362075
169	0xbdff50ae	-0.1246656
170	0x3da706f2	0.081556216
171	0x3e10bd95	0.1413482
172	0xbdf93f6d	-0.12170301
173	0xbe05e5a7	-0.13075887
174	0x3dc6981a	0.0969698
175	0xbbc63e9b	-0.0060499436
176	0xbdfe70ea	-0.124238804
177	0xbe46d4e8	-0.19417155
178	0xbe254d21	-0.16142704
179	0x3d8ceecd	0.06881485
180	0xbe8341eb	-0.2563623
181	0xbe2fa173	-0.17151432
182	0xbd370470	-0.044681966
183	0x3e4aab0b	0.1979181
184	0xbdded96a	-0.10881312
185	0x3db5ac40	0.08870745
186	0x3e275f4f	0.16344951
187	0x3e5bd1dd	0.21466775
188	0x3e08ec68	0.13371432
189	0xbe60feed	-0.21972246
190	0xbe21c468	-0.1579758
191	0xbc9fa41f	-0.019487439
192	0x3e08e531	0.1336868
193	0x3d849cb6	0.06475203
194	0x3d27de99	0.04098377
195	0xbd129fd6	-0.035796963
196	0x3d69364a	0.05693654
197	0x3e352a65	0.17691953
198	0x3dad4561	0.084604986
199	0xbd50f720	-0.051016927
200	0x3c891983	0.016735798
201	0x3e357f49	0.17724337
202	0x3dce82e9	0.10083563
203	0xbe194445	-0.14967449
204	0x3d68f279	0.056871865
205	0xbe1592ad	-0.14606734
206	0xbde2fee2	-0.11083771
207	0xbadf79b3	-0.0017049819
208	0x3e268607	0.16262065
209	0x3d57b74b	0.052665036
210	0xbdc6bb2d	-0.0970367
211	0x3ca6208b	0.02027919
212	0xbd222fb5	-0.03959628
213	0xbcc1293e	-0.023579236
214	0xbe59a3f4	-0.2125395
215	0x3e35e1ed	0.17761965
216	0xbcda9312	-0.026681457
217	0x3e124d46	0.1428729
218	0xbd66f5bb	-0.05638669
219	0x3e2534c8	0.16133416
220	0xbdb4751d	-0.088114
221	0xbe3e8aa1	-0.1860757
222	0x3cc162fa	0.023606766
223	0x3e853345	0.26015678
224	0xbdf61dc5	-0.12017397
225	0x3dc918da	0.09819193
226	0x3e857723	0.26067457
227	0xbe08f3f4	-0.1337431
228	0xbd516770	-0.051124036
229	0xbe168da8	-0.14702475
230	0x3c98263f	0.018572925
231	0xbd98af84	-0.07455352
232	0x3cc8833c	0.02447664
233	0xbe37149a	-0.17878953
234	0x3dee8ced	0.11647973
235	0x3d07ada6	0.03312459
236	0x3d4beac6	0.049784444
237	0xbdc880e7	-0.09790211
238	0xbe1ee8ec	-0.1551854
239	0x3d7925fb	0.060827237
240	0xbdfa7425	-0.12229184
241	0xbd2daef7	-0.042403188
242	0x3dfef335	0.12448732
243	0x3cd7cd89	0.026343124
244	0x3dd9fdc9	0.10644109
245	0x3ba831c4	0.0051328856
246	0x3da43ca5	0.080193795
247	0xbda21265	-0.07913665
248	0xbdd575ad	-0.104228355
249	0xbd8e5567	-0.06949883
250	0x3e35aa33	0.17740707
251	0xbde2715b	-0.11056777
252	0x3e04c45d	0.12965532
253	0x3eb96eff	0.36217496
254	0x3e841523	0.25797376
255	0xbdad69c1	-0.084674366

block.0.bias f4 [32]
0	0x3e378d34	0.17924958
1	0x3caa5707	0.020793451
2	0x3de33e26	0.11095838
3	0xbc8a81d6	-0.016907614
4	0x3dabd86f	0.08390891
5	0x3e4a3330	0.19746089
6	0xbe1eec43	-0.15519814
7	0x3e098d73	0.13432865
8	0x3d57b0a5	0.052658696
9	0xbe0ae611	-0.13564326
10	0x3cf700c3	0.03015173
11	0x3d5e268d	0.054235984
12	0x3e057714	0.13033706
13	0xbe4199d8	-0.18906343
14	0x3e1a2d9e	0.15056464
15	0x3e309d59	0.17247523
16	0x3e4c5a60	0.1995635
17	0xbd7295b8	-0.059224814
18	0x3d3e14c1	0.04640651
19	0xbe363035	-0.17791827
20	0xbe16406e	-0.14673015
21	0x3c192b8c	0.009348761
22	0x3cfaefec	0.030631982
23	0x3d80378a	0.06260593
24	0x3d97cbde	0.074119315
25	0x3d87678e	0.06611548
26	0x3e3539e1	0.1769786
27	0xbd0e4cc6	-0.034741186
28	0x3c05fb70	0.008177623
29	0x3e35145c	0.17683548
30	0xbe03e0fe	-0.12878796
31	0xbc39475c	-0.011308517

block.1.weight f4 [32]
0	0x3f6c2477	0.9224314
1	0x3f64ff53	0.89452094
2	0x3f9597ea	1.1686985
3	0x3f3c22e9	0.7349077
4	0x3f4d7d11	0.8026896
5	0x3f9b159d	1.2115971
6	0x3f75090c	0.9571693
7	0x3fade5d7	1.3585767
8	0x3f81fe6e	1.0155771
9	0x3f6f0c2b	0.9337794
10	0x3f95d5f3	1.1705917
11	0x3f41e0ae	0.7573346
12	0x3f5db703	0.8660738
13	0x3f7481fe	0.9551085
14	0x3fa15b5c	1.2606006
15	0x3f9438d6	1.1579845
16	0x3f690366	0.9102081
17	0x3f4e10fa	0.80494654
18	0x3fabd83c	1.3425364
19	0x3f8a0d3d	1.078529
20	0x3f787665	0.97055656
21	0x3f5a57a6	0.8528999
22	0x3f6e3f72	0.9306556
23	0x3f5c7ad1	0.861249
24	0x3f8de518	1.1085539
25	0x3f4e6360	0.80620384
26	0x3f491ad3	0.78556556
27	0x3f8de413	1.1085228
28	0x3f9c24c3	1.2198719
29	0x3f6e9a67	0.9320435
30	0x3f65eae6	0.8981155
31	0x3f6254d9	0.8841072

block.1.bias f4 [32]
0	0xbe402b5a	-0.18766537
1	0xbe183b13	-0.14866285
2	0xbc14a2d6	-0.009072026
3	0xbe6e92a4	-0.23298126
4	0xbdf5260b	-0.11970147
5	0xbe0a9308	-0.1353265
6	0x3e050fc0	0.1299429
7	0x3e969cac	0.29416406
8	0xbc27bd06	-0.010237938
9	0xbdaf7283	-0.08566763
10	0xbda22c14	-0.079185635
11	0xbe70be4a	-0.2351009
12	0xbd817ad8	-0.06322259
13	0xbd4d170f	-0.05007082
14	0xbd88b090	-0.066743016
15	0x3c94831a	0.01812892
16	0xbe01c732	-0.12673643
17	0xbdd7b705	-0.10532955
18	0x3eb449ae	0.35212463
19	0x3d48e02b	0.04904191
20	0x39a744f8	0.00031904108
21	0xbe130069	-0.14355625
22	0xbde68b7d	-0.11257074
23	0xbd9037da	-0.07041903
24	0x3d8e1893	0.06938281
25	0xbe8c32a4	-0.27382386
26	0xbe0bcebd	-0.13653083
27	0xbcb8e4b8	-0.02257
28	0xbe01650c	-0.12636203
29	0xbc0608b2	-0.008180784
30	0xbd1d101f	-0.038345452
31	0xbe08c068	-0.13354647

block.1.running_mean f4 [32]
0	0x3e9cd244	0.3062917
1	0x3c8dc561	0.017306032
2	0x3dd7a776	0.105299875
3	0xbdf4d736	-0.11955111
4	0x3b84d1d7	0.004053335
5	0x3e4d29fc	0.20035547
6	0xbe2e5e21	-0.17028095
7	0x3e0bc00c	0.13647479
8	0x3d93923d	0.07205627
9	0xbe0b5a88	-0.13608754
10	0x3d11314f	0.035447415
11	0xbd3fe941	-0.046853308
12	0x3e182269	0.14856876
13	0xbe38f98e	-0.18063948
14	0x3e23bac7	0.15989219
15	0x3e3262ce	0.17420503
16	0x3e523721	0.20528843
17	0xbe0b7644	-0.13619334
18	0x3d5470cd	0.051865388
19	0xbe4c65b0	-0.19960666
20	0xbd941a50	-0.07231581
21	0x3b8e36bc	0.004340021
22	0x3c55cf45	0.013049905
23	0xbcceabf9	-0.025228487
24	0x3d66e363	0.056369197
25	0x3e04e90a	0.12979522
26	0x3e03c520	0.12868166
27	0xbd123b59	-0.03570113
28	0x3bc7674d	0.0060853125
29	0x3e321db3	0.17394142
30	0xbe277b5d	-0.16355653
31	0xbdb1bfec	-0.08679184

block.1.running_var f4 [32]
0	0x3d9611e8	0.07327634
1	0x3daf2fad	0.08554015
2	0x3b380064	0.0028076405
3	0x3d9c0079	0.07617278
4	0x3d17eed6	0.037093006
5	0x3d053f33	0.032530975
6	0x3c81a7bb	0.01582705
7	0x3b6377c7	0.0034708844
8	0x3c638994	0.013887782
9	0x3ce060c7	0.027389897
10	0x3cff73f4	0.03118322
11	0x3d5801b1	0.052735988
12	0x3d0c4823	0.034248482
13	0x3c48cc3a	0.012255723
14	0x3b9f3b7e	0.004859387
15	0x3cf8c292	0.030366216
16	0x3cddc98c	0.027073644
17	0x3d37b955	0.04485448
18	0x3bb0d66c	0.005396655
19	0x3cd7bb9b	0.026334574
20	0x3d35b98d	0.04436641
21	0x3c8ec68b	0.017428657
22	0x3cb470e4	0.022026487
23	0x3d0ca74d	0.034339238
24	0x3c8d87e5	0.017276714
25	0x3d56d8f8	0.05245301
26	0x3d80c509	0.062875815
27	0x3cf26b3f	0.029592155
28	0x3b05bd51	0.002040703
29	0x3bfca489	0.007710044
30	0x3c34e766	0.011041498
31	0x3d15621f	0.03647053

block.3.block.0.weight f4 [64, 32, 3, 3]
0	0xbd7f1010	-0.062271178
1	0xbd77fd81	-0.060544495
2	0xbda85e8f	-0.082211606
3	0xbca8b252	-0.020592842
4	0xbd462948	-0.048379213
5	0xbca1cd6a	-0.01975127
6	0xbd26e49f	-0.040745374
7	0xbd348167	-0.04406872
8	0x3ca69ab9	0.02033745
9	0x3cbfc323	0.023408478
10	0xbdb4f195	-0.088351406
11	0xbc8ab72c	-0.016933046
12	0x3c01f208	0.00793124
13	0x3c8ec0ae	0.017425861
14	0xbd3164c2	-0.04330898
15	0x3d60f781	0.054923538
16	0xbcffaaca	-0.031209368
17	0xbcb27c6c	-0.021787845
18	0x3d3c9420	0.0460397
19	0x3cc26072	0.02372763
20	0xbc372995	-0.0111793475
21	0x3dc36a55	0.095417656
22	0xbd13c48b	-0.03607611
23	0xbe897ab8	-0.2685144
24	0x3dd067bf	0.10176038
25	0xbd4d93df	-0.05018985
26	0xbe43b59c	-0.19112247
27	0x3d92efba	0.071746305
28	0x3c8178b4	0.015804626
29	0x3b16ce65	0.0023011204
30	0xbd976928	-0.07393104
31	0xbdc3d018	-0.09561175
32	0xbd91caed	-0.07118783
33	0xbc02d7e4	-0.007986043
34	0xbd1c1582	-0.03810645
35	0x3c79fe97	0.015258453
36	0xbca9ac2b	-0.020711979
37	0x3d589760	0.052878737
38	0x3d6ac9f4	0.057321504
39	0x3c903ccc	0.017607115
40	0x3c88707f	0.016655205
41	0xbaeb478d	-0.0017950401
42	0xbb049a75	-0.0020233665
43	0xbd5333f3	-0.051563215
44	0xbd10a33b	-0.03531192
45	0x3e0a27a6	0.13491687
46	0x3d9b70a4	0.07589844
47	0xbc7e86f4	-0.015535105
48	0xbc789cb6	-0.015174082
49	0xbca56332	-0.020188902
50	0x3ccb006a	0.02478047
51	0x3d74a8e9	0.059731398
52	0x3d90ca80	0.07069874
53	0x3cd41768	0.025890067
54	0xbd358470	-0.044315755
55	0xbdba11e2	-0.09085442
56	0xbdb3ed33	-0.087854765
57	0xbd383c00	-0.044979095
58	0xbcbeda3e	-0.023297425
59	0x3d328437	0.04358312
60	0x3caceaa7	0.021107985
61	0x3d6a531c	0.057208166
62	0x3e1417a9	0.1446215
63	0xbc2327b4	-0.009958196
64	0x3e095d92	0.134146
65	0x3e1c9a9c	0.15293354
66	0xbd8251f7	-0.0636329
67	0x3d8583f4	0.06519309
68	0x3e1bc2b6	0.15210995
69	0xbd97683e	-0.073929295
70	0xbe624167	-0.22095262
71	0xbdcae42b	-0.09906801
72	0xbd3a3e6c	-0.045469686
73	0x3da763fa	0.08173366
74	0x3dbd87b6	0.092544004
75	0xbd8e6299	-0.069524
76	0xbc8ff02d	-0.01757058
77	0x38fa3871	0.00011931442
78	0xbdaad99e	-0.083422884
79	0x3aa336ae	0.0012452209
80	0x3d70e62c	0.05881326
81	0x3c81fa7a	0.015866507
82	0x3d29407b	0.04132126
83	0x3d06fa1c	0.032953367
84	0xbcdfe4a3	-0.027330702
85	0xbd55eacc	-0.052225873
86	0xbda805d7	-0.08204239
87	0x3c25014f	0.010071113
88	0x3d1470bd	0.036240328
89	0x3cecf8df	0.028927265
90	0xbc4b498f	-0.012407674
91	0xbcac4e10	-0.021033317
92	0x3d11d5af	0.035604175
93	0x3d92c502	0.071664825
94	0xbd278581	-0.040898804
95	0xbc4fd1fa	-0.01268434
96	0x3d00e20a	0.031465568
97	0xbd295a72	-0.04134602
98	0xbd769f71	-0.06021065
99	0xbc076d2e	-0.008265777
100	0x3ca14dca	0.019690413
101	0xbc9b24ab	-0.018938383
102	0x39ec0a61	0.0004502116
103	0xbd4ce518	-0.05002317
104	0x3d0d0dbc	0.034436926
105	0x3cded7ef	0.027202575
106	0xbd0765a1	-0.033055905
107	0xbc868eea	-0.016425569
108	0xbd0cea85	-0.034403343
109	0x3cb0b1a5	0.021569083
110	0xbdb192a1	-0.08670545
111	0x3c501698	0.012700699
112	0xbcc9d3cd	-0.024637127
113	0xbded1d6d	-0.11577878
114	0xbc12fa1e	-0.008970765
115	0xbd937d17	-0.07201593
116	0xbe40a15d	-0.18811555
117	0x3d8283f6	0.06372826
118	0x3d386003	0.04501344
119	0xbc712ad1	-0.014719681
120	0xbd305e58	-0.043058723
121	0xbd289af2	-0.041163392
122	0xbd35ac24	-0.04435362
123	0xbc6d2fe5	-0.014476751
124	0xbd8eda82	-0.06975271
125	0xbd931128	-0.07181007
126	0xbdcdf909	-0.10057265
127	0xbd6264e5	-0.055272
128	0xbddad47a	-0.10685058
129	0xbd9e4417	-0.07727831
130	0x3d47354f	0.048634823
131	0x3da0651c	0.07831785
132	0xbd662d73	-0.056195688
133	0x3df3bd6c	0.11901364
134	0x3de23f46	0.11047225
135	0x3d35db1d	0.044398416
136	0x3ced7c8b	0.02899005
137	0x3d96ba73	0.07359781
138	0xbc4cf292	-0.012509005
139	0xbd6d6d1b	-0.05796538
140	0x3e07e726	0.1327177
141	0x3d26db32	0.040736385
142	0x3c2d8992	0.010591881
143	0x3db5ef57	0.08883541
144	0x3df92aae	0.12166344
145	0x3dde3d7d	0.10851572
146	0x3deb96e3	0.11503389
147	0xbd8840ed	-0.066530086
148	0xbda6c149	-0.08142335
149	0xbe000645	-0.12502392
150	0xbd994596	-0.074839756
151	0xbe03754a	-0.12837711
152	0xbdb00446	-0.08594565
153	0x3cb207e9	0.021732287
154	0x3d71986f	0.058983263
155	0x3d421753	0.047385525
156	0xbbd20828	-0.0064096637
157	0xbdc83803	-0.097763084
158	0x3cbcceb0	0.023047775
159	0xbcafcb53	-0.021459257
160	0xbd0098d6	-0.031395756
161	0xbdd2a68e	-0.10285674
162	0xbdfbf397	-0.123023205
163	0xbe36dbad	-0.17857237
164	0xbe6c9721	-0.23104526
165	0xbd905bdf	-0.07048773
166	0xbd976078	-0.07391447
167	0xbdc6dd7f	-0.09710216
168	0x3e26419d	0.16235967
169	0x3e85fbe2	0.26168734
170	0x3e1f75da	0.155723
171	0x3df89d74	0.12139407
172	0x3dc920a4	0.09820679
173	0x3da0f3e1	0.07859016
174	0x3d207726	0.03917613
175	0x3ce6f537	0.0281931
176	0xbd47d446	-0.048786424
177	0xbd3cd31d	-0.04609977
178	0xbd8e03a6	-0.0693429
179	0xbc09ff9e	-0.00842276
180	0x3d8b2566	0.067942426
181	0x3d111ff9	0.035430882
182	0xbd219667	-0.039450075
183	0xb912df14	-0.00014006748
184	0x3d14f15d	0.036362994
185	0xbde7c4eb	-0.11316856
186	0x3c3f81e3	0.011688682
187	0x3c31807c	0.010833856
188	0xbd18b7bb	-0.037284594
189	0xbd4f0a15	-0.050546724
190	0xbbf4b4c8	-0.00746784
191	0x3cb3ec53	0.021963274
192	0xbc031907	-0.008001572
193	0x3d6ae999	0.057351682
194	0x3d6c0b47	0.057627942
195	0x3cbe7e27	0.023253514
196	0xbb81568e	-0.0039470857
197	0xbdd6ed82	-0.1049452
198	0xbd221542	-0.039571054
199	0x3ce5e72e	0.028064337
200	0x3de77203	0.11301043
201	0xbdb2d513	-0.08732047
202	0xbdb03988	-0.08604723
203	0xb945d0ab	-0.00018865119
204	0x3d283bee	0.04107278
205	0x3d022106	0.031769775
206	0xbc5b627d	-0.013390181
207	0x3dea263c	0.11433074
208	0x3d616e10	0.055036604
209	0x3da74646	0.081677005
210	0xba0cb022	-0.0005366822
211	0xbcd198d0	-0.025585562
212	0xbd3c3599	-0.045949552
213	0xbd4b96e9	-0.049704466
214	0xbd70d3a9	-0.058795605
215	0xbd9d262a	-0.07673295
216	0x3cbab86a	0.022793014
217	0xbdf2d7dd	-0.11857579
218	0xbdf8cf91	-0.12148965
219	0x3bd3b842	0.006461174
220	0xba21863d	-0.00061616657
221	0xbcf09c6c	-0.029371463
222	0xbc2f60b2	-0.010704206
223	0x3d6995d3	0.05702765
224	0xbc62acfd	-0.013835189
225	0x3c25509d	0.0100900205
226	0xbc81716d	-0.015801156
227	0xbd1779c1	-0.036981348
228	0x3bda63a9	0.0066647124
229	0xbd266d18	-0.040631384
230	0xbb63b3d1	-0.003474463
231	0xbd5d3d33	-0.054013442
232	0x3d42a2af	0.04751843
233	0xbd33429f	-0.043764707
234	0x3d0eb428	0.03483978
235	0xbc90c4d2	-0.017671976
236	0x3d5a4371	0.053286973
237	0xbcb7aba8	-0.02242072
238	0x3c702275	0.014656653
239	0x3caa2f63	0.020774549
240	0x3c6f8e2d	0.0146213
241	0xbcc66ff6	-0.024223309
242	0xbd973617	-0.07383364
243	0xbcdba1b3	-0.026810503
244	0x3d5ec6c5	0.05438878
245	0xbc4dd3da	-0.012562716
246	0xbd0fc210	-0.03509718
247	0x3d82d62f	0.063885085
248	0x3c75f6cb	0.015012453
249	0x3c3acfa6	0.011402046
250	0x3ce2076b	0.027591428
251	0xbcec132e	-0.02881774
252	0xbccebe2e	-0.02523717
253	0xbb899e3c	-0.004199771
254	0xbd092f1e	-0.0334922
255	0xbd831690	-0.06400788

block.3.block.0.bias f4 [64]
0	0x3cc7e9b0	0.024403423
1	0x3be44084	0.0069656987
2	0xbcd6efcb	-0.02623739
3	0x3d15d83e	0.036583178
4	0xbcc2ec0f	-0.023794202
5	0x3d47e474	0.048801854
6	0xbd619ede	-0.05508315
7	0xbd218564	-0.03943385
8	0xbd7e2174	-0.062043622
9	0xbb887094	-0.004163811
10	0x3cea1d1d	0.028578335
11	0xbbd8f59d	-0.0066210763
12	0xbc0ed67c	-0.008718129
13	0x3cb76622	0.022387568
14	0x3c7e78ee	0.015531762
15	0x3b981e49	0.004642282
16	0xbd52e18b	-0.051484626
17	0x3bc12b21	0.005895034
18	0xbc99704d	-0.018730307
19	0xbcadcc45	-0.021215567
20	0x3bfc3cf5	0.0076976963
21	0x3d3f89ce	0.04676228
22	0xbc8b5aa6	-0.017010998
23	0xbd0f8ecd	-0.035048295
24	0xbc3940c7	-0.011306948
25	0xbd439aaa	-0.04775492
26	0xbd24b308	-0.0402098
27	0xbd59e951	-0.053201023
28	0xb9e95eda	-0.00044511893
29	0xbc42934e	-0.0118759405
30	0x3d2c497a	0.04206226
31	0xbd38c1fe	-0.04510688
32	0xbd1b82af	-0.037966426
33	0xbb0c399b	-0.002139664
34	0xbd70bf59	-0.058776233
35	0x3d08d167	0.033402827
36	0x3d38a071	0.045074884
37	0xbd047e01	-0.03234673
38	0x3cbc2afd	0.022969717
39	0xbc96bd43	-0.018400794
40	0x3d2f551d	0.04280578
41	0xbcc1a426	-0.023637842
42	0xbd26c087	-0.040710952
43	0x3d302945	0.043008108
44	0xbc037c2f	-0.008025213
45	0x3c9ae3c2	0.018907432
46	0xbd48dd31	-0.04903907
47	0xbd08a239	-0.033357833
48	0xbc5a9679	-0.01334154
49	0x3c98926f	0.018624512
50	0x3d11e337	0.03561708
51	0x3d2e7d4c	0.04259996
52	0xbb0d1d55	-0.0021532376
53	0xba373415	-0.0006988657
54	0xbc76db8b	-0.015066992
55	0x3d2adad8	0.041712612
56	0x3cc7030f	0.02429345
57	0xbc767d09	-0.015044459
58	0x3d113699	0.03545246
59	0xbd72cfa5	-0.059280057
60	0x3cc95215	0.024575273
61	0xbd0b1b0b	-0.033961337
62	0x3d0aa7dc	0.03385149
63	0x3d204d87	0.039136436

block.3.block.1.weight f4 [64]
0	0x3f8b60d9	1.088893
1	0x3f5ef01a	0.87085116
2	0x3facad92	1.349047
3	0x3f7c2bb8	0.9850421
4	0x3f46ac80	0.77606964
5	0x3f83bf5a	1.0292771
6	0x3f630b2a	0.8868891
7	0x3f6aa477	0.91657203
8	0x3f82c83a	1.0217354
9	0x3f701d79	0.9379497
10	0x3f630dd2	0.88692963
11	0x3f690387	0.9102101
12	0x3f4d4fd9	0.8019996
13	0x3f6d92a9	0.9280191
14	0x3f562734	0.8365357
15	0x3f504081	0.81348425
16	0x3f62f15c	0.88649535
17	0x3f82258f	1.0167712
18	0x3f5b931e	0.8577136
19	0x3f84b944	1.0369039
20	0x3f73f60b	0.95297307
21	0x3f71c91c	0.94447494
22	0x3f6350f9	0.8879543
23	0x3f569953	0.83827704
24	0x3f83da78	1.0301046
25	0x3f92889d	1.1447941
26	0x3f6f6906	0.9351963
27	0x3f736e61	0.950903
28	0x3f86c9fb	1.053039
29	0x3f6702e5	0.9023879
30	0x3f896d8d	1.0736557
31	0x3f930d4d	1.1488434
32	0x3f4c1d86	0.7973255
33	0x3f55e21e	0.8354815
34	0x3f6d7328	0.9275384
35	0x3f691470	0.9104681
36	0x3f5980d6	0.84962213
37	0x3f6be99d	0.9215334
38	0x3f760e76	0.96115816
39	0x3f6d6510	0.92732334
40	0x3f71702f	0.94311804
41	0x3f6a7587	0.9158558
42	0x3f6c176a	0.9222323
43	0x3f6bc9a3	0.9210455
44	0x3f729643	0.9476053
45	0x3f82fac2	1.0232775
46	0x3f607fc2	0.8769494
47	0x3f6cc0b5	0.9248155
48	0x3f68b5cf	0.9090242
49	0x3fa2fef0	1.2734051
50	0x3f4496ff	0.767929
51	0x3f832b47	1.0247582
52	0x3f6a0b9a	0.9142395
53	0x3f647720	0.8924427
54	0x3f6c4d2b	0.9230525
55	0x3f63f331	0.89042956
56	0x3f633bae	0.8876294
57	0x3f7740eb	0.9658343
58	0x3f861dbb	1.0477823
59	0x3f64e95e	0.8941859
60	0x3f7d9548	0.9905591
61	0x3f93bd61	1.1542169
62	0x3f4f9c1d	0.81097585
63	0x3f987589	1.1910869

block.3.block.1.bias f4 [64]
0	0xbeba3fa7	-0.36376688
1	0xbea54c8d	-0.32284966
2	0xbd7832c7	-0.0605953
3	0xbee01374	-0.43764842
4	0xbee117c9	-0.4396346
5	0xbe9a0bc2	-0.30087095
6	0xbeb3ac33	-0.35092315
7	0xbe830e93	-0.25597057
8	0xbebc9c79	-0.3683813
9	0xbe870ab6	-0.2637536
10	0xbeba269a	-0.36357576
11	0xbe9210ce	-0.28528446
12	0xbe5c8dee	-0.21538517
13	0xbeb89e32	-0.36058193
14	0xbe6e846d	-0.23292704
15	0xbea7327e	-0.3265571
16	0xbea6e405	-0.3259584
17	0xbe84956b	-0.25895247
18	0xbe73217c	-0.23743242
19	0xbf132aca	-0.57487166
20	0xbe739545	-0.2378741
21	0xbebc933a	-0.36831075
22	0xbe7c4413	-0.24635343
23	0xbe910876	-0.28326768
24	0xbeb38230	-0.35060263
25	0xbeb59ce8	-0.35471272
26	0xbe2a8f35	-0.16656192
27	0xbea20f0d	-0.31652108
28	0xbeb3e630	-0.35136557
29	0xbe454ed4	-0.19268352
30	0xbe962658	-0.2932613
31	0xbe8dfda2	-0.2773257
32	0xbeb4d688	-0.35319924
33	0xbe820c40	-0.2539997
34	0xbea3821d	-0.31935206
35	0xbed2ce3d	-0.41172972
36	0xbe9c8a5e	-0.30574316
37	0xbe675328	-0.22590315
38	0xbed328b3	-0.4124199
39	0xbe8de3c1	-0.27712825
40	0xbedfc7b0	-0.43707037
41	0xbe7650c0	-0.24054241
42	0xbe575bd8	-0.2103113
43	0xbeb56a9d	-0.35432902
44	0xbe952770	-0.2913165
45	0xbe512a0d	-0.20426197
46	0xbecd2dc0	-0.40073967
47	0xbe5cc018	-0.21557653
48	0xbea01c52	-0.31271607
49	0xbc4e1650	-0.012578562
50	0xbea33488	-0.31876016
51	0xbf0ba64b	-0.5455062
52	0xbe8301e1	-0.2558737
53	0xbe98baf7	-0.29830143
54	0xbe997b3d	-0.29976836
55	0xbe9310c3	-0.28723726
56	0xbe5fd9ca	-0.21860424
57	0xbe7af945	-0.24509151
58	0xbeb0a459	-0.34500387
59	0xbe9e744a	-0.30948097
60	0xbf064ba7	-0.52459186
61	0xbd9e0f4d	-0.07717762
62	0xbeaea5ae	-0.3411078
63	0xbedec1ed	-0.4350733

block.3.block.1.running_mean f4 [64]
0	0xbf116191	-0.567895
1	0xc003eb95	-2.0612538
2	0xbf89d829	-1.0769092
3	0xbfdec40d	-1.740358
4	0x3e4aa401	0.19789125
5	0xbf230090	-0.63672733
6	0xbf31ac67	-0.6940369
7	0xbf8357e0	-1.0261192
8	0xbf91842e	-1.1368463
9	0xbff45497	-1.9088315
10	0xbdf5c259	-0.119999595
11	0xbf6de362	-0.92925084
12	0xbfa3782f	-1.2771052
13	0xc074564c	-3.8177671
14	0xbfbffb4b	-1.4998564
15	0xbf53fabd	-0.8280447
16	0xbf87f672	-1.0622084
17	0xbfa350b7	-1.2759007
18	0x3f3f7aff	0.7479705
19	0xbf4f086a	-0.80872214
20	0xbf8972b6	-1.0738132
21	0xbe9861c2	-0.29762083
22	0xbf7bf523	-0.98420924
23	0xbfb2f2ee	-1.3980386
24	0xbee768e2	-0.45197207
25	0xbf9087a9	-1.12914
26	0xbf26649c	-0.6499727
27	0xbf51ba26	-0.81924665
28	0xbf5032be	-0.81327426
29	0xc0256d7a	-2.584807
30	0xbe64f2d0	-0.2235825
31	0xbfb209d9	-1.3909255
32	0x3e02a9e8	0.12760127
33	0xbfe9ac71	-1.825575
34	0xbfd39dac	-1.6532493
35	0x3d2d856f	0.04236358
36	0xbf4a5f06	-0.79051244
37	0xc0043dee	-2.06628
38	0xbf96dfd8	-1.1787062
39	0xbfbc57bb	-1.4714273
40	0xbedf89ec	-0.43659914
41	0xbfd26aff	-1.6438903
42	0xbfd9486e	-1.6975229
43	0x3da3c4ea	0.07996543
44	0xbf28f110	-0.6599283
45	0xbf7af2d7	-0.98026794
46	0xbf03d335	-0.5149415
47	0xc004878c	-2.0707731
48	0xbf6c2555	-0.92244464
49	0xbf98e5f1	-1.1945173
50	0xbf9b5bcd	-1.213739
51	0xbe6e3c20	-0.23265123
52	0xc044954c	-3.0716124
53	0xbf802f01	-1.0014344
54	0xbff03871	-1.8767225
55	0xbfcff546	-1.6246727
56	0xbf957ca8	-1.1678667
57	0xc02bc877	-2.6841104
58	0xbf7b10e3	-0.9807264
59	0x40385bf2	2.880612
60	0xbf602abc	-0.8756521
61	0xbf51de93	-0.81980246
62	0xc01ee161	-2.482506
63	0xbeacba52	-0.337359

block.3.block.1.running_var f4 [64]
0	0x3f78a4de	0.9712657
1	0x4030b850	2.7612495
2	0x3f9cd9a8	1.2253923
3	0x403ce344	2.9513712
4	0x400bf8c9	2.1870596
5	0x3f99efef	1.2026347
6	0x40165344	2.3488321
7	0x3fd1c38d	1.6387802
8	0x400e83fc	2.2268057
9	0x3fc18d3e	1.5121229
10	0x3fe4eace	1.7884157
11	0x400941c5	2.1446393
12	0x3fdc1321	1.7193338
13	0x40d44d24	6.6344166
14	0x3fe16a72	1.761061
15	0x3fbebdc0	1.4901657
16	0x3fab4d3f	1.3382949
17	0x402e671e	2.7250438
18	0x3fbc5329	1.4712878
19	0x3fc29227	1.5200852
20	0x3fb7b1d4	1.4351144
21	0x3fa634a6	1.2984817
22	0x3ff605a2	1.9220469
23	0x402cc024	2.6992273
24	0x3fa621f9	1.2979118
25	0x400e5cef	2.2244222
26	0x40187b46	2.382524
27	0x3f830821	1.0236856
28	0x404e2317	3.2208917
29	0x407e3afd	3.9723504
30	0x3f9f081f	1.2424353
31	0x4014ac76	2.3230262
32	0x3fa3870c	1.2775588
33	0x400f3254	2.2374468
34	0x405093d1	3.259022
35	0x3f8331d3	1.024958
36	0x3fc40bd2	1.5316107
37	0x400e76a5	2.2259915
38	0x40437af4	3.0543795
39	0x400ac74d	2.1684144
40	0x3fe1a316	1.7627895
41	0x404b4b5c	3.1764746
42	0x3fca604b	1.5810636
43	0x3faba61f	1.3410071
44	0x4013af53	2.307576
45	0x3fe72f5f	1.8061332
46	0x3f87ca54	1.0608621
47	0x3fea22c9	1.8291866
48	0x40270412	2.6096234
49	0x3fbfc2fa	1.4981377
50	0x402fec13	2.7487838
51	0x3f44d872	0.7689277
52	0x40ac0370	5.3754196
53	0x3fd9fe1f	1.7030677
54	0x3ff6c1b6	1.9277866
55	0x402b38d2	2.675343
56	0x4022c069	2.5429938
57	0x40811a8f	4.034492
58	0x3fbb3172	1.4624465
59	0x401c3dfa	2.4412827
60	0x3fecba5d	1.8494374
61	0x3f846ad2	1.0345099
62	0x405f2abd	3.4869835
63	0x3f7955bf	0.97396463

block.3.block.3.weight f4 [64, 64, 3, 3]
0	0x3d853f14	0.06506172
1	0x3d016711	0.031592432
2	0x3cad5bd7	0.021161957
3	0x3dd0c2d1	0.10193408
4	0x3d2107b4	0.039313987
5	0xbb96140e	-0.0045800274
6	0x3d9bb5b2	0.07603015
7	0x3d76a762	0.060218222
8	0x3daeae47	0.085293345
9	0xbcdb2f2b	-0.02675589
10	0xbd8cebeb	-0.06880935
11	0xbc9f8963	-0.01947469
12	0x388c099f	6.677512e-05
13	0xbd709c52	-0.05874283
14	0x3b87a8de	0.0041400036
15	0xbbb7de61	-0.0056112264
16	0xbc7e2821	-0.015512497
17	0x3d5da460	0.05411184
18	0xbd2327f2	-0.039833017
19	0xbcacef20	-0.021110117
20	0x3bf82504	0.007572772
21	0xbcc1ba75	-0.02364848
22	0xbd3979d4	-0.0452822
23	0x3b210cb8	0.0024574231
24	0x3b904e4a	0.004403864
25	0xbcdc9c2e	-0.026929941
26	0xbca53189	-0.020165222
27	0xbce9c1a6	-0.028534722
28	0xbcd2ad5e	-0.025717434
29	0x3d4cbd88	0.04998544
30	0xbce1601c	-0.027511649
31	0x3d02cf88	0.0319362
32	0x3c92fa32	0.017941568
33	0x3cefd5d5	0.029276768
34	0x3cd00f66	0.025397968
35	0xbd06c07e	-0.03289842
36	0x3c706e02	0.014674665
37	0xbd109a2d	-0.035303283
38	0xbd3d9c74	-0.046291783
39	0x3c11c1b1	0.008896277
40	0xbc7b4bfd	-0.015337941
41	0xbd2b3b07	-0.04180434
42	0xbc275747	-0.01021368
43	0xbd0a9519	-0.033833597
44	0x3c5b06a9	0.013368287
45	0xbd2e12ef	-0.042498525
46	0xbd25b922	-0.04045976
47	0xbd1f8f89	-0.038955245
48	0xbdd93503	-0.10605814
49	0xbd83a352	-0.06427635
50	0x3bd1d471	0.006403499
51	0xbd4d1efa	-0.05007837
52	0xbd21523f	-0.039385077
53	0x3ba3696a	0.0049869316
54	0x3c5c94b0	0.013463184
55	0xbcfc2b8f	-0.03078249
56	0xbd84d5aa	-0.06486066
57	0xbd23730b	-0.039904635
58	0xbd0abeb8	-0.03387329
59	0xbd9f61b6	-0.07782309
60	0xbd9e1309	-0.077184744
61	0xbdbc17dc	-0.09184238
62	0xbdfb9916	-0.12285058
63	0xbc8b5ef8	-0.017013058
64	0x3c296edb	0.010341371
65	0xbc22edc8	-0.009944387
66	0x3be79918	0.0070678107
67	0xbd0f56c8	-0.03499487
68	0x3c8efdef	0.01745507
69	0xb9f20335	-0.00046160226
70	0xbc22f5ac	-0.009946268
71	0x3d3c6b2e	0.046000652
72	0xbdbafc80	-0.09130192
73	0xbd6a1148	-0.057145387
74	0xbdada1f4	-0.08478156
75	0xbd78f394	-0.06077917
76	0xbd666567	-0.05624905
77	0xbd5a597f	-0.053308006
78	0xbce84009	-0.028350847
79	0xbcfa0852	-0.030521546
80	0xbd813a91	-0.06309999
81	0xbd2689e1	-0.040658835
82	0x3cf95176	0.030434351
83	0xbc55af61	-0.013042302
84	0xbd0c2e95	-0.03422411
85	0xbd180201	-0.037111286
86	0xbc9d745a	-0.01922052
87	0xbca47421	-0.020074906
88	0xbd09ab8d	-0.03361087
89	0xbc12ecae	-0.008967562
90	0x3c79f88c	0.015257012
91	0xbd14936c	-0.036273405
92	0xbba5bea1	-0.005058125
93	0x3cb0b93f	0.021572707
94	0xbbe59ccf	-0.0070072184
95	0x3c98e38c	0.01866319
96	0x3ce45bed	0.027875865
97	0x3c337a9a	0.010954523
98	0xbc99fa17	-0.01879601
99	0x3babfc08	0.0052485503
100	0x3c7b0153	0.01532014
101	0x3d4d99b5	0.050195415
102	0x3bf26371	0.0073971082
103	0xbd0c6288	-0.034273654
104	0x3db5ac3c	0.08870742
105	0xbc985e8e	-0.018599775
106	0x3c9b365d	0.01894682
107	0x3d936afd	0.07198141
108	0x3c7bca35	0.015368034
109	0xbd6fa378	-0.058505505
110	0xbdd82fab	-0.10555967
111	0xbc1fa8eb	-0.009744863
112	0xbc3753dc	-0.011189427
113	0xbd8526d4	-0.065015465
114	0xbc97f2c9	-0.018548386
115	0xbda03748	-0.07823044
116	0xbc2aa78d	-0.010415924
117	0xbd233627	-0.039846566
118	0xbd48c898	-0.049019426
119	0xbca237b5	-0.019801954
120	0xbd4a5bd9	-0.049404
121	0xbd92acdf	-0.07161879
122	0xbd65511f	-0.055985566
123	0xbce20ea1	-0.027594866
124	0xbcf17f18	-0.029479548
125	0xbd385d3d	-0.045010794
126	0xbd226344	-0.03964545
127	0xbce2c4b6	-0.02768169
128	0xbcba2cd2	-0.02272645
129	0xbcabfbf4	-0.020994164
130	0xbaac0615	-0.0013124371
131	0xbd28b083	-0.04118396
132	0x3c851840	0.016246915
133	0xbc56e592	-0.013116257
134	0xbd348078	-0.04406783
135	0x3b61bab7	0.0034443566
136	0x3d1eb6d2	0.03874857
137	0xbcd3ea89	-0.025868671
138	0x3cdaa53e	0.026690122
139	0xbd2264fb	-0.039647084
140	0xba875d0c	-0.0010327413
141	0x3d53456a	0.05157987
142	0x39f7f3fc	0.00047293294
143	0x3cea1161	0.02857274
144	0xbd75e11a	-0.060029127
145	0xbd1dd32d	-0.03853147
146	0xbd24f024	-0.04026808
147	0xbd0e27df	-0.034705993
148	0xbd418eff	-0.047255512
149	0xbd17a3f6	-0.0370216
150	0xbc4137f9	-0.01179313
151	0xbd91b961	-0.07115436
152	0xbd90d39d	-0.07071612
153	0x3c1ae126	0.009453094
154	0xbd9b93f1	-0.07596577
155	0xbc4e1b2c	-0.0125797205
156	0xbce2fcd3	-0.027708447
157	0xbda2647f	-0.07929324
158	0xbcd26c6b	-0.025686463
159	0x3c5ff149	0.013668367
160	0xbc51691b	-0.012781407
161	0xbc9e9bb5	-0.019361356
162	0xbc691cef	-0.01422809
163	0xbd8399f1	-0.06425846
164	0xbd9e13ea	-0.07718642
165	0xbceeaae3	-0.02913422
166	0xbd015b59	-0.031581257
167	0xbdbae6a6	-0.09126024
168	0xbced1386	-0.028939974
169	0xbd4be0c0	-0.049774885
170	0xbd42e12e	-0.04757803
171	0x3de2217d	0.11041544
172	0x3d86dd0b	0.06585129
173	0x3e08bea0	0.13353968
174	0x3e1bb2e6	0.15204963
175	0x3dea7b65	0.11449317
176	0x3dc8420e	0.09778224
177	0x3e2b965c	0.16756576
178	0x3d255a93	0.04036958
179	0x3de58190	0.11206353
180	0x3d1fd39d	0.03902017
181	0x3cbd611a	0.02311759
182	0x3d0aad8c	0.033856913
183	0x3c9e21d4	0.01930324
184	0xbcf215be	-0.029551383
185	0x3cb1b828	0.021694258
186	0x3ca8d332	0.020608518
187	0x3b5783da	0.0032884986
188	0xbcf1f40a	-0.029535312
189	0xbd8bf71d	-0.068342425
190	0xbd8e803b	-0.06958052
191	0xbd9fd179	-0.078036256
192	0xbccf5a0e	-0.025311496
193	0xbd478323	-0.048709046
194	0xbd11688e	-0.0355001
195	0xbc9bd463	-0.019022172
196	0xbd6bb986	-0.057549976
197	0xbd385c84	-0.045010105
198	0xbcfa5a62	-0.030560676
199	0xbd3ad6f3	-0.045615148
200	0x3c809e92	0.015700612
201	0xbd08aa33	-0.03336544
202	0xbb84b60c	-0.004050022
203	0xbd1eb82e	-0.038749866
204	0xbc9f20c4	-0.019424804
205	0xbd36f550	-0.044667542
206	0xbb872a9f	-0.004124954
207	0x3d452d96	0.048139177
208	0x3cbdda8a	0.023175497
209	0x3d9954ee	0.07486902
210	0x3d7db456	0.06193956
211	0x3cdd7fdb	0.027038505
212	0x3cd2ac4e	0.025716927
213	0xbb81fa21	-0.0039665853
214	0x3ad16a02	0.0015977027
215	0x3d722757	0.05911955
216	0x3a200a1d	0.00061050226
217	0xbd0920ce	-0.03347855
218	0x3cc7b6db	0.024379184
219	0xbd3634b7	-0.044483867
220	0xbc94ea53	-0.01817814
221	0xbc687cd7	-0.01418992
222	0xbc814cbe	-0.015783664
223	0xbaf6c951	-0.0018828308
224	0x3c6477c0	0.013944566
225	0x3bd79ab8	0.006579723
226	0xbddb0adb	-0.1069543
227	0xbdcfacf8	-0.10140413
228	0x3c927fe3	0.017883247
229	0xbc5431ac	-0.012951296
230	0xbb3e75f0	-0.0029061995
231	0xbd1bb560	-0.03801477
232	0xbcd7f807	-0.026363386
233	0xbd2e7a70	-0.042597234
234	0xbd0d1284	-0.034441486
235	0xbd7a2724	-0.061072484
236	0xbc92ccde	-0.017919954
237	0x3c7de89b	0.015497352
238	0xbcc2df29	-0.023788052
239	0x3be25973	0.006907636
240	0x3cc29490	0.02375248
241	0x3bf1d9c5	0.0073806965
242	0x3ca00fa8	0.019538715
243	0x3c6a960d	0.014318001
244	0x3d6a7037	0.057235923
245	0x3ddc036e	0.10742842
246	0x3d390e75	0.045179803
247	0x3db43101	0.08798409
248	0x3dcb46df	0.09925627
249	0x3d0b7b47	0.034053113
250	0x3dc8d0d1	0.098054536
251	0x3d889ba7	0.06670313
252	0x3d8f9830	0.07011449
253	0x3d90a729	0.07063133
254	0x3da1fdf1	0.079097636
255	0x3d0ad0df	0.0338906

block.3.block.3.bias f4 [64]
0	0x3cb18421	0.02166945
1	0xbc603b09	-0.01368595
2	0xbd1254a4	-0.03572525
3	0x3cd9a60a	0.026568431
4	0x3d40cd4e	0.047070794
5	0xbcacb574	-0.021082617
6	0xbb104600	-0.002201438
7	0x3c83a4a2	0.016069714
8	0xb8b26ac2	-8.5075866e-05
9	0xbd04b2e7	-0.032397177
10	0xb9443e0e	-0.00018715134
11	0x3c63ca9d	0.013903287
12	0x3c8668a1	0.016407313
13	0x3c8f2454	0.017473377
14	0xbc985036	-0.018592935
15	0x3cf4462e	0.02981862
16	0x3bfcefe8	0.0077190287
17	0x3c379326	0.0112045165
18	0x3c89ab31	0.016805263
19	0xbce5f74b	-0.02807202
20	0x3d29a29f	0.041414853
21	0xbb70118f	-0.003663156
22	0xbc43af23	-0.011943611
23	0x3d1607f2	0.03662867
24	0xbd33a562	-0.043858893
25	0xbc1a593d	-0.00942069
26	0x3c0cbbf8	0.008589737
27	0x3cb8f7f2	0.022579167
28	0xbc812634	-0.015765287
29	0xbd6dce5d	-0.05805813
30	0xbcb35cfa	-0.02189492
31	0xbcbd8652	-0.023135338
32	0xbc574bb4	-0.013140608
33	0xba550f85	-0.0008127618
34	0x3c5f2140	0.013618767
35	0xbcdea723	-0.027179306
36	0xbcdd8dee	-0.027045216
37	0xbd1f3842	-0.03887201
38	0xbcaab6cc	-0.020839117
39	0x3cf941eb	0.03042694
40	0x3cea99aa	0.028637726
41	0xbcc66cf2	-0.024221871
42	0x3d24e4b6	0.04025718
43	0x3c75734d	0.014981103
44	0x3d20e28f	0.039278563
45	0xbc06e3ea	-0.00823305
46	0xbd0907a8	-0.033454567
47	0x3bf372dc	0.007429464
48	0x3c42758d	0.011868847
49	0x3a77d06d	0.000945336
50	0xbcd0caab	-0.025487265
51	0x3c39093a	0.011293704
52	0x39cfe8a7	0.00039655456
53	0xbd032045	-0.032013196
54	0xbd4bf3ee	-0.049793176
55	0x3c9362bb	0.017991414
56	0x3c65231f	0.013985424
57	0x3bf385d7	0.0074317264
58	0xbce9b2f2	-0.02852771
59	0xbc45d97a	-0.012075776
60	0x3c2eb863	0.010664078
61	0x3cebcd04	0.028784283
62	0x3ce68ad7	0.028142376
63	0x3c54f59a	0.012998009

block.3.block.4.weight f4 [64]
0	0x3fbd997d	1.4812466
1	0x3fab82da	1.3399308
2	0x3fae3dc6	1.3612602
3	0x3f9eb151	1.2397863
4	0x3fa51ce7	1.2899445
5	0x3faf4668	1.3693361
6	0x3fb52b79	1.4153892
7	0x3fb5e55e	1.4210622
8	0x3fb6de39	1.4286567
9	0x3fb5df28	1.4208727
10	0x3fb358ef	1.4011515
11	0x3fb0a1dd	1.3799397
12	0x3fb07d55	1.3788248
13	0x3fb4e173	1.4131302
14	0x3fbb12bc	1.4615092
15	0x3fb2c576	1.396651
16	0x3fa5c068	1.2949343
17	0x3f9e870b	1.2384962
18	0x3fb144cd	1.3849121
19	0x3fa45ff0	1.2841778
20	0x3fb595a6	1.4186294
21	0x3fb5d801	1.4206544
22	0x3fab6a06	1.3391731
23	0x3fa5f991	1.2966787
24	0x3fba2917	1.454379
25	0x3fac6ce1	1.3470727
26	0x3faa4722	1.3302958
27	0x3fb7220d	1.4307266
28	0x3fb316c0	1.3991318
29	0x3faef639	1.3668891
30	0x3fabeb5f	1.3431205
31	0x3fb1f389	1.3902446
32	0x3fb49dbb	1.4110636
33	0x3fa46c4c	1.284555
34	0x3fa6218a	1.2978985
35	0x3fb448a1	1.4084665
36	0x3fafb0d4	1.3725839
37	0x3fbdf6d3	1.484095
38	0x3fcadc18	1.5848417
39	0x3fbedc4c	1.4910979
40	0x3fad3023	1.3530315
41	0x3fab67f1	1.3391095
42	0x3fb17c13	1.386599
43	0x3fc13c37	1.5096501
44	0x3facb6eb	1.3493322
45	0x3faa6472	1.3311903
46	0x3fa9c6dd	1.3263813
47	0x3fa9f507	1.3277901
48	0x3fa63a26	1.2986495
49	0x3fbfe00c	1.4990249
50	0x3fba0604	1.4533086
51	0x3fa869b7	1.3157262
52	0x3fafebdc	1.3743854
53	0x3fa66562	1.299969
54	0x3fa38291	1.2774221
55	0x3faa34b2	1.3297331
56	0x3fb8f868	1.4450808
57	0x3fb20cd2	1.3910162
58	0x3fae826e	1.3633554
59	0x3fa524a7	1.290181
60	0x3fa4ae26	1.2865646
61	0x3fc175e9	1.5114108
62	0x3faec4a5	1.3653761
63	0x3fb6e081	1.4287263

block.3.block.4.bias f4 [64]
0	0x3e192e58	0.14959085
1	0x3d888485	0.06665901
2	0x3df06c95	0.117394604
3	0x3e0a1b14	0.13486892
4	0x3dc92824	0.09822109
5	0x3d47d29a	0.04878483
6	0x3bc5075c	0.00601284
7	0x3e0e30b7	0.1388577
8	0x3e2b8908	0.16751492
9	0x3dd48143	0.10376217
10	0x3dc5a55b	0.0965068
11	0x3d55825f	0.052126285
12	0x3d7d0c7b	0.06177948
13	0x3d92770e	0.07151614
14	0x3d04d65e	0.032431
15	0x3d9a7da7	0.075434975
16	0x3d168932	0.036751933
17	0x3d3c0447	0.045902517
18	0xbce54365	-0.027986238
19	0x3d895e74	0.06707469
20	0x3e0d5a9a	0.13804093
21	0x3e2eed16	0.17082629
22	0x3dc21b96	0.09477918
23	0x3df97d73	0.12182131
24	0x3db46d04	0.088098556
25	0x3d892bfe	0.06697844
26	0x3d592bf1	0.05302042
27	0x3d9aae29	0.0755275
28	0x3ddcffc0	0.10790968
29	0x3da34925	0.079729356
30	0x3e0424e6	0.129047
31	0x3e03cda8	0.1287142
32	0x3d7a6a2b	0.061136406
33	0x3d1c247e	0.03812074
34	0x3dd53752	0.10410942
35	0x3d1b8e10	0.03797728
36	0x3db16530	0.08661878
37	0x3d5137a2	0.051078446
38	0x3d1dff3f	0.0385735
39	0x3daf8ac8	0.08571392
40	0xbc496ecf	-0.012294485
41	0x3d2183f5	0.039432485
42	0x3c97d65f	0.018534837
43	0x3e1ee901	0.15518571
44	0x3d5fb6c8	0.054617673
45	0x3cdea334	0.02717743
46	0x3dcdfaea	0.10057624
47	0x3d46310f	0.04838663
48	0x3d70de90	0.058806002
49	0x3d9f620a	0.07782371
50	0x3dc04431	0.093880065
51	0xbd7b6774	-0.061377957
52	0x3e09a315	0.13441117
53	0x3e19c506	0.15016565
54	0x3db23871	0.087021716
55	0x3dc0e4ee	0.09418665
56	0x3cb16977	0.021656735
57	0x3dba3820	0.09092736
58	0x3d08a95d	0.033364642
59	0x3d7c7e79	0.06164405
60	0x3cb71038	0.0223466
61	0x3dd79bf0	0.105277896
62	0x3d9af446	0.07566123
63	0x3daad16e	0.08340727

block.3.block.4.running_mean f4 [64]
0	0xbf0f902a	-0.5607935
1	0xbdf6d96f	-0.12053191
2	0x3ec63920	0.38715458
3	0xbea22f8d	-0.31676903
4	0x3f31f53a	0.6951481
5	0xbea4b3fc	-0.32168567
6	0x3f1e166a	0.6175295
7	0xbf05f550	-0.5232744
8	0xbbaccbe8	-0.005273331
9	0xbe418bf2	-0.18901041
10	0xbee2aa29	-0.44270447
11	0x3f159f02	0.5844575
12	0xbe2c426d	-0.16822214
13	0xbe8c06fc	-0.2734908
14	0x3c8997dd	0.016796047
15	0xbf2932ad	-0.6609295
16	0x3f61dba2	0.8822576
17	0x3f6a1c33	0.9144928
18	0x3eb3b7e2	0.3510123
19	0xbc53ddcb	-0.0129312975
20	0x3e898350	0.26857996
21	0x3e28976a	0.1646401
22	0xbf2b8884	-0.6700518
23	0xbf2145e9	-0.629973
24	0x3f03f419	0.5154434
25	0x3d40da1b	0.047083
26	0xbe30aa32	-0.17252424
27	0xbd557a69	-0.052118693
28	0xbe953408	-0.2914126
29	0x3d298bea	0.041393198
30	0x3f2ec9b9	0.68276554
31	0xbe1d333c	-0.15351576
32	0xbe8ccf27	-0.27501795
33	0x3f450374	0.76958394
34	0xbdcd7e66	-0.10033874
35	0xbde984e0	-0.11402297
36	0xbe48ea22	-0.19620565
37	0x3ee1e294	0.44118178
38	0x3e988c4d	0.2979454
39	0xbe18f7ba	-0.1493825
40	0x3fb5fa24	1.4216962
41	0x3e0443ae	0.12916443
42	0x3f88c023	1.0683635
43	0x3deede63	0.11663511
44	0xbe412b82	-0.18864253
45	0xbe7777f7	-0.24166857
46	0xbe927a02	-0.2860871
47	0xbece82ec	-0.4033426
48	0xbf458187	-0.7715077
49	0x3f514dfb	0.81759614
50	0x3ddc6697	0.10761755
51	0x3eec6855	0.4617335
52	0xbe144a8f	-0.14481567
53	0x3f0ab05f	0.5417537
54	0xbef6515e	-0.48108953
55	0x3dd77332	0.10520019
56	0x3f0dcc45	0.55389816
57	0x3e3c2359	0.18372859
58	0x3e80b66b	0.25139174
59	0xbf11d169	-0.5696016
60	0x3f03dae7	0.51505893
61	0xbf29cab1	-0.6632491
62	0xbe5aa0ce	-0.21350405
63	0x3f801801	1.0007325

block.3.block.4.running_var f4 [64]
0	0x3fbe51be	1.4868696
1	0x3f2a53e1	0.6653424
2	0x3f8894aa	1.0670369
3	0x3f8f3502	1.1188052
4	0x3f495567	0.7864594
5	0x3f275031	0.6535674
6	0x3f9d664c	1.2296844
7	0x3f986035	1.190436
8	0x3f8714b1	1.055319
9	0x3f387e9e	0.720682
10	0x3f3f0edd	0.74632055
11	0x3f4f2ba4	0.80925965
12	0x3f3ae73b	0.7300908
13	0x3f1082ed	0.56449777
14	0x3f8c11cd	1.0942932
15	0x3f9ff183	1.2495579
16	0x3f68d127	0.9094414
17	0x3f573104	0.84059167
18	0x3f561568	0.83626413
19	0x3f398de3	0.72482127
20	0x3f716382	0.9429246
21	0x3f9dff56	1.2343547
22	0x3f989697	1.1920956
23	0x3f4cb624	0.79965425
24	0x3f8f0e71	1.1176282
25	0x3f518309	0.8184057
26	0x3f210f7e	0.62914264
27	0x3f85851c	1.0431247
28	0x3f8e0d38	1.1097784
29	0x3f8e0fb4	1.1098542
30	0x3f85cc29	1.045293
31	0x3f76df0c	0.9643409
32	0x3f614e69	0.8801027
33	0x3f967d05	1.1756903
34	0x3f65b578	0.89730024
35	0x3f75439b	0.9580628
36	0x3f273c24	0.6532614
37	0x3f736ea2	0.9509069
38	0x3fcf39a0	1.6189461
39	0x3f975cb5	1.1825167
40	0x3f5c6d72	0.861045
41	0x3f30c7f4	0.69055104
42	0x3f56ad6a	0.8385836
43	0x3faae627	1.3351487
44	0x3f2a6220	0.66555977
45	0x3f3a2885	0.7271808
46	0x3f8f8b9c	1.121448
47	0x3f8b3dc9	1.087823
48	0x3f3a291f	0.72718996
49	0x3f785592	0.9700557
50	0x3f722210	0.94583225
51	0x3f57c685	0.8428729
52	0x3f886c76	1.06581
53	0x3fd262a3	1.6436352
54	0x3f6aa0ab	0.9165141
55	0x3f7962ab	0.9741618
56	0x3f812471	1.0089246
57	0x3f94b0bc	1.1616435
58	0x3f7f57af	0.9974317
59	0x3f034c3c	0.512882
60	0x3f670528	0.9024224
61	0x3f90df4b	1.1318144
62	0x3f9cf148	1.2261133
63	0x3f8d648c	1.104631

block.3.skip_conv.weight f4 [64, 32, 1, 1]
0	0x3da1344b	0.07871302
1	0xbcb4ec7f	-0.022085426
2	0xbdca4813	-0.09877028
3	0x3dfa6ad1	0.12227405
4	0x3e388df2	0.18022898
5	0x3bb15011	0.005411156
6	0x3e04e833	0.12979202
7	0x3dbc0c84	0.09182075
8	0xbde22d60	-0.11043811
9	0xbe4fe306	-0.20301446
10	0xbe61f3c0	-0.2206564
11	0x3e1c8841	0.15286352
12	0xbe4706d7	-0.19436203
13	0xbde6ebc0	-0.112754345
14	0x3d7a2cd2	0.0610779
15	0xbe846416	-0.2585761
16	0x3e2c0ef6	0.16802582
17	0xbd71f349	-0.059069905
18	0xbe54a77b	-0.20767014
19	0xbda1c30a	-0.07898529
20	0x3e215514	0.15755111
21	0xbd215822	-0.03939069
22	0x3d9ce414	0.0766069
23	0xbe0ec4f8	-0.13942325
24	0xbe7d6036	-0.24743733
25	0xbc7f3b4f	-0.015578105
26	0x3dcecef6	0.100980684
27	0xbaec08c1	-0.001800798
28	0xbdeccb50	-0.11562216
29	0xbe2153c4	-0.1575461
30	0x3e1f774b	0.1557285
31	0x3db60530	0.08887708
32	0xbe14cd0e	-0.14531347
33	0x3d009f58	0.031401962
34	0xbdc3828e	-0.09546386
35	0x3d5549d9	0.05207238
36	0x3e270a2a	0.16312471
37	0xbe25305c	-0.16131729
38	0x3c270c30	0.010195777
39	0x3e01bba9	0.12669243
40	0x3d9286f8	0.071546495
41	0xbd43123e	-0.04762482
42	0xbdebc3f8	-0.115119874
43	0x3e0000f3	0.12500362
44	0x3c9d39bf	0.019192575
45	0xbda3afa6	-0.07992487
46	0xbe20adc5	-0.15691288
47	0xbe9bfdf8	-0.304672
48	0xb9ce5f4e	-0.0003936239
49	0xbdaf54ac	-0.08561072
50	0xbde3ca74	-0.11122599
51	0xbd4d31df	-0.05009639
52	0xbe198ce1	-0.14995147
53	0x3e2f6166	0.17126998
54	0x3d4ea7a2	0.050452836
55	0xbd9dd0b6	-0.07705824
56	0x3e1b1d96	0.15148005
57	0xbe1be3d2	-0.15223625
58	0x3d0aaed9	0.033858154
59	0x3e2efaf4	0.17087919
60	0x3d4181ec	0.047243044
61	0x3d54555f	0.05183923
62	0xbe8125d7	-0.25224182
63	0xbe7e7f9d	-0.24853368
64	0xbdfe332c	-0.12412104
65	0xbcccaaea	-0.024983842
66	0x3d4b4789	0.049628768
67	0x3e10a45c	0.14125198
68	0xbbf7cb18	-0.0075620525
69	0xbe9fa293	-0.31178722
70	0x3ac84ba1	0.0015281328
71	0xbd85a0e2	-0.065248266
72	0xbe6be084	-0.23034865
73	0x3d67c65c	0.056585655
74	0xbe3f0bc1	-0.18656828
75	0x3e2d4783	0.16921811
76	0xbb4a5610	-0.003087405
77	0xbdf7998b	-0.12089833
78	0xbe8b2ba9	-0.27181748
79	0x3d29aede	0.041426532
80	0xbe267a83	-0.16257672
81	0x3e0c0240	0.13672733
82	0x3d66bf5f	0.05633485
83	0x3e0885ec	0.13332337
84	0x3dd83685	0.10557274
85	0x3d45b647	0.048269536
86	0xbda5c625	-0.08094434
87	0x3da87c64	0.08226851
88	0xbe41df89	-0.18932928
89	0xbdaa6f64	-0.08322027
90	0x3d577863	0.052605044
91	0xbd5ce4b4	-0.053929046
92	0xbd519416	-0.051166616
93	0xbdccd536	-0.10001604
94	0xbde17339	-0.11008305
95	0x3da6ad5d	0.08138535
96	0xbe2f7ab3	-0.1713665
97	0xbdd33fc6	-0.10314898
98	0x3c12c836	0.008958867
99	0x3dd2878f	0.10279762
100	0x3d271b40	0.040797472
101	0xbcd59b63	-0.02607507
102	0xbe30d2dc	-0.17267936
103	0xbdd7c27d	-0.105351426
104	0xbe510832	-0.20413283
105	0x3d8c5374	0.06851855
106	0x3d6f2e65	0.058393855
107	0x3e2e6e84	0.17034346
108	0xbd60a6d8	-0.054846615
109	0x3dd3fb2d	0.10350642
110	0xbe7cbeb0	-0.24682117
111	0xbe0c89cf	-0.13724445
112	0x3d252150	0.040314972
113	0x3e3ec4f8	0.18629825
114	0xbe1cc741	-0.15310384
115	0xbdb9b373	-0.0906743
116	0x3cef90f5	0.029243926
117	0xbd5ffa5d	-0.054682124
118	0xbcdc4e7c	-0.026892893
119	0xbd572efa	-0.052535035
120	0xbe2f73f6	-0.1713408
121	0x3e2f0e42	0.17095283
122	0xbdb4b617	-0.088237934
123	0xbd40a737	-0.04703447
124	0xbcd3aad6	-0.025838297
125	0x3e204ae4	0.15653569
126	0x3e075a7e	0.13218114
127	0x3e593cd3	0.21214609
128	0x3c8f6892	0.017505918
129	0x3d8a4cf5	0.0675296
130	0xbdf51a77	-0.119679384
131	0x3d900f0b	0.07034119
132	0xbdc529ce	-0.09627114
133	0xbd0e9fc3	-0.03482033
134	0xbdec2336	-0.115301535
135	0x3dd3734b	0.10324725
136	0xbc42bf9b	-0.011886503
137	0x3d36ea9f	0.044657346
138	0x3da1df85	0.07903961
139	0x3ddf0839	0.1089024
140	0xbda860ef	-0.082216136
141	0xbde69a9b	-0.112599574
142	0xbe539962	-0.2066398
143	0xbad4106e	-0.0016179213
144	0x3e22b6b9	0.15890016
145	0x3cc202fd	0.023683066
146	0x3c2e1243	0.010624471
147	0x3e2d85a7	0.16945516
148	0xbe827292	-0.25478035
149	0x3e517d5a	0.20457974
150	0xbe7a63e0	-0.24452162
151	0xbda85c44	-0.08220723
152	0xbaaa5a17	-0.001299682
153	0xbc2ba88c	-0.010477196
154	0x3e1b464b	0.15163533
155	0xbe5f2278	-0.21790493
156	0xbdc44a2d	-0.095844604
157	0x3e1000c5	0.14062794
158	0x3ce81883	0.028332
159	0x3cdb705d	0.026786977
160	0x3d31924a	0.043352403
161	0x3cdaf500	0.026728153
162	0xbe13e79d	-0.14443822
163	0x3e3cce6c	0.18438119
164	0xbdd16a36	-0.10225336
165	0x3caeb973	0.021328663
166	0xbd89035d	-0.066900946
167	0x3d6f78db	0.058464866
168	0xbe863608	-0.26213098
169	0xbe868857	-0.26275894
170	0x3d4574b1	0.04820699
171	0x3e18ac72	0.14909533
172	0xbd147354	-0.036242798
173	0x3c448958	0.011995636
174	0xbdfa5471	-0.12223137
175	0xbe844c83	-0.25839624
176	0xbd9d8914	-0.07692161
177	0xbcdaa119	-0.026688145
178	0x3daeef9a	0.08541794
179	0xbc530459	-0.0128794545
180	0xbe45597b	-0.19272415
181	0xbd7d7b7b	-0.06188534
182	0xbcc3a2b5	-0.023881296
183	0x3e22f380	0.159132
184	0x3dd32a3f	0.10310792
185	0xbda6ffa5	-0.08154229
186	0x3dea63fd	0.114448525
187	0xbe00fc7f	-0.1259632
188	0xbda4cf3b	-0.080473386
189	0x3d9fef52	0.078093186
190	0x3c855d8a	0.016279954
191	0x3d95b657	0.07310169
192	0x3e3d099b	0.18460695
193	0x3dc37d47	0.09545379
194	0x3c57fc16	0.013182661
195	0xbd35406d	-0.044250894
196	0x3d8c27e9	0.0684355
197	0x3c2cf66f	0.010556801
198	0x3bac7f59	0.0052642045
199	0xbe429842	-0.19003394
200	0x3e0284a4	0.12745911
201	0xbde6e93d	-0.112749554
202	0xbcf0173e	-0.029307958
203	0x3d331705	0.043723125
204	0xbdeb8a15	-0.115009464
205	0xbe352ed2	-0.17693642
206	0x3cf6f0c8	0.03014411
207	0xbcb1fd7e	-0.02172732
208	0xbe3a3e64	-0.18187863
209	0xbe78cef9	-0.24297704
210	0xbbbe3d7d	-0.00580567
211	0xbdb8dab8	-0.09026092
212	0x3e28bb9c	0.16477817
213	0x3c93134c	0.017953537
214	0xbd8a46a4	-0.06751755
215	0xbd08d89b	-0.033409696
216	0x3e0f2d91	0.13982226
217	0x3d082087	0.033234145
218	0x3d6c6f2c	0.05772321
219	0x3d47b673	0.04875798
220	0xbcad5ad4	-0.021161474
221	0x3d9165da	0.07099505
222	0x3d0515b6	0.03249141
223	0x3d5fdf67	0.054656412
224	0xbe58a67b	-0.21157257
225	0x3dfc28f9	0.123125024
226	0xbdb4093c	-0.08790824
227	0x3d65a310	0.05606371
228	0x3dd676ab	0.10471853
229	0xbdf0ea3e	-0.11763428
230	0xbce91e9b	-0.028456977
231	0xbe01dcd3	-0.12681894
232	0x3e0dcd90	0.13847947
233	0xbde0acd0	-0.10970461
234	0xbcf6f20c	-0.030144714
235	0xbe0cf83c	-0.13766569
236	0xbe12cb73	-0.14335422
237	0xbb82827c	-0.00398284
238	0xbe32d31b	-0.17463343
239	0x3e26e407	0.16297923
240	0x3cc462fe	0.023972984
241	0x3dfb784e	0.12278806
242	0x3d10ca0f	0.035348948
243	0x3ddd7935	0.10814134
244	0xbd295ab9	-0.041346285
245	0xbe0074ce	-0.12544557
246	0xbd8f3f67	-0.06994515
247	0x3ce0e0e1	0.02745098
248	0xbe42c455	-0.19020207
249	0xbe103430	-0.14082408
250	0xbd771ba3	-0.06032909
251	0x3d835ab2	0.06413783
252	0x3dd6c77a	0.10487266
253	0xbe2aa0a8	-0.16662848
254	0xbe18b12c	-0.14911336
255	0x3db704e0	0.08936477

block.3.skip_conv.bias f4 [64]
0	0x3dbf4027	0.09338408
1	0xbe55bfe1	-0.20873977
2	0x3a821e36	0.0009927216
3	0x3c8d6217	0.017258687
4	0xbe447a75	-0.19187339
5	0xbe10219f	-0.14075325
6	0xbe335d4d	-0.1751606
7	0x3df13e4d	0.11779461
8	0xbd896010	-0.067077756
9	0xbe6dbaab	-0.2321574
10	0xbe755f84	-0.23962218
11	0xbe61236d	-0.2198617
12	0x3d396101	0.045258526
13	0x3cbdd788	0.023174062
14	0x3cdcc43b	0.026949039
15	0xbe6d8471	-0.23195054
16	0xbe68fb16	-0.22752032
17	0xbddf8020	-0.1091311
18	0xbded08cb	-0.11573943
19	0x3c19ea47	0.009394235
20	0x3d2f239f	0.04275858
21	0xbd7b3f0e	-0.06133943
22	0xbd5b335c	-0.053515777
23	0xbdd30665	-0.10303954
24	0xbdfcc1b5	-0.12341634
25	0x3d246f72	0.040145345
26	0x3d1f8ee5	0.038954634
27	0x3daa7003	0.08322146
28	0xbdc64ef3	-0.09683027
29	0x3bf8f5c1	0.0075976555
30	0xbda64e6d	-0.08120427
31	0x3e22a6f9	0.15884008
32	0x3dde2dc8	0.10848576
33	0x3d8f2fc4	0.069915324
34	0xbd809fae	-0.062804565
35	0x3d91d989	0.0712157
36	0x3c8a5c2d	0.016889656
37	0xbd49a91b	-0.049233537
38	0xbe29db5b	-0.16587584
39	0xbe2581ca	-0.16162792
40	0xbda5ed15	-0.081018604
41	0x3e1de45d	0.15419145
42	0xbdc0bf47	-0.09411483
43	0xbe72f02b	-0.2372443
44	0xbda802f5	-0.08203689
45	0x3d3548ee	0.044259004
46	0xbdcbfde6	-0.09960537
47	0x3e2ce281	0.1688328
48	0x3ce43a43	0.027859813
49	0xbe88dac6	-0.2672941
50	0x3d977c37	0.07396739
51	0x3cbc4fcc	0.022987269
52	0xbdf6faf3	-0.120595835
53	0x3dab67c5	0.08369402
54	0xbd68ee41	-0.05686784
55	0xbe1a498b	-0.15067117
56	0xbe76c22f	-0.24097513
57	0xbde9f9c0	-0.11424589
58	0xbcb474d4	-0.022028364
59	0xbe16f93e	-0.14743516
60	0xbdccd553	-0.10001626
61	0xbe36ae02	-0.17839816
62	0xbd88e414	-0.066841274
63	0x3d703aca	0.058649816
