models/adversarial_model.pth (torch, 251470 bytes, 22 tensors)

block.0.weight f4 [32, 3, 3, 3]
0	0x3e3e0905	0.18558128
1	0x3e0e3c3a	0.13890162
2	0x3e1f6c07	0.15568553
3	0x3e43c351	0.19117476
4	0xbb1ebcf6	-0.0024221516
5	0xbcfa1a4f	-0.030530123
6	0x3d9185ae	0.071055755
7	0xbd895f56	-0.06707637
8	0xbdcf3c25	-0.101188935
9	0xbe56d6b2	-0.20980337
10	0xbdedea8c	-0.11617002
11	0xbcf90966	-0.03039999
12	0x3dddf95a	0.10838576
13	0x3dd1a7c7	0.10237079
14	0xbe3a2bd5	-0.18180783
15	0xbdc576b0	-0.096417785
16	0xbd1032e0	-0.03520477
17	0x3d728ccf	0.059216317
18	0xbe41bccf	-0.18919681
19	0xbde145c0	-0.10999632
20	0x3e16ca3f	0.14725588
21	0xbe084971	-0.13309266
22	0xbdafcf02	-0.085844055
23	0x3dbb5b13	0.091482304
24	0x3dc8e5d0	0.09809458
25	0xbe384916	-0.1799663
26	0xbdfa78be	-0.12230061
27	0xbe0778c3	-0.1322966
28	0x3de618b3	0.1123518
29	0x3e4b2cf0	0.19841361
30	0x3dc2eaa8	0.095174134
31	0xbda24a6c	-0.07924351
32	0xbda9a905	-0.08284191
33	0xbe412f08	-0.18865597
34	0xbd59dda5	-0.053189892
35	0x3db32d6a	0.087488964
36	0xbe34cd01	-0.17656328
37	0xbe34f7e7	-0.17672692
38	0x3d5cfce0	0.053952098
39	0xbcda0468	-0.02661343
40	0xbe625398	-0.22102201
41	0xbe3e67fe	-0.18594357
42	0xbe24c703	-0.16091542
43	0xbd9f35e9	-0.077739544
44	0xbdd1550a	-0.10221298
45	0x3cf9e13d	0.03050291
46	0x3d69bc93	0.057064604
47	0xbd34af12	-0.044112273
48	0xbd26f592	-0.040761538
49	0x3e4d4cba	0.200488
50	0xbd6a5eed	-0.057219435
51	0x3c2cbdd6	0.010543307
52	0x3e4a9468	0.19783175
53	0x3d15be7b	0.03655861
54	0xbd8d8139	-0.06909413
55	0xbe1f1cf5	-0.1553839
56	0x3e1f1a7e	0.1553745
57	0xbde35506	-0.11100201
58	0x3dd7ff88	0.105467856
59	0x3e682d97	0.22673641
60	0xbe06fc1e	-0.13182113
61	0x3db3ea2f	0.08784901
62	0xbdac57fd	-0.0841522
63	0xbdba8fc9	-0.09109456
64	0x3dbebad0	0.093129754
65	0x3d91e7fa	0.07124324
66	0xbc2f6d60	-0.010707229
67	0xbe153bc5	-0.14573582
68	0xbe23a106	-0.15979394
69	0x3e15bf24	0.14623696
70	0xbda51d19	-0.080621906
71	0x3e17061b	0.14748423
72	0x3de668b1	0.11250437
73	0x3d8fd94e	0.070238695
74	0xbe0a9dbd	-0.13536735
75	0x3e676091	0.22595431
76	0x3d7d9618	0.06191072
77	0xbe6c18c6	-0.23056325
78	0x3ca1af12	0.0197368
79	0x3cfd8c9f	0.030950842
80	0xbd8e199b	-0.069384776
81	0x3e05c66c	0.13063973
82	0xbd1f5fc4	-0.03890969
83	0xbdf33d3d	-0.11876915
84	0xbdb1ac0a	-0.08675392
85	0xbe20e349	-0.15711702
86	0x3d79ec83	0.06101657
87	0xbe1506c3	-0.1455336
88	0xbd7790a1	-0.060440663
89	0xbe0acb6b	-0.1355416
90	0x3d176756	0.036963783
91	0x3cf05a8d	0.029340053
92	0xbd5a50e9	-0.05329982
93	0x3dca689c	0.09883234
94	0x3e59194b	0.21201055
95	0x3e2851b1	0.16437413
96	0x3df6314a	0.1202112
97	0x3e2355c8	0.15950692
98	0xbe02b1f2	-0.12763193
99	0x3c05b11f	0.008159905
100	0xbcd4d43f	-0.025980113
101	0xbb20b529	-0.0024522042
102	0x3e4db7bb	0.20089619
103	0x3dabc9c9	0.08388097
104	0x3dc3273a	0.09528966
105	0x3e034a37	0.1282128
106	0xbd9c1fd4	-0.07623258
107	0xbe4b2e62	-0.19841912
108	0xbd51a351	-0.05118114
109	0x3dec6cbc	0.11544177
110	0xbd25950c	-0.040425345
111	0xbde1d533	-0.11026993
112	0x3debb91c	0.11509916
113	0x3e0966db	0.13418142
114	0xbd9f4c99	-0.07778282
115	0x3e3bdcd8	0.18345964
116	0x3e213189	0.15741552
117	0xbda64231	-0.08118094
118	0x3dbf7aa3	0.09349563
119	0xbd443f27	-0.04791179
120	0xbe2e9bf5	-0.1705168
121	0x3e2b1028	0.16705382
122	0xbe27d17b	-0.16388504
123	0xbd979301	-0.07401086
124	0xbe3c3e25	-0.18383081
125	0x3cd32d64	0.02577848
126	0x3e3f5a63	0.18686824
127	0x3ded9e66	0.11602478
128	0xbdbd7c31	-0.09252203
129	0x3db60539	0.08887715
130	0x3dc390f9	0.09549136
131	0x3d4569e4	0.04819669
132	0xbc15f12c	-0.009151738
133	0xbce18c16	-0.027532618
134	0x3dc66b39	0.0968842
135	0x3e813c53	0.25241336
136	0x3dc2fde3	0.09521081
137	0xbdb82173	-0.08990755
138	0x3c5479cc	0.012968492
139	0xbe069dae	-0.13146088
140	0xbdee26f0	-0.116285205
141	0x3ddd37c4	0.10801652
142	0xbe115165	-0.14191206
143	0x3d45a545	0.048253316
144	0x3e00bb57	0.12571464
145	0xbe22c390	-0.15894914
146	0xbe04865a	-0.12941876
147	0x3e8d495c	0.2759503
148	0xbd6f7b2c	-0.058467075
149	0xbe1c469f	-0.15261315
150	0x3cf62aee	0.030049767
151	0x3e052b9f	0.13004921
152	0xbdbb3000	-0.09140015
153	0x3e3bccda	0.18339863
154	0xbdfad205	-0.12247089
155	0xbdf9352f	-0.12168347
156	0xbc3624fe	-0.011117218
157	0xbc6da8b0	-0.01450555
158	0x3e1ac17d	0.15112872
159	0x3dfe8ff0	0.12429798
160	0x3d30d250	0.04316932
161	0xbe526684	-0.20546919
162	0xbdd03c7c	-0.101677865
163	0x3dfeb514	0.12436882
164	0xbd3646d2	-0.044501133
165	0x3dc74126	0.09729223
166	0x3e2995ee	0.165611
167	0xbd5fb451	-0.054615323
168	0x3bdc5bb1	0.0067247977
169	0xbdee4e2d	-0.116360046
170	0x3dc0c3ee	0.094123706
171	0x3dfa2d37	0.12215655
172	0xbe0e5513	-0.1389964
173	0xbe0d571f	-0.13802765
174	0x3dbbe7b7	0.091750555
175	0xbc013830	-0.007886931
176	0xbdf9521d	-0.12173865
177	0xbe418c01	-0.18901064
178	0xbe21d934	-0.15805513
179	0x3d929fbe	0.07159375
180	0xbe8866f3	-0.26641044
181	0xbe352f54	-0.17693835
182	0xbd4906e8	-0.049078852
183	0x3e428eed	0.18999834
184	0xbddaa2d1	-0.10675586
185	0x3dbd5683	0.092450164
186	0x3e22e477	0.15907465
187	0x3e5e173b	0.21688549
188	0x3e078d34	0.13237458
189	0xbe4a6e04	-0.1976853
190	0xbe11cf69	-0.14239277
191	0xbbf9ac14	-0.0076193903
192	0x3e25490b	0.16141145
193	0x3da5a860	0.080887556
194	0x3d6876aa	0.056753792
195	0x3aa3d29f	0.0012498683
196	0x3d9e3990	0.07725823
197	0x3e59851c	0.21242183
198	0x3d9bc57a	0.07606025
199	0xbd53a090	-0.051666796
200	0x3c67ea09	0.014154919
201	0x3e35a23c	0.17737669
202	0x3dd6340d	0.10459147
203	0xbe0f0d7f	-0.13969992
204	0x3d73f207	0.059556987
205	0xbe0bdead	-0.13659163
206	0xbdc54bcf	-0.096336
207	0x3c234dd3	0.009967285
208	0x3e2611ad	0.1621768
209	0x3d754a6f	0.05988544
210	0xbdb2acdc	-0.087243766
211	0x3c82b0a3	0.015953368
212	0xbd20fdab	-0.039304417
213	0xbd1fd245	-0.039018888
214	0xbe68f291	-0.22748782
215	0x3e1d4876	0.15359673
216	0xbce518f9	-0.02796601
217	0x3e05240e	0.13002035
218	0xbd82ff8c	-0.06396398
219	0x3e26fe34	0.16307908
220	0xbdbbdc83	-0.09172919
221	0xbe39e1cd	-0.18152542
222	0x3d06cf28	0.032912403
223	0x3e863834	0.26214755
224	0xbdd718e9	-0.10502798
225	0x3dbf34cd	0.09336243
226	0x3e76288c	0.24038905
227	0xbe12d27d	-0.14338107
228	0xbd512d9d	-0.05106889
229	0xbe286392	-0.16444233
230	0x3c301a7f	0.010748505
231	0xbda43d4b	-0.08019503
232	0x3a532516	0.00080545375
233	0xbe41e9fd	-0.18936916
234	0x3dd743b8	0.10510963
235	0x3cfb389f	0.030666647
236	0x3d245035	0.040115554
237	0xbde53616	-0.11191957
238	0xbe2ae341	-0.16688253
239	0x3d3b685c	0.04575382
240	0xbe1fe720	-0.15615511
241	0xbd982599	-0.07429046
242	0x3dc70b4d	0.09718952
243	0x3d2fa6e2	0.04288376
244	0x3df5a3f2	0.11994161
245	0x3ca4441a	0.020052005
246	0x3da57299	0.080784984
247	0xbd9afa66	-0.07567291
248	0xbdcbdf4f	-0.09954702
249	0xbd904cde	-0.07045911
250	0x3e34e590	0.17665696
251	0xbdd90f55	-0.105986275
252	0x3e010a62	0.12601617
253	0x3eb99426	0.3624584
254	0x3e8273ef	0.25479075
255	0xbdaabf92	-0.083373204

block.0.bias f4 [32]
0	0x3e3580d1	0.17724921
1	0x3caf0140	0.0213629
2	0x3de1b6b0	0.11021173
3	0xbc918356	-0.017762821
4	0x3db06652	0.08613266
5	0x3e515228	0.20441496
6	0xbe21c2f0	-0.15797019
7	0x3e0d0bb7	0.13774
8	0x3d59ad25	0.05314364
9	0xbe0939a7	-0.13400899
10	0x3cec4f85	0.028846512
11	0x3d62cfb2	0.055373855
12	0x3e087c71	0.1332872
13	0xbe424539	-0.18971719
14	0x3e1e26df	0.15444516
15	0x3e2bb201	0.16767122
16	0x3e49dece	0.197139
17	0xbd7dcc94	-0.06196268
18	0x3d4195f6	0.047262155
19	0xbe375800	-0.17904663
20	0xbe1267b8	-0.14297378
21	0x3c157b7c	0.009123679
22	0x3d129089	0.03578237
23	0x3d72458a	0.05914835
24	0x3d9343bf	0.07190656
25	0x3d8717cd	0.065963365
26	0x3e3440e3	0.17602877
27	0xbcfe275b	-0.031024626
28	0x3c8b8166	0.017029475
29	0x3e36dc88	0.17857563
30	0xbe00969d	-0.12557454
31	0xbc2d4e81	-0.010577799

block.1.weight f4 [32]
0	0x3f6e6946	0.93129385
1	0x3f69a75c	0.91270995
2	0x3f8a5d6b	1.0809759
3	0x3f428ab7	0.7599291
4	0x3f537379	0.8259807
5	0x3f9b640f	1.213991
6	0x3f72eb84	0.9489062
7	0x3fa3de43	1.2802204
8	0x3f82a1ee	1.0205667
9	0x3f72c6fb	0.9483487
10	0x3f9966b8	1.1984472
11	0x3f481a40	0.78165054
12	0x3f612b65	0.8795684
13	0x3f75ee4f	0.96066755
14	0x3f99833c	1.1993175
15	0x3f950917	1.1643399
16	0x3f76bd4b	0.9638259
17	0x3f531ec0	0.82468796
18	0x3fa3a5f8	1.2785025
19	0x3f8ae99f	1.0852545
20	0x3f7b2e35	0.9811738
21	0x3f5bfa33	0.8592865
22	0x3f74559a	0.9544312
23	0x3f602632	0.8755828
24	0x3f8fa45e	1.1222036
25	0x3f5237d4	0.82116437
26	0x3f4fbc4c	0.81146693
27	0x3f8fae62	1.1225092
28	0x3f93c20f	1.1543597
29	0x3f6cadcf	0.9245271
30	0x3f5e919c	0.8694093
31	0x3f659f43	0.8969614

block.1.bias f4 [32]
0	0xbe3e92aa	-0.18610635
1	0xbe067d91	-0.13133837
2	0xbdb3028c	-0.0874072
3	0xbe558eea	-0.20855299
4	0xbdb641b0	-0.08899248
5	0xbe1e155e	-0.15437838
6	0x3e0a9f86	0.13537416
7	0x3e723f94	0.23657066
8	0xba25682c	-0.00063097733
9	0xbdb1c95f	-0.086809866
10	0xbddb426f	-0.107060306
11	0xbe58b6a8	-0.21163428
12	0xbd0e5b74	-0.034755185
13	0xbd25170f	-0.040305194
14	0xbdd4f706	-0.103986785
15	0x3a129efa	0.00055931474
16	0xbdb6abba	-0.08919473
17	0xbda5cbe2	-0.08095528
18	0x3e9f381b	0.31097493
19	0x3d45b9a7	0.048272755
20	0x3c3bc85f	0.011461346
21	0xbe047ff5	-0.12939437
22	0xbdb15c7f	-0.0866022
23	0xbd54f392	-0.0519901
24	0x3dc8f50f	0.09812366
25	0xbe8baaac	-0.2727865
26	0xbdd55537	-0.10416644
27	0xbd07d56f	-0.03316253
28	0xbe1e9fc1	-0.15490629
29	0xbd0da050	-0.034576714
30	0xbd7301c8	-0.05932787
31	0xbdfa6d9d	-0.12227938

block.1.running_mean f4 [32]
0	0x3ead2600	0.33818054
1	0x3d50cbab	0.050975483
2	0x3db29259	0.0871932
3	0xbe066748	-0.13125336
4	0xbcfd86a5	-0.030947993
5	0x3e4b5dd0	0.19860005
6	0xbe28a9ab	-0.16470973
7	0x3df41e9a	0.11919899
8	0x3e10bb9f	0.14134072
9	0xbe03e7b2	-0.12881353
10	0x3cf4c4b7	0.029878957
11	0xbdbe9307	-0.09305387
12	0x3e12b986	0.14328584
13	0xbe29ad80	-0.16570091
14	0x3e14784a	0.14499012
15	0x3e319e62	0.17345574
16	0x3e6eee00	0.23332977
17	0xbe64f3d6	-0.22358641
18	0x3dfbd71b	0.122968875
19	0xbe2d90e6	-0.16949806
20	0xbbc0ef79	-0.0058879224
21	0xbd3b2331	-0.045687858
22	0x3d82737b	0.063696824
23	0xbd4ced60	-0.050031066
24	0x3d75acfc	0.059979424
25	0x3e11479e	0.14187476
26	0x3d815591	0.063151486
27	0xbce98f68	-0.028510764
28	0xbbeb72cf	-0.007185317
29	0x3e4b746e	0.19868633
30	0xbe1e2eef	-0.15447591
31	0xbe06e1d4	-0.13172084

block.1.running_var f4 [32]
0	0x3d87bb64	0.06627539
1	0x3e1df6fd	0.1542625
2	0x3bb8d2d0	0.005640365
3	0x3d7b8b74	0.06141229
4	0x3da4d2b2	0.080479994
5	0x3d3cb026	0.046066426
6	0x3cb9b27e	0.02266812
7	0x3cb9fc9b	0.02270346
8	0x3d4cfd0f	0.050046023
9	0x3d36a3d2	0.044589825
10	0x3d4a5de9	0.049405966
11	0x3dbf8fcd	0.093536
12	0x3d690373	0.056888055
13	0x3ca3af85	0.019981155
14	0x3c3c268e	0.0114838015
15	0x3d4322f8	0.04764077
16	0x3d29f01c	0.04148875
17	0x3d8f8793	0.070082806
18	0x3d53bb7f	0.051692482
19	0x3cff75f2	0.03118417
20	0x3da9e8b5	0.082963385
21	0x3dbc4a71	0.09193886
22	0x3dabb0bc	0.08383319
23	0x3d24e382	0.04025603
24	0x3d37daf3	0.04488654
25	0x3da7bc40	0.08190203
26	0x3e759cf2	0.23985651
27	0x3d276412	0.04086692
28	0x3bd1f578	0.006407436
29	0x3c6063ac	0.013695639
30	0x3c807037	0.015678508
31	0x3d2f3c1f	0.042781945

block.3.block.0.weight f4 [64, 32, 3, 3]
0	0xbd51f441	-0.05125833
1	0xbd266ca5	-0.040630955
2	0xbd79ffe6	-0.06103506
3	0xbb71eebd	-0.003691598
4	0xbcda1682	-0.02662206
5	0x3b72bd53	0.0037039116
6	0xbd05e5f1	-0.032689992
7	0xbd0f4f88	-0.034987956
8	0x3d1108c0	0.035408735
9	0x3c3a9ef5	0.011390437
10	0xbddbbf74	-0.10729876
11	0xbd09f394	-0.03367956
12	0xbba51940	-0.0050384104
13	0xbb874276	-0.004127796
14	0xbd8c065f	-0.06837153
15	0x3d2ca09b	0.042145353
16	0xbd5c63bf	-0.053806063
17	0xbd4c8e9d	-0.049940694
18	0x3daa4bc2	0.08315231
19	0x3d4b731d	0.049670327
20	0x3c10c16d	0.008835179
21	0x3df9ad32	0.121912375
22	0xbc8018b7	-0.015636785
23	0xbe6cca3a	-0.23124018
24	0x3dfb1231	0.12259329
25	0xbccc9fc6	-0.02497853
26	0xbe05aa9e	-0.13053367
27	0x3d9c6bfe	0.076377854
28	0x3c82dd59	0.015974687
29	0x3bb81e75	0.005618865
30	0xbd94705e	-0.07247995
31	0xbdce3147	-0.10067993
32	0xbd8d5e35	-0.06902734
33	0xbb1af390	-0.002364371
34	0xbd14ff5b	-0.03637634
35	0x3ca0e9cb	0.019642731
36	0xbcac0cb4	-0.021002151
37	0x3d509b6d	0.050929476
38	0x3d6c2eef	0.057661947
39	0x3c73d9ca	0.014883468
40	0x3c3755f5	0.011189927
41	0xbc0fc291	-0.008774416
42	0xbc0e9bd3	-0.008704144
43	0xbd5ae11f	-0.05343735
44	0xbd2e07ec	-0.042488024
45	0x3e0f0ce1	0.13969757
46	0x3daec09c	0.08532831
47	0x3a5dcd29	0.0008461052
48	0xbbe28758	-0.006913107
49	0xbc46dfd5	-0.012138327
50	0x3d36e0e8	0.04464808
51	0x3d7b0a60	0.06128919
52	0x3d91c937	0.07118457
53	0x3d521626	0.051290654
54	0xbcef5807	-0.02921678
55	0xbd9f7b8c	-0.077872366
56	0xbda423de	-0.080146536
57	0xbd5a7797	-0.053336706
58	0xbd1026b6	-0.035193168
59	0x3ce1b36a	0.027551372
60	0x3c833983	0.016018635
61	0x3d5f2909	0.054482494
62	0x3e12fd26	0.14354381
63	0x3c5877f5	0.013212194
64	0x3e1305cd	0.14357682
65	0x3e22e8a7	0.15909062
66	0xbd6c89c4	-0.05774857
67	0x3d6f8b68	0.058482558
68	0x3e0a2f80	0.13494682
69	0xbd8b6f5d	-0.0680835
70	0xbe5d2a2b	-0.21598117
71	0xbdbab57d	-0.091166474
72	0xbd995fdd	-0.074889876
73	0x3da91cfc	0.082574815
74	0x3dc06003	0.09393313
75	0xbdc06edc	-0.09396145
76	0xbcc39a95	-0.023877421
77	0x3ba731d1	0.005102374
78	0xbdd32011	-0.103088506
79	0xbba2d3ea	-0.00496911
80	0x3d6a5459	0.057209346
81	0x3c81b258	0.015832111
82	0x3d292bca	0.041301526
83	0x3cd6fb73	0.026242947
84	0xbc8b06be	-0.016970988
85	0xbd4f7740	-0.050650835
86	0xbdad671a	-0.08466931
87	0x3cb2795e	0.021786388
88	0x3d035e69	0.03207246
89	0x3ccca1d2	0.024979506
90	0xbc1eec43	-0.009699884
91	0xbc9c68f9	-0.019093024
92	0x3d494609	0.049139056
93	0x3da2f420	0.079567194
94	0xbc928859	-0.017887281
95	0x3c5f2166	0.013618803
96	0x3d843c07	0.06456762
97	0xbbd5ba67	-0.006522465
98	0xbc9b4372	-0.018953059
99	0xbc6fa98c	-0.0146278255
100	0x3c1af07d	0.009456751
101	0xbca09ac1	-0.019605042
102	0xbbc0645a	-0.005871338
103	0xbd5dd863	-0.05416144
104	0x3d260e7f	0.04054117
105	0x3d130374	0.035891965
106	0xbc92cd44	-0.017920144
107	0x3b41e02d	0.0029583082
108	0xbd08f8b4	-0.033440307
109	0x3c9a042e	0.018800821
110	0xbdbd6b3f	-0.09248971
111	0x3c9d6336	0.019212347
112	0xbcab7e8b	-0.020934364
113	0xbdf5ddc2	-0.120051876
114	0xbc253851	-0.010084228
115	0xbda4f34a	-0.08054216
116	0xbe4ba419	-0.19886817
117	0x3d8bf867	0.06834488
118	0x3d39350e	0.045216613
119	0xbc5ea4fd	-0.013589141
120	0xbd0c1e69	-0.03420869
121	0xbd21d7d3	-0.039512467
122	0xbd29b9f7	-0.041437116
123	0xbb417727	-0.0029520483
124	0xbd82118b	-0.06351002
125	0xbd8ab2c0	-0.06772375
126	0xbdb507fa	-0.08839412
127	0xbd59ee6f	-0.053205904
128	0xbdcabd51	-0.098993905
129	0xbd700887	-0.058601882
130	0x3d265933	0.04061241
131	0x3d765bf8	0.060146302
132	0xbc94a271	-0.018143864
133	0x3e0398a1	0.12851192
134	0x3de99aca	0.11406477
135	0x3d363134	0.044480518
136	0x3cdedc7d	0.027204746
137	0x3d886250	0.066593766
138	0xbb7fee8b	-0.0039052095
139	0xbd6b69fe	-0.05747413
140	0x3e0b0414	0.13575774
141	0x3d4e0cdc	0.050305232
142	0x3cbef9b6	0.02331243
143	0x3dd9948c	0.10624036
144	0x3e09f660	0.13472891
145	0x3e043ac2	0.1291304
146	0x3e0ef295	0.13959725
147	0xbd7f2044	-0.06228663
148	0xbd8b3a31	-0.067982085
149	0xbdd9a9d8	-0.10628098
150	0xbdb71574	-0.08939639
151	0xbe0ea633	-0.13930587
152	0xbda5df0c	-0.080991834
153	0x3cc1e8d1	0.023670586
154	0x3d8c61fe	0.06854628
155	0x3d82a382	0.06378843
156	0xbc0b51b4	-0.008503366
157	0xbdbceb9b	-0.09224626
158	0x3d1cbe8a	0.03826765
159	0xbc6b7652	-0.0143714715
160	0xbca064de	-0.019579347
161	0xbdba5892	-0.09098925
162	0xbdfc882b	-0.123306595
163	0xbe3bb210	-0.18329644
164	0xbe709bb1	-0.23496892
165	0xbd888edd	-0.06667874
166	0xbd919007	-0.07107549
167	0xbddd0d34	-0.10793534
168	0x3e1ce01c	0.15319866
169	0x3e7c102f	0.24615549
170	0x3e0af7ac	0.13571042
171	0x3df71d4d	0.120661356
172	0x3dc81f8e	0.097716436
173	0x3da63e16	0.08117311
174	0x3d3b1201	0.045671467
175	0x3d0ae026	0.03390517
176	0xbd35860a	-0.044317283
177	0xbcfee725	-0.031116078
178	0xbd7435b7	-0.05962154
179	0xbc41ddc5	-0.011832659
180	0x3daa2014	0.083069
181	0x3d2452df	0.040118095
182	0xbd133af3	-0.03594489
183	0x3cc3f240	0.023919225
184	0x3d41f653	0.047354054
185	0xbddab06b	-0.1067818
186	0x3d194c92	0.03742654
187	0x3ce3c329	0.02780302
188	0xbd013f2f	-0.031554397
189	0xbd2d2b00	-0.042277336
190	0xbb7d26e1	-0.003862791
191	0x3cc0d969	0.02354117
192	0xbc7abc29	-0.01530365
193	0x3d649d5c	0.055814132
194	0x3d856922	0.06514193
195	0x3cb23a2b	0.021756252
196	0x3c2fe3f7	0.010735503
197	0xbda41a83	-0.08012869
198	0xbd18fbee	-0.037349634
199	0x3d27b6d6	0.04094585
200	0x3e01faa7	0.12693273
201	0xbdd652a0	-0.10464978
202	0xbdce59ee	-0.100757465
203	0x3be4ff63	0.0069884523
204	0x3be06376	0.006847794
205	0x3c018866	0.007906055
206	0xbc81d64d	-0.015849257
207	0x3df353d2	0.11881222
208	0x3d6b759c	0.057485208
209	0x3db3381f	0.087509386
210	0x3bc8c4cb	0.006126975
211	0xbca9a926	-0.02071054
212	0xbd10e516	-0.035374723
213	0xbd470365	-0.04858722
214	0xbd73baa6	-0.059504174
215	0xbd9443d3	-0.07239499
216	0x3cc59cc3	0.024122601
217	0xbe00c02a	-0.12573305
218	0xbe05eecc	-0.13079375
219	0x3ca75c96	0.02042989
220	0x3bd1fc5e	0.0064082583
221	0xbd0b171d	-0.03395759
222	0x3c288ce8	0.010287501
223	0x3d9acb60	0.07558322
224	0xbaa4d4f8	-0.0012575677
225	0xbcc5729b	-0.0241025
226	0xbd55f2bf	-0.052233454
227	0xbd841578	-0.06449407
228	0xbc78ab9d	-0.015177635
229	0xbd82e6cd	-0.06391678
230	0xbce31795	-0.027721206
231	0xbd4705d3	-0.04858954
232	0x3d48961e	0.048971288
233	0xbd33b106	-0.043869995
234	0x3d2f2feb	0.042770308
235	0xbc3d7159	-0.011562669
236	0x3d7e2af4	0.062052682
237	0xbc95f255	-0.01830403
238	0x3caedfa9	0.021346884
239	0x3cfd30fa	0.030907143
240	0x3c9c238d	0.01905992
241	0xbc306417	-0.010766051
242	0xbd80b817	-0.06285112
243	0xbc834ce2	-0.016027872
244	0x3d700a86	0.058603786
245	0x3bfd1bd4	0.0077242646
246	0xbcc8a53f	-0.024492858
247	0x3d9b19ef	0.07573306
248	0x3d19af18	0.037520498
249	0x3d1d4058	0.03839144
250	0x3d5f8d2a	0.054577984
251	0xbb5ee931	-0.0034013505
252	0xbcdd4148	-0.027008668
253	0xbc0ed568	-0.008717872
254	0xbcb7acf8	-0.022421345
255	0xbd82d313	-0.063879155

block.3.block.0.bias f4 [64]
0	0x3cb76689	0.02238776
1	0x3be10690	0.0068672374
2	0xbcd4d65c	-0.02598112
3	0x3d182895	0.037148077
4	0xbcc2243f	-0.023698924
5	0x3d3f19a6	0.04665532
6	0xbd60fd96	-0.05492934
7	0xbd25af32	-0.040450282
8	0xbd7ebbcb	-0.062190812
9	0xbb6e466a	-0.0036357888
10	0x3ceeedcc	0.029166125
11	0xbbd15943	-0.0063888147
12	0xbc094de4	-0.008380387
13	0x3cb60b16	0.022222083
14	0x3c7f29be	0.015573917
15	0x3b8cbdc4	0.0042950828
16	0xbd5119de	-0.05105006
17	0x3bda5337	0.006662752
18	0xbc9ef6e9	-0.019404845
19	0xbcaa092e	-0.02075633
20	0x3bd4e5b0	0.0064971074
21	0x3d42c6a7	0.04755273
22	0xbc956373	-0.018235898
23	0xbd0fe6dd	-0.035132278
24	0xbc28af43	-0.010295692
25	0xbd3bbdeb	-0.045835417
26	0xbd228f4d	-0.039687444
27	0xbd595f38	-0.053069323
28	0xba813684	-0.0009858166
29	0xbc4b1fb5	-0.012397696
30	0x3d296eee	0.041365556
31	0xbd3018ea	-0.04299251
32	0xbd1d319d	-0.038377393
33	0xbaf49822	-0.0018661062
34	0xbd6e35b5	-0.058156688
35	0x3d07bc23	0.033138406
36	0x3d3921e6	0.045198344
37	0xbd04b773	-0.032401513
38	0x3cc260bd	0.023727769
39	0xbc98e3ff	-0.018663405
40	0x3d2ff29f	0.04295599
41	0xbcb8d8a0	-0.022564232
42	0xbd27c05a	-0.040954925
43	0x3d30bf8e	0.04315143
44	0xbbf9ba58	-0.007621091
45	0x3c8b2665	0.016986081
46	0xbd4b9955	-0.049706776
47	0xbd0b2f3e	-0.0339806
48	0xbc53c822	-0.012926133
49	0x3ca378da	0.019955087
50	0x3d114d8d	0.03547435
51	0x3d295997	0.041345205
52	0xbb10dcb0	-0.0022104196
53	0xb97741fb	-0.00023580335
54	0xbc73a2d6	-0.014870366
55	0x3d25e36f	0.0405001
56	0x3cca67b1	0.024707647
57	0xbc6b3cbc	-0.014357742
58	0x3d0bf4cb	0.034169
59	0xbd770e3c	-0.06031631
60	0x3ccb26f4	0.024798848
61	0xbd0969d1	-0.03354818
62	0x3d0ae777	0.03391215
63	0x3d220f96	0.039565645

block.3.block.1.weight f4 [64]
0	0x3f870d2d	1.0550896
1	0x3f5c924c	0.8616073
2	0x3fa8e73c	1.3195567
3	0x3f7bc003	0.9833986
4	0x3f4af957	0.7928671
5	0x3f85124c	1.0396209
6	0x3f6513bf	0.89483255
7	0x3f6ef56a	0.9334322
8	0x3f867555	1.0504557
9	0x3f7294d1	0.94758326
10	0x3f6395ad	0.8890026
11	0x3f6d8c38	0.9279208
12	0x3f544c87	0.8292927
13	0x3f716167	0.9428925
14	0x3f5c706d	0.8610905
15	0x3f5364c3	0.82575625
16	0x3f69e66b	0.91367215
17	0x3f858e82	1.0434115
18	0x3f619f5a	0.88133776
19	0x3f83699e	1.0266607
20	0x3f739b64	0.9515898
21	0x3f71158d	0.9417351
22	0x3f645e68	0.8920655
23	0x3f60aa85	0.8776019
24	0x3f81e4e1	1.0147973
25	0x3f8dd811	1.1081563
26	0x3f77a923	0.9674246
27	0x3f6d623f	0.92728037
28	0x3f8b82ba	1.089927
29	0x3f6b5cb7	0.91938347
30	0x3f882f06	1.063935
31	0x3f8efd32	1.1171019
32	0x3f5168aa	0.8180033
33	0x3f5a5103	0.85279864
34	0x3f6e6016	0.93115366
35	0x3f69ee5b	0.91379327
36	0x3f5b5c00	0.85687256
37	0x3f6d9f84	0.92821527
38	0x3f745b34	0.95451665
39	0x3f6e795b	0.93153924
40	0x3f702fa8	0.9382272
41	0x3f7233c8	0.9461026
42	0x3f691725	0.9105094
43	0x3f7033a2	0.93828785
44	0x3f729376	0.9475626
45	0x3f876e62	1.0580561
46	0x3f5c0ff0	0.8596182
47	0x3f6e1d68	0.9301362
48	0x3f6cca09	0.9249578
49	0x3f9ec736	1.2404544
50	0x3f4cf856	0.8006643
51	0x3f7949a0	0.9737797
52	0x3f6a0733	0.91417235
53	0x3f66a0cb	0.900891
54	0x3f6732ae	0.90311706
55	0x3f664872	0.8995429
56	0x3f64f46f	0.89435476
57	0x3f75fc03	0.96087664
58	0x3f86b274	1.052321
59	0x3f69dd27	0.91353077
60	0x3f7df085	0.9919513
61	0x3f8f4ef2	1.1195967
62	0x3f517062	0.8181211
63	0x3f93deeb	1.1552404

block.3.block.1.bias f4 [64]
0	0xbec1ffa3	-0.37890348
1	0xbea601d7	-0.3242328
2	0xbdd0be7a	-0.101925805
3	0xbedcd491	-0.43130925
4	0xbee60811	-0.4492803
5	0xbe9b31a7	-0.3031132
6	0xbeacd3ad	-0.33755246
7	0xbe8045fe	-0.250534
8	0xbeb569fc	-0.35432422
9	0xbe74d174	-0.23908025
10	0xbec2a2ed	-0.38014928
11	0xbe8a6e6c	-0.2703737
12	0xbe4c0743	-0.19924645
13	0xbeafc8c9	-0.34332874
14	0xbe554fbc	-0.20831198
15	0xbea2758a	-0.317303
16	0xbe9db0da	-0.3079899
17	0xbe814a48	-0.25251985
18	0xbe66f04a	-0.225526
19	0xbf11346e	-0.56720626
20	0xbe70abce	-0.23503038
21	0xbec5788d	-0.38568535
22	0xbe8249c3	-0.254469
23	0xbe84d317	-0.259423
24	0xbebf43d8	-0.37356448
25	0xbebe2c45	-0.3714315
26	0xbe01002b	-0.1259772
27	0xbea48af7	-0.32137272
28	0xbeb56c91	-0.35434392
29	0xbe19c860	-0.15017843
30	0xbea3fb7f	-0.32027814
31	0xbe8e1b71	-0.2775531
32	0xbeaa82aa	-0.33302814
33	0xbe6fe6b3	-0.23427849
34	0xbe9e8dbf	-0.3096752
35	0xbed5f84d	-0.41791
36	0xbea0b11a	-0.31385118
37	0xbe6278b6	-0.2211636
38	0xbedce5ba	-0.43144017
39	0xbe8b2d4a	-0.2718299
40	0xbee25f36	-0.44213265
41	0xbe5db6b9	-0.21651734
42	0xbe5bb0af	-0.21454118
43	0xbeb57d10	-0.35446978
44	0xbe8f8a09	-0.28035
45	0xbe2c1fff	-0.1680908
46	0xbed47073	-0.41492042
47	0xbe5398c1	-0.2066374
48	0xbe9ff3bd	-0.31240645
49	0xbd1b1798	-0.037864298
50	0xbe9515bb	-0.29118142
51	0xbf15839c	-0.58403945
52	0xbe764829	-0.24050964
53	0xbe94b9a5	-0.29047886
54	0xbe9db2b1	-0.30800393
55	0xbe908642	-0.2822743
56	0xbe5c942e	-0.21540901
57	0xbe7ab4b2	-0.24482992
58	0xbeae7f2d	-0.34081402
59	0xbe9fb76e	-0.31194633
60	0xbf04d749	-0.51891
61	0xbdefa05f	-0.1170051
62	0xbeaaf119	-0.33387068
63	0xbee77640	-0.45207405

block.3.block.1.running_mean f4 [64]
0	0xbe9e6407	-0.3093569
1	0xc022a98a	-2.5415978
2	0x3e2aa61b	0.16664927
3	0xbfd16692	-1.6359427
4	0x3ea4ee2a	0.32212955
5	0xbec54f19	-0.3853691
6	0xbeb2b90a	-0.349068
7	0xbf4b27bb	-0.793575
8	0xbf8f9b1d	-1.1219212
9	0xc01ca8a4	-2.447793
10	0xbd842e5b	-0.06454154
11	0xbee08e5a	-0.43858606
12	0xbf5a51f2	-0.8528129
13	0xc06f68f0	-3.7407799
14	0xc002cd44	-2.0437784
15	0xbf25fba4	-0.648371
16	0xbf747f4b	-0.95506734
17	0xbf8698f8	-1.0515432
18	0x3f987119	1.1909515
19	0xbf7a39a6	-0.97744215
20	0xbf5b9744	-0.8577769
21	0xbcfa2394	-0.030534543
22	0xbf842b86	-1.0325782
23	0xbf70b752	-0.94029725
24	0xbe2e4358	-0.17017877
25	0xbf1bc247	-0.6084332
26	0xbf40ace8	-0.75263834
27	0xbfa17546	-1.2613914
28	0xbecc2bcf	-0.39877173
29	0xc041d02f	-3.0283315
30	0x3dec13bb	0.11527201
31	0xbfdad0ca	-1.7094967
32	0x3e525328	0.20539534
33	0xbfe5ef58	-1.7963667
34	0xbfb635dc	-1.4235187
35	0x3efe7bd2	0.49703842
36	0xbed8ce60	-0.42344952
37	0xc0093c14	-2.1442919
38	0xbedbae70	-0.42906523
39	0xbfc3c36b	-1.5294012
40	0xbf07b49c	-0.53009963
41	0xbfec8533	-1.8478149
42	0xc020e73b	-2.5141132
43	0x3ece6959	0.4031475
44	0xbf480657	-0.78134674
45	0xbf921a03	-1.1414188
46	0x3e007d5a	0.12547818
47	0xc0287987	-2.6324174
48	0xbee44078	-0.44580436
49	0xbf899031	-1.0747129
50	0xbf8d24d2	-1.1026862
51	0xbd19503b	-0.03743003
52	0xc06dcb16	-3.7155204
53	0xbf8a2594	-1.0792718
54	0xc009c87e	-2.152862
55	0xc002e869	-2.0454352
56	0xbfe7493d	-1.8069226
57	0xc03b4528	-2.926096
58	0xbf2e34a4	-0.68049073
59	0x40469bad	3.1032517
60	0xbf3880a5	-0.72071296
61	0x3ddf4194	0.1090118
62	0xc01ec06c	-2.4804945
63	0xbe8f4a5b	-0.27986416

block.3.block.1.running_var f4 [64]
0	0x3f36912c	0.71315265
1	0x4091ea55	4.559855
2	0x40a281df	5.0783534
3	0x3febe915	1.8430506
4	0x40040f5d	2.0634377
5	0x3f046eec	0.51731753
6	0x3face232	1.3506529
7	0x3fcd96a8	1.6061602
8	0x400585a6	2.0862823
9	0x40170205	2.3594983
10	0x3fa5afba	1.2944252
11	0x3ffc55b8	1.9713659
12	0x3fb7b46e	1.4351938
13	0x40a12320	5.0355377
14	0x3fedf41b	1.859012
15	0x3f9732d4	1.1812387
16	0x3f98ecd5	1.1947275
17	0x40280517	2.6253107
18	0x3fb0bff8	1.3808584
19	0x402a72f1	2.6632655
20	0x3f972728	1.1808825
21	0x3f74824d	0.95511323
22	0x3fbc39c8	1.4705133
23	0x3ffa2cb1	1.9544889
24	0x3f63175d	0.88707525
25	0x3f44f6d6	0.7693914
26	0x3fe9aabf	1.8255233
27	0x3fafd445	1.3736655
28	0x404a7cf9	3.1638777
29	0x4038006f	2.8750265
30	0x3f62468c	0.88388896
31	0x401891d2	2.3839002
32	0x3f44bcb6	0.7685045
33	0x4043dfcf	3.0605352
34	0x40590442	3.3908849
35	0x3f167e6e	0.58786666
36	0x3f69f91b	0.9139573
37	0x3ffb79d3	1.9646553
38	0x3fccd1f0	1.6001568
39	0x402071b3	2.5069396
40	0x3ffe398c	1.9861312
41	0x40330e0c	2.7977324
42	0x40fb07f5	7.8447213
43	0x3f5b5bd9	0.85687023
44	0x400af8e4	2.171441
45	0x3fd3b72b	1.6540273
46	0x3f102247	0.56302303
47	0x40430569	3.0472052
48	0x403b21ad	2.9239304
49	0x411eb2fe	9.918699
50	0x4009379c	2.1440191
51	0x3f2d634e	0.6772965
52	0x40ac320c	5.381109
53	0x3f9ef3c3	1.241814
54	0x40a33f95	5.1015115
55	0x3ffaff7d	1.9609219
56	0x402c5624	2.6927576
57	0x40574a9e	3.3639293
58	0x3fe10f67	1.7582825
59	0x3ff79775	1.9343096
60	0x3ff6bae4	1.9275784
61	0x40beb4f8	5.959591
62	0x40264332	2.5978513
63	0x4019edbc	2.4051352

block.3.block.3.weight f4 [64, 64, 3, 3]
0	0x3dc56970	0.09639251
1	0x3d561363	0.052264582
2	0x3d413598	0.04717025
3	0x3df4d7bd	0.11955211
4	0x3d5f8176	0.054566823
5	0x3c94c34c	0.018159531
6	0x3dae24d0	0.08503115
7	0x3da655a5	0.08121804
8	0x3de66870	0.112503886
9	0xbd241a08	-0.040063888
10	0xbd97280d	-0.07380686
11	0xbce440ea	-0.027862985
12	0xbbd1c0b9	-0.006401148
13	0xbd72dc46	-0.0592921
14	0xbb1a04d7	-0.002350142
15	0xbc533bc3	-0.012892666
16	0xbca6daca	-0.020367999
17	0x3d358721	0.044318322
18	0xbd346474	-0.044041112
19	0xbcce6ca4	-0.025198288
20	0x3b6bf13b	0.003600194
21	0xbcd48ebb	-0.025946965
22	0xbd48078e	-0.04883533
23	0xbaa069af	-0.0012238527
24	0x3aef6040	0.0018262938
25	0xbd09ed43	-0.033673536
26	0xbccf2cc7	-0.025289906
27	0xbd3af904	-0.045647636
28	0xbd403127	-0.046921875
29	0x3cc98e81	0.024604084
30	0xbd08ec24	-0.033428326
31	0x3caa5d92	0.02079657
32	0xb9dde352	-0.00042321772
33	0x3ce8946b	0.028391084
34	0x3c804d76	0.015661936
35	0xbd4f4ab5	-0.050608356
36	0x3ce83719	0.028346585
37	0xbcd878f9	-0.026424872
38	0xbd046c65	-0.032329936
39	0x3c76305d	0.015026179
40	0xbc47ed8d	-0.012202633
41	0xbd0f52ce	-0.034991078
42	0xbc080b67	-0.0083035
43	0xbd0a8de7	-0.033826735
44	0x3c8de456	0.017320793
45	0xbce85dc5	-0.028365025
46	0xbd17bd60	-0.037045836
47	0xbcfc3480	-0.030786753
48	0xbdc138c0	-0.09434652
49	0xbd938747	-0.072035365
50	0x3c10491e	0.008806495
51	0xbd24be5d	-0.040220607
52	0xbd1fafe2	-0.038986094
53	0x3abd6aa6	0.0014451339
54	0x3cd9dd84	0.026594885
55	0xbcc1271a	-0.023578215
56	0xbd869975	-0.06572238
57	0xbc8a2c1d	-0.016866738
58	0xbc88ce92	-0.016700063
59	0xbd942bf6	-0.072349474
60	0xbd6bd31c	-0.057574376
61	0xbd9e8404	-0.07740024
62	0xbdf0ef99	-0.117644496
63	0xbcbea481	-0.023271801
64	0x3c26fbee	0.010191901
65	0xbc3d056c	-0.011536937
66	0xbb088bf4	-0.0020835372
67	0xbd2154de	-0.039387576
68	0x3c828f84	0.015937574
69	0xbb893efd	-0.004188417
70	0xbc473813	-0.012159365
71	0x3d4232bf	0.047411676
72	0xbdbea7d9	-0.09309358
73	0xbd63a9aa	-0.055581726
74	0xbdb486c5	-0.08814768
75	0xbd95ce55	-0.07314745
76	0xbd856f6a	-0.06515391
77	0xbd8d751b	-0.06907102
78	0xbd391373	-0.045184564
79	0xbd33aa55	-0.043863613
80	0xbda7d829	-0.08195526
81	0xbd482488	-0.048862964
82	0x3cc51073	0.024055695
83	0xbcaea661	-0.02131957
84	0xbd307cd0	-0.04308778
85	0xbd2955a4	-0.04134144
86	0xbcb342d7	-0.021882458
87	0xbd07d0dc	-0.03315817
88	0xbd2f34c1	-0.04277492
89	0xbc4b2fa9	-0.0124015
90	0x3c64b326	0.013958728
91	0xbd166153	-0.03671391
92	0xbb91975b	-0.004443092
93	0x3cac84b7	0.021059377
94	0xbbf51162	-0.007478879
95	0x3c872538	0.01649724
96	0x3cbf5e12	0.023360286
97	0x3c0c66d6	0.00856944
98	0xbca99d9f	-0.020705042
99	0x3ac98e33	0.0015377462
100	0x3c747c8c	0.014922272
101	0x3d4fa732	0.05069656
102	0x3c17c8b7	0.009264163
103	0xbcfa6a0b	-0.030568143
104	0x3db02899	0.086014934
105	0xbc742446	-0.014901226
106	0x3cbe4ed8	0.023230955
107	0x3d8a06a3	0.06739547
108	0x3d14e15b	0.03634773
109	0xbd12349b	-0.0356947
110	0xbdc9c5b6	-0.098521635
111	0x3c31ccd4	0.0108520575
112	0x3c60bbba	0.0137166325
113	0xbd7c9e12	-0.061674185
114	0x3afc7067	0.0019259573
115	0xbd697f26	-0.057006024
116	0xbc0d3275	-0.008617987
117	0xbd63213b	-0.055451613
118	0xbd85ec77	-0.06539243
119	0xbd0a9f65	-0.033843417
120	0xbd6bd699	-0.057577703
121	0xbda29291	-0.079381116
122	0xbd81bf36	-0.06335299
123	0xbd2e7bc2	-0.042598493
124	0xbd262ac3	-0.040568125
125	0xbd79c8fd	-0.060982693
126	0xbd2ce5bc	-0.04221128
127	0xbcdf7328	-0.02727659
128	0xbcd0fcf1	-0.025511237
129	0xbca138df	-0.019680439
130	0x3ba32cc6	0.0049797026
131	0xbd2973eb	-0.041370314
132	0x3c871aab	0.016492208
133	0xbc155272	-0.009113895
134	0xbd37ba8c	-0.04485564
135	0xbb9b017b	-0.004730401
136	0x3cd0c5f2	0.025485013
137	0xbcaeee4e	-0.021353867
138	0x3c354fbc	0.011066373
139	0xbd5be2e3	-0.053683173
140	0x3bb67e31	0.0055692424
141	0x3d27adeb	0.040937345
142	0xbb37d375	-0.0028049622
143	0x3d3de1c3	0.04635788
144	0xbd7a0d50	-0.061047852
145	0xbd4a83a5	-0.049441952
146	0xbd3e94e9	-0.04652873
147	0xbd2df0aa	-0.042465843
148	0xbd73f5f3	-0.059560727
149	0xbd2b654e	-0.04184466
150	0xbcb7290d	-0.022358442
151	0xbd9f37f4	-0.07774344
152	0xbd8ce2bf	-0.06879186
153	0x3b868e84	0.0041063447
154	0xbda6272d	-0.08112941
155	0xbc3a871d	-0.011384753
156	0xbd0a15d9	-0.03371224
157	0xbdb05878	-0.08610624
158	0xbcbad96d	-0.022808755
159	0x3c57a78c	0.013162505
160	0xbc686695	-0.014184614
161	0xbc69b226	-0.014263665
162	0xbc4e2db0	-0.012584135
163	0xbd84f04b	-0.06491145
164	0xbd9946ee	-0.07484232
165	0xbce7b1db	-0.02828305
166	0xbd0a81c4	-0.03381516
167	0xbdb9a565	-0.0906475
168	0xbd02811f	-0.03186142
169	0xbd60549e	-0.054768197
170	0xbd496c5a	-0.049175598
171	0x3dcb86e5	0.099378385
172	0x3d541420	0.051777005
173	0x3e114ba4	0.14189011
174	0x3e0a20df	0.13489102
175	0x3dcd36b5	0.100202
176	0x3ddb31ac	0.107028335
177	0x3e14636b	0.1449105
178	0x3cdb06c0	0.026736617
179	0x3dfe5e94	0.12420383
180	0x3d1ab062	0.037765868
181	0x3cb30a16	0.021855395
182	0x3d099297	0.033587065
183	0x3cd27696	0.025691312
184	0xbce093cb	-0.027414223
185	0x3c8976d0	0.016780287
186	0x3cc506d0	0.0240511
187	0x39c6529e	0.00037827058
188	0xbd22095c	-0.039559707
189	0xbd77a247	-0.060457494
190	0xbd8a85a1	-0.06763769
191	0xbd89a535	-0.06720964
192	0xbce174f1	-0.027521582
193	0xbd4ef528	-0.050526768
194	0xbcfe1561	-0.031016054
195	0xbc84e6ff	-0.016223429
196	0xbd600f45	-0.054702062
197	0xbd0f1813	-0.03493507
198	0xbcbe7a07	-0.023251547
199	0xbd17deec	-0.03707783
200	0x3ca9b0d4	0.020714201
201	0xbce3edad	-0.027823294
202	0x3abd968e	0.0014464424
203	0xbd0e0e9d	-0.034681905
204	0xbc5cbee2	-0.013473244
205	0xbd1d4aca	-0.038401403
206	0xb7c96e0d	-2.4012314e-05
207	0x3d6179fd	0.055047978
208	0x3cf82fa6	0.030296158
209	0x3dd61c47	0.10454612
210	0x3d978883	0.073990844
211	0x3d1bdf6b	0.038054865
212	0x3d759285	0.059954185
213	0x3c814705	0.015780935
214	0x3c77b619	0.015119099
215	0x3dbd3a09	0.09239585
216	0x3bd5a0e8	0.0065194257
217	0xbc95738c	-0.018243574
218	0x3cd5140f	0.026010541
219	0xbd044878	-0.032295674
220	0xbbe872a2	-0.0070937434
221	0xbcaa55bd	-0.020792836
222	0x3ba8c45f	0.0051503624
223	0x3c24bc0c	0.0100545995
224	0x3c07fd40	0.008300126
225	0x3ca34ed1	0.019935044
226	0xbdaaabb4	-0.08333531
227	0xbd9e5f3b	-0.077330075
228	0x3d14ece8	0.036358744
229	0x3cb18416	0.021669429
230	0x3d09eab3	0.033671092
231	0xbc954f3e	-0.018226262
232	0x3c59cf77	0.013294092
233	0xbb786a90	-0.0037905313
234	0xbcf2113e	-0.029549237
235	0xbd5e876e	-0.054328375
236	0xbc9ace7d	-0.01889729
237	0x3c953a6e	0.018216338
238	0xbca18de7	-0.019720985
239	0x3aea6226	0.0017882034
240	0x3ce1a1a0	0.02754289
241	0x3c304f6b	0.010761122
242	0x3c8961c0	0.016770244
243	0x3d392200	0.04519844
244	0x3d881119	0.06643886
245	0x3dd92271	0.10602272
246	0x3da2cf27	0.079496674
247	0x3dcc17d5	0.09965483
248	0x3dcd45b4	0.100230604
249	0x3d7d39ae	0.061822586
250	0x3de21cb1	0.11040629
251	0x3d92ec51	0.0717398
252	0x3dea8003	0.114501975
253	0x3de91f76	0.11382954
254	0x3de117b6	0.109908506
255	0x3d9ee785	0.077590026

block.3.block.3.bias f4 [64]
0	0x3cac5b8d	0.021039749
1	0xbc7a59cc	-0.015280198
2	0xbd0f5aca	-0.034998693
3	0x3ccf0a00	0.025273323
4	0x3d45406b	0.048157137
5	0xbcb5e27d	-0.022202725
6	0xbb41283c	-0.0029473444
7	0x3c8a772c	0.016902529
8	0xba9a1522	-0.0011755566
9	0xbd09d288	-0.033648044
10	0x3a55f6af	0.0008162064
11	0x3c80b6cd	0.015712166
12	0x3c8f3a1e	0.017483767
13	0x3ca98d9f	0.020697413
14	0xbc98cd5f	-0.018652616
15	0x3cf1bb74	0.02950833
16	0x3c008af2	0.007845627
17	0x3c3f57a0	0.011678606
18	0x3c80e74b	0.01573529
19	0xbce3de36	-0.02781592
20	0x3d29123f	0.041277166
21	0xbb820d5b	-0.0039688773
22	0xbc52d815	-0.012868901
23	0x3d19d7cb	0.03755931
24	0xbd34f4ff	-0.04417896
25	0xbc12a7ae	-0.008951111
26	0x3c21874d	0.009858918
27	0x3cbc2cf2	0.02297065
28	0xbc8819a5	-0.01661379
29	0xbd6b14ae	-0.05739277
30	0xbcbd2c18	-0.023092315
31	0xbcb739d1	-0.022366436
32	0xbc610bc2	-0.013735713
33	0xb9d89704	-0.00041311246
34	0x3c649ac4	0.013952915
35	0xbcdeb842	-0.02718747
36	0xbced68bd	-0.028980607
37	0xbd1fef8c	-0.03904681
38	0xbca855b9	-0.020548688
39	0x3cfe640e	0.03105357
40	0x3cfa73c6	0.030572783
41	0xbccbf0a2	-0.024895016
42	0x3d23e321	0.04001153
43	0x3c714bf0	0.014727578
44	0x3d25710d	0.040391017
45	0xbc07f32a	-0.008297721
46	0xbd0cb6af	-0.03435391
47	0x3bf074a2	0.0073381225
48	0x3c46cf92	0.01213445
49	0x3b1db274	0.0024062665
50	0xbcd10641	-0.025515677
51	0x3c302d16	0.010752937
52	0x39c2400c	0.00037050282
53	0xbd00a726	-0.031409405
54	0xbd43c689	-0.04779676
55	0x3c9466bd	0.018115396
56	0x3c4f8c29	0.012667694
57	0x3c071077	0.008243672
58	0xbcf3c7e1	-0.029758396
59	0xbc440232	-0.011963414
60	0x3c23dfae	0.01000206
61	0x3cec7c47	0.028867854
62	0x3ce7326c	0.028222285
63	0x3c506f9c	0.012721922

block.3.block.4.weight f4 [64]
0	0x3fbe63a5	1.4874159
1	0x3faca9d1	1.3489324
2	0x3fae32ed	1.3609291
3	0x3f9f2d5f	1.2435721
4	0x3fa73973	1.3064407
5	0x3fae27c5	1.3605887
6	0x3fb4e4b1	1.4132291
7	0x3fb55d88	1.4169168
8	0x3fb701db	1.4297441
9	0x3fb6de71	1.4286634
10	0x3fb2a156	1.3955486
11	0x3fb0e730	1.3820553
12	0x3fb11608	1.3834848
13	0x3fb3acb5	1.4037081
14	0x3fbc3760	1.4704399
15	0x3fb18398	1.3868284
16	0x3fa5afbc	1.2944255
17	0x3f9ffd85	1.2499243
18	0x3fb2bc67	1.3963746
19	0x3fa49664	1.2858396
20	0x3fb4f155	1.4136149
21	0x3fb573b9	1.4175941
22	0x3fabdca0	1.3426704
23	0x3fa4ebf7	1.2884511
24	0x3fba7f57	1.4570111
25	0x3fada66e	1.3566415
26	0x3fa97837	1.3239812
27	0x3fb67c3d	1.4256665
28	0x3fb33188	1.3999491
29	0x3fb0c9db	1.3811601
30	0x3fab2f8c	1.3373885
31	0x3fb0b626	1.3805587
32	0x3fb5752c	1.4176383
33	0x3fa52dd6	1.2904613
34	0x3fa86cc7	1.3158196
35	0x3fb424f2	1.4073775
36	0x3fae7d6c	1.3632026
37	0x3fbc9a10	1.4734516
38	0x3fca4f51	1.5805455
39	0x3fbe6fd5	1.4877878
40	0x3fae45a6	1.3615005
41	0x3fad24cb	1.3526853
42	0x3fb2ec81	1.3978425
43	0x3fbfad4f	1.4974765
44	0x3fadb18d	1.3569809
45	0x3fa98273	1.3242935
46	0x3fa6cf9a	1.3032105
47	0x3fa9d3f0	1.3267803
48	0x3fa677c0	1.3005295
49	0x3fbf9147	1.496621
50	0x3fb8ea5b	1.444652
51	0x3fa99284	1.3247838
52	0x3faea281	1.3643342
53	0x3fa543e2	1.2911341
54	0x3fa1b694	1.2633843
55	0x3faa06e2	1.328335
56	0x3fb889ce	1.4417055
57	0x3fb20314	1.3907189
58	0x3fae1c54	1.3602395
59	0x3fa70347	1.3047875
60	0x3fa42204	1.2822881
61	0x3fc3493c	1.5256724
62	0x3fae2cc0	1.3607407
63	0x3fb5ccfa	1.4203179

block.3.block.4.bias f4 [64]
0	0x3e183f1d	0.14867826
1	0x3d9e1fc5	0.07720903
2	0x3dd7dd8e	0.10540305
3	0x3e102313	0.1407588
4	0x3de5bbea	0.112174824
5	0x3d424078	0.047424763
6	0xbc51cb6a	-0.012804845
7	0x3dfc9594	0.12333217
8	0x3e2df3a0	0.16987467
9	0x3ded36e2	0.11582734
10	0x3ddc0c46	0.107445285
11	0x3d5cf9de	0.05394923
12	0x3d854582	0.06507398
13	0x3d8bf20f	0.068332784
14	0x3cf5feca	0.03002872
15	0x3d87fab4	0.06639615
16	0x3cc7d1cd	0.024392033
17	0x3d3ee66e	0.046606474
18	0xbc8438fb	-0.016140452
19	0x3da5c958	0.08095044
20	0x3df3dc20	0.1190722
21	0x3e2c59aa	0.16831079
22	0x3db0bcc9	0.08629758
23	0x3e02ebd1	0.1278527
24	0x3da55735	0.08073274
25	0x3d7c998d	0.061669875
26	0x3d7db643	0.061941396
27	0x3d71abf1	0.059001867
28	0x3dd724a5	0.10505036
29	0x3da748db	0.08168193
30	0x3de108cb	0.10988005
31	0x3df50ee0	0.11965728
32	0x3d278b0f	0.0409041
33	0x3ce88f2e	0.028388586
34	0x3df748b7	0.12074416
35	0x3d148343	0.036257993
36	0x3dc43590	0.09580529
37	0x3cdcfe8d	0.026976848
38	0x3cf07a34	0.029355146
39	0x3d9b0686	0.075696036
40	0xbd032f6a	-0.03202764
41	0x3ce5820f	0.028016118
42	0x3c7495ad	0.014928264
43	0x3e169f5f	0.14709233
44	0x3d546213	0.051851343
45	0x3c695396	0.01424112
46	0x3dab5ddf	0.08367514
47	0x3d00d433	0.03145237
48	0x3d85bff4	0.06530753
49	0x3d91c9da	0.07118578
50	0x3db75d6f	0.08953368
51	0xbd97cbf0	-0.07411945
52	0x3df9f7c5	0.122054614
53	0x3e10f61d	0.14156385
54	0x3d80fc43	0.06298115
55	0x3da15560	0.07877612
56	0x3bc220a2	0.0059243003
57	0x3db9cc74	0.090721995
58	0x3caa6692	0.020800862
59	0x3db4a1dc	0.08819935
60	0x3cc19863	0.023632234
61	0x3de3606e	0.11102377
62	0x3d6840f4	0.05670257
63	0x3d80b5d3	0.0628468

block.3.block.4.running_mean f4 [64]
0	0xbf07167c	-0.52768683
1	0xbe784c27	-0.242478
2	0x3ef82a7d	0.48469916
3	0xbf9e0d4c	-1.2347808
4	0x3f1bfb91	0.60930735
5	0xbdf8d5c1	-0.12150145
6	0x3eecc583	0.4624444
7	0xbed85dc8	-0.4225905
8	0xbf0a87a5	-0.5411323
9	0x3cccca13	0.0249987
10	0xbf31c5e7	-0.694426
11	0x3f3a4f8c	0.7277763
12	0x3c24a3ef	0.01004885
13	0xbd288df3	-0.041151
14	0x3e08225a	0.13294354
15	0xbe0b7500	-0.1361885
16	0x3f3ed5e8	0.74545145
17	0x3f6d6b33	0.927417
18	0xbdf4d64b	-0.11954936
19	0x3e9788a1	0.29596427
20	0x3d182618	0.037145704
21	0xbefe157b	-0.49625763
22	0xbee124ab	-0.43973288
23	0xbe2bdece	-0.16784212
24	0x3e87af7f	0.2650108
25	0xbe2e4d11	-0.17021586
26	0x3e3f42a1	0.1867776
27	0xbe74e724	-0.23916298
28	0x3e7a6277	0.24451624
29	0x3e4cfec9	0.20019068
30	0x3f37c78a	0.7178885
31	0xbe6c7fe0	-0.23095655
32	0x3d330ca4	0.043713227
33	0x3f22b7d4	0.6356175
34	0xbd8de953	-0.06929269
35	0xbde4962b	-0.11161455
36	0x3b9da21d	0.004810585
37	0x3e302643	0.17202096
38	0x3e108172	0.1411188
39	0xbec2ebf9	-0.38070658
40	0x3f7a28ae	0.9771832
41	0x3d9c58d4	0.0763413
42	0x3f6359f7	0.8880915
43	0x3ed07547	0.40714476
44	0xbe93fcdb	-0.2890385
45	0xbeaf45fc	-0.3423308
46	0x3e7685c9	0.24074472
47	0xbefcce16	-0.4937598
48	0xbefeaa91	-0.49739507
49	0x3fb2676b	1.3937811
50	0xbb93af55	-0.004506985
51	0x3ed3f3d7	0.41396973
52	0xbeccd7ac	-0.40008295
53	0x3f2fca20	0.68667793
54	0xbf01f2dc	-0.507612
55	0x3ec3b50d	0.38224068
56	0x3e40a560	0.18813086
57	0x3deee94f	0.11665594
58	0x3f2aa2c8	0.66654634
59	0xbf25b9ea	-0.6473681
60	0x3f8eaa61	1.1145746
61	0xbe3b4097	-0.18286358
62	0xbecccd99	-0.4000061
63	0x3fb5df71	1.4208814

block.3.block.4.running_var f4 [64]
0	0x4006560a	2.0990014
1	0x3f4fd709	0.8118749
2	0x3fcddf9e	1.6083868
3	0x3fed1e14	1.8524804
4	0x3f3801b7	0.71877617
5	0x3f8e19c3	1.1101612
6	0x3fb0cba1	1.3812143
7	0x3fe2d4b4	1.7721162
8	0x3fd6ffbb	1.6796793
9	0x3f734f36	0.9504274
10	0x3f8695ab	1.0514425
11	0x3f9dc008	1.2324228
12	0x3f767a76	0.9628061
13	0x3fa1bea4	1.2636304
14	0x3fa520f6	1.2900684
15	0x40193ebb	2.3944538
16	0x3f8e707f	1.1128081
17	0x3f995af1	1.1980878
18	0x3f4e28bc	0.80530906
19	0x3f840d55	1.0316569
20	0x3f8dc53c	1.1075816
21	0x3fbffe75	1.4999529
22	0x3fb74189	1.4316875
23	0x3f66016f	0.8984594
24	0x3f95899b	1.1682619
25	0x3f92461e	1.1427648
26	0x3f1e8cac	0.619334
27	0x3f9045b7	1.1271275
28	0x3fb60592	1.422045
29	0x3f852fd1	1.0405217
30	0x3ff08d18	1.8793058
31	0x3ffc5e6b	1.9716314
32	0x3f7bdc38	0.983829
33	0x3fbbf38d	1.4683701
34	0x3f8d4a0a	1.103822
35	0x3fb97bbb	1.4490885
36	0x3f986c2a	1.1908009
37	0x3f9b9abd	1.2156597
38	0x3fdf89d3	1.7463936
39	0x3fdcd1b8	1.7251501
40	0x3f844407	1.033326
41	0x3f8b8b95	1.0901972
42	0x3f52ce6f	0.8234624
43	0x40285d3f	2.6306913
44	0x3f597663	0.8494627
45	0x3f9a1a1e	1.203922
46	0x40073bce	2.1130252
47	0x3fafce48	1.3734827
48	0x3f95c199	1.1699706
49	0x4009a375	2.1506016
50	0x3fc12e78	1.5092306
51	0x3f6adeb6	0.9174608
52	0x3ff08d90	1.8793201
53	0x401afec8	2.4218006
54	0x3f9d01a6	1.2266128
55	0x3fba75de	1.456722
56	0x3fc4788f	1.5349292
57	0x3fc8bb1a	1.5682099
58	0x3fe20bdb	1.7659868
59	0x3f27d2d3	0.6555607
60	0x3fe410a8	1.7817583
61	0x3fca7430	1.5816708
62	0x3f968aea	1.1761143
63	0x3ff856a3	1.940144

block.3.skip_conv.weight f4 [64, 32, 1, 1]
0	0x3daa649e	0.083199725
1	0xbc89e500	-0.016832829
2	0xbda3f42a	-0.08005555
3	0x3e062a0a	0.13101974
4	0x3e418933	0.18899994
5	0x3b9f8f1f	0.0048693563
6	0x3e062aa4	0.13102204
7	0x3dc76c87	0.09737497
8	0xbdd90d6c	-0.10598263
9	0xbe4fbaf8	-0.20286167
10	0xbe57fddc	-0.21092933
11	0x3e24a077	0.16076837
12	0xbe3dc7c4	-0.18533236
13	0xbdbcbc93	-0.09215655
14	0x3d833a05	0.06407551
15	0xbe82dea8	-0.25560498
16	0x3e34ce31	0.17656781
17	0xbd4ae586	-0.049535297
18	0xbe49afdb	-0.1969599
19	0xbd95d203	-0.07315447
20	0x3e2d2413	0.16908292
21	0xbd198a5a	-0.037485458
22	0x3da9005b	0.08252021
23	0xbe055fa6	-0.13024768
24	0xbe74b625	-0.23897608
25	0xbbdb71bb	-0.0066969073
26	0x3de03bb8	0.109488904
27	0x3c031ae4	0.008002017
28	0xbdce750c	-0.10080919
29	0xbe254b4a	-0.16142002
30	0x3e1bcb9e	0.15214393
31	0x3db3394f	0.08751165
32	0xbe09955d	-0.13435884
33	0x3d372b84	0.044719234
34	0xbd6a91a9	-0.05726782
35	0x3d3baa2c	0.045816585
36	0x3e21c4f7	0.15797792
37	0xbe206200	-0.15662384
38	0x3ca3ee81	0.020011188
39	0x3e0373ad	0.12837096
40	0x3dab2b70	0.083578944
41	0xbd162586	-0.03665688
42	0xbda9adca	-0.08285101
43	0x3df0638e	0.117377385
44	0x3cf46c8a	0.029836912
45	0xbd601a9c	-0.054712877
46	0xbe10a7b4	-0.14126474
47	0xbe9324ca	-0.28739005
48	0x3c67ce6e	0.014148338
49	0xbdb6d0ed	-0.08926568
50	0xbdbe394d	-0.09288273
51	0xbce479da	-0.027890135
52	0xbdf4c832	-0.11952247
53	0x3e3394d1	0.17537238
54	0x3d84c8c0	0.064836025
55	0xbdae3c6b	-0.085076176
56	0x3e162108	0.14661038
57	0xbe063037	-0.1310433
58	0x3d19f67a	0.037588574
59	0x3e4578bc	0.19284338
60	0x3d628cea	0.055310167
61	0x3d5d61a2	0.054048188
62	0xbe808cf5	-0.25107542
63	0xbe8624e4	-0.2620002
64	0xbe043475	-0.12910636
65	0xbd0cfd90	-0.034421504
66	0x3d4d1af9	0.05007455
67	0x3e177a4f	0.14792751
68	0xba1c2fc2	-0.0005958044
69	0xbea488af	-0.3213553
70	0xbc90884b	-0.017643115
71	0xbd7918a5	-0.06081452
72	0xbe795010	-0.24346948
73	0x3d39f5f0	0.04540056
74	0xbe3e5d4c	-0.18590277
75	0x3e3630ea	0.17792097
76	0x3c05b414	0.00816061
77	0xbe033376	-0.128126
78	0xbe757dd2	-0.23973778
79	0x3cb5a311	0.022172483
80	0xbe31a037	-0.17346273
81	0x3e106fa4	0.14105088
82	0x3d429052	0.047500916
83	0x3e01fe94	0.1269477
84	0x3dd4586f	0.1036843
85	0x3d605c9e	0.054775827
86	0xbdc15547	-0.094400935
87	0x3da12b82	0.078696266
88	0xbe391802	-0.18075565
89	0xbdb5695d	-0.08857987
90	0x3d82eaa6	0.06392412
91	0xbd61019a	-0.054933168
92	0xbd19fb93	-0.037593435
93	0xbe00549e	-0.12532279
94	0xbe08c283	-0.1335545
95	0x3d72b93f	0.059258696
96	0xbe2ed1c7	-0.17072211
97	0xbdd317d5	-0.1030728
98	0x3b9ef6f2	0.0048512155
99	0x3df02f30	0.1172775
100	0x3d53e1f4	0.051729158
101	0xbca2b280	-0.019860506
102	0xbe39aaae	-0.18131515
103	0xbdc04199	-0.09387512
104	0xbe4c1592	-0.19930103
105	0x3d8ea775	0.06965534
106	0x3d85b51b	0.06528684
107	0x3e3a684d	0.1820385
108	0xbd51fa7c	-0.05126427
109	0x3ddb6d4d	0.10714207
110	0xbe5f0675	-0.21779807
111	0xbe0c90d4	-0.13727123
112	0x3d1cb4d0	0.038258374
113	0x3e49d0ad	0.1970851
114	0xbe20ac7e	-0.156908
115	0xbda4630a	-0.08026703
116	0x3d18f4bd	0.037342776
117	0xbd379d34	-0.044827655
118	0xbcda4ea3	-0.026648825
119	0xbd50329f	-0.050829526
120	0xbe2441de	-0.16040751
121	0x3e376855	0.17910893
122	0xbd95bf68	-0.073118985
123	0xbd239fc0	-0.03994727
124	0xbc7a836a	-0.015290121
125	0x3e18082e	0.1484687
126	0x3e01d22f	0.12677835
127	0x3e58addc	0.21160072
128	0x3ca66e54	0.02031628
129	0x3d8d50ae	0.06900154
130	0xbdccc73b	-0.09998938
131	0x3d82e48d	0.06391249
132	0xbdc29312	-0.09500708
133	0xbcfe095a	-0.031010319
134	0xbde4479e	-0.111464724
135	0x3dd234a3	0.10263946
136	0xbc2e47f0	-0.010637268
137	0x3d471b31	0.048609916
138	0x3dcdcdf6	0.100490496
139	0x3dd6f608	0.104961455
140	0xbd92b0b4	-0.0716261
141	0xbdc99a23	-0.09843852
142	0xbe39d7f6	-0.18148789
143	0x3a72e2fa	0.00092653895
144	0x3e2d507d	0.16925235
145	0x3c832d87	0.01601292
146	0x3cd6a4ee	0.026201691
147	0x3e32aaad	0.1744792
148	0xbe7207b1	-0.23635747
149	0x3e52deeb	0.20592849
150	0xbe711f4a	-0.23547092
151	0xbdb5c38e	-0.0887519
152	0x3b48b396	0.003062462
153	0xbb9caffc	-0.004781721
154	0x3e1e4d2c	0.15459126
155	0xbe4e675e	-0.20156619
156	0xbda527a8	-0.080642045
157	0x3e11ff62	0.14257577
158	0x3c8299f4	0.015942551
159	0x3b86a98f	0.0041095684
160	0x3d5e6393	0.05429418
161	0x3d372d21	0.044720773
162	0xbde66b14	-0.11250892
163	0x3e3e1db9	0.18566026
164	0xbdd0fc5e	-0.10204385
165	0x3cff3de2	0.031157438
166	0xbd4cfc8a	-0.050045528
167	0x3d8b3f50	0.06799185
168	0xbe77c7f7	-0.24197374
169	0xbe7abbca	-0.24485698
170	0x3d9b7a3b	0.07591673
171	0x3e1b9aec	0.15195817
172	0xbcf467aa	-0.029834587
173	0x3d14b438	0.036304682
174	0xbdc573ea	-0.096412495
175	0xbe77315d	-0.24139924
176	0xbd79c047	-0.060974386
177	0xbcd0dac1	-0.025494935
178	0x3dde6fba	0.10861154
179	0x3bfbc51a	0.0076834084
180	0xbe2a8bf6	-0.16654953
181	0xbd5b01c8	-0.053468496
182	0xbb862c60	-0.0040946454
183	0x3e229dd5	0.1588052
184	0x3dd87c12	0.105705395
185	0xbd813961	-0.06309772
186	0x3df8605d	0.12127755
187	0xbddb6a95	-0.10713688
188	0xbd7f13d0	-0.062274754
189	0x3db2c0eb	0.087282024
190	0x3cd7a986	0.026325952
191	0x3d938f02	0.07205011
192	0x3e36ae23	0.17839865
193	0x3dbc755f	0.09202074
194	0x3cf4aadf	0.029866634
195	0xbd17c7ca	-0.037055768
196	0x3d9b7b21	0.07591844
197	0x3b9f87d2	0.004868486
198	0x3c0f384b	0.008741449
199	0xbe3e76e1	-0.18600036
200	0x3df74a28	0.12074691
201	0xbdeacf85	-0.114653625
202	0xbd1dc29e	-0.03851568
203	0x3d590638	0.052984446
204	0xbdff99e6	-0.12480526
205	0xbe3ba17c	-0.1832332
206	0x3c31f087	0.010860569
207	0xbc856fae	-0.016288605
208	0xbe3df6b7	-0.18551145
209	0xbe748708	-0.23879635
210	0xbc1c20c1	-0.0095292935
211	0xbdc9c468	-0.09851915
212	0x3e2621f8	0.16223896
213	0x3ca3694c	0.01994767
214	0xbd8fdb4a	-0.07024248
215	0xbd32d321	-0.04365838
216	0x3e12fdaa	0.14354578
217	0x3ce7c2ed	0.02829119
218	0x3d82ca2a	0.06386216
219	0x3d44bac9	0.048029695
220	0xbc31e204	-0.010857109
221	0x3d917faa	0.07104428
222	0x3d148582	0.036260135
223	0x3d8631ea	0.06552489
224	0xbe668833	-0.22512893
225	0x3df2f8e4	0.11863878
226	0xbe022e92	-0.12713078
227	0x3d4d33ab	0.050098103
228	0x3dc7e2e4	0.09760073
229	0xbdee9aa6	-0.116505906
230	0xbcfe74bf	-0.031061528
231	0xbe0adeb2	-0.13561514
232	0x3e0214bf	0.12703227
233	0xbdf9fc0c	-0.12206277
234	0xbd37ed2d	-0.044903923
235	0xbe122382	-0.14271358
236	0xbe1e437a	-0.15455428
237	0xbc259678	-0.010106675
238	0xbe466170	-0.19373107
239	0x3e184cb3	0.14873008
240	0x3c9f571f	0.019450722
241	0x3df04bb7	0.117331915
242	0x3cf2121b	0.029549649
243	0x3db7cb2d	0.089742996
244	0xbd714df2	-0.058912225
245	0xbe0bf562	-0.13667825
246	0xbd9a633b	-0.07538458
247	0x3cfb5416	0.030679744
248	0xbe430183	-0.19043545
249	0xbe1739fc	-0.14768213
250	0xbd9767d5	-0.07392851
251	0x3d580e4d	0.052748013
252	0x3dc485d8	0.09595841
253	0xbe2dd173	-0.1697443
254	0xbe1db04b	-0.15399282
255	0x3db10aab	0.08644613

block.3.skip_conv.bias f4 [64]
0	0x3dc9d446	0.09854941
1	0xbe4abe5c	-0.19799179
2	0xbb150a9f	-0.0022741926
3	0x3cd4eafc	0.025990956
4	0xbe3aa06d	-0.1822526
5	0xbdfdc5c5	-0.12391237
6	0xbe38d935	-0.18051608
7	0x3de0c92f	0.10975873
8	0xbd80d235	-0.06290094
9	0xbe6303dc	-0.22169441
10	0xbe5ecdf3	-0.21758251
11	0xbe59c6eb	-0.21267287
12	0x3d4f62b0	0.050631225
13	0x3d21338f	0.03935581
14	0x3cff6dbd	0.031180257
15	0xbe6a75c4	-0.22896487
16	0xbe7827b6	-0.24233899
17	0xbdbf4ee7	-0.09341221
18	0xbdda398f	-0.1065551
19	0x3cce71a3	0.02520067
20	0x3cde3c10	0.02712825
21	0xbd848860	-0.06471324
22	0xbd76c465	-0.06024589
23	0xbdbbd425	-0.09171323
24	0xbe0870d2	-0.13324288
25	0x3d288b06	0.041148208
26	0x3d63be19	0.055601213
27	0x3d9a9a49	0.07548959
28	0xbdc629ef	-0.09675967
29	0x3c7c5d23	0.015403065
30	0xbdb2784e	-0.087143525
31	0x3e1c286d	0.15249796
32	0x3dd27595	0.10276333
33	0x3d927a59	0.07152242
34	0xbd33472b	-0.043769043
35	0x3da5610c	0.08075151
36	0x3d080ac9	0.03321341
37	0xbd4ea374	-0.05044885
38	0xbe289024	-0.16461235
39	0xbe26d62f	-0.16292642
40	0xbdb9c729	-0.0907119
41	0x3e1c9155	0.15289815
42	0xbdbfe40b	-0.093696676
43	0xbe77ed7c	-0.24211687
44	0xbda621c5	-0.0811191
45	0x3d39ed06	0.04539206
46	0xbdd8c09e	-0.10583614
47	0x3e282f8f	0.16424392
48	0x3d2419e7	0.040063765
49	0xbe851184	-0.25989926
50	0x3da30604	0.07960132
51	0x3c9205d1	0.01782504
52	0xbe01efab	-0.12689082
53	0x3da0daf6	0.078542635
54	0xbd8e9fb4	-0.06964055
55	0xbe29be31	-0.16576459
56	0xbe72e156	-0.23718771
57	0xbdd8c23f	-0.105839245
58	0xbcdc1af1	-0.026868315
59	0xbdfa9f36	-0.12237398
60	0xbdb0866b	-0.08619388
61	0xbe307a73	-0.1723421
62	0xbda92b6e	-0.08260237
63	0x3d588d8c	0.052869365
