models/best_cutmix_model.pth (torch, 251278 bytes, 22 tensors)

block.0.weight f4 [32, 3, 3, 3]
00000000: 5890 dbbd 0c72 113e a6f6 5b3d bd14 f93d
00000010: a48d 5bbd 871a 693d b3fe 09be 39a3 dcbd
00000020: 786b c53c a282 903d 7233 893d 2c02 493e
00000030: b0a8 463e 1a03 293d 2cd4 5dbe bc6f e1bb
00000040: 680f 46be c36e 1cbe 73f4 5abe 1b4d 30be
00000050: a59c ad3b 4c1d d73d 85dc 4f3d 984c a1bd
00000060: 73b1 7a3c 18a7 b63d f287 5a3e 0876 48be
00000070: 5987 4ebd cff0 f13c 7db7 e8bc 4661 51bd
00000080: af89 a13d 8571 82be 888e a0bd ad75 12be
00000090: 6a26 15be db5f 13be d628 12be ff96 34bd
000000a0: 16ac 713d 3af7 0cbc 5b0b 78bd f265 93bc
000000b0: ef11 093e 3a66 05bd 5e2b 47bd 0bdf 1e3e
000000c0: d9b4 ebbd e974 273e 5eef f23d cb2d 54be
000000d0: 9480 24be 5631 9dbd 418a 333d 229c ec3d
000000e0: 84c5 fbbd 990e 03be 3ace 91bd b063 223e
000000f0: 9eca d33d 5ba1 e13c 2d33 32be 0ce9 c2bc
00000100: 4f5c 183e 9ef9 413e 1fd7 113e 458e 66be
00000110: 58ee 47bd f061 d4bb d706 7abe cae6 d33d
00000120: 23d0 93bd f516 c73b 4f2e 5fbb cf83 48be
00000130: 7f4b d7bd a852 33be 05aa 2a3e 074c 243e
00000140: 5c6b 213e 2f12 413c 10ea 423e 7938 65be
00000150: 55b1 0abe 7e4a 3c3d fe0c 013e 9e8c c8bd
00000160: b1f3 803d f728 a83b 1c5a b33d 85b9 583e
00000170: cef5 dabd f857 51be 2639 1cbe 9da3 973d
00000180: 94d8 293e 9f50 74bd 21f4 80b9 40f7 2a3d
00000190: 26f6 6cba 717b edbd 60e1 c2bd 916e a5bd
000001a0: bbd3 623e f3f2 df3d 73c7 d9bb 0662 95bd
000001b0: 4712 bd3d 31c1 733d a3e8 d1bd 5421 113e
000001c0: 1ff0 87bc 817e 3abe 5b45 513e a30c 65bd
000001d0: 8c2d 69be 0fb0 4e3d 4b90 1b3e 65c2 d6bd
000001e0: 2a7f b9bd 3ead 2b3e 81a0 033e a135 54bd
000001f0: c10d b53d 2c72 6dbe c1cd 12be 6028 f03d
00000200: e3fb 0e3c a31c 68bd 4338 2dbd b9a7 e7bd
00000210: 976b c93d 6ed5 183e 2043 36bd 4a6e 71be
00000220: f814 0e3e b235 8ebc 26de 413d 69ab 8cbd
00000230: cd67 323e 3cfd 163e 7f05 203c 6007 c23c
00000240: acb2 d53d cce7 3c3e 04b8 8d3d 948d 59bd
00000250: dffa 953c f84d 55be b00e 8ebb 56aa 29be
00000260: 956e 01be d4c1 133e 92a7 503e 239a 3abe
00000270: cd72 55bd e675 083e 1a27 cabd 04cf 4abd
00000280: 876a e4bd 50f4 debd 6d50 053e f757 6cbe
00000290: b404 1bbe 488f 273d fee7 1abe b371 5c3e
000002a0: 86eb 203e be66 99bd be3a c43d 7343 2b3e
000002b0: 3e81 c2bd a75e 6bbd 2b66 c33d 1158 11be
000002c0: 946a 2d3e e9cf acbd 96ba e6bd a9a3 323d
000002d0: ec77 11bd 9528 15be 5199 233e 945c 183e
000002e0: 4077 c7bd c96e 563e 2214 1cbe 2717 c53d
000002f0: e506 4bbe bd96 6c3e 2515 cf3d 3e96 b83c
00000300: a14a 093e ba67 08be 7c08 4e3d 70ff d2bc
00000310: c040 51be c9c4 23be 8ee2 1fbe 3c9e 82bd
00000320: 3f2c be3d 68df 9ebd 70a5 f1bd 2b9a ff3b
00000330: e56b 0a3e f001 e73d 90e9 4f3d 250b f2bd
00000340: 8252 033d a26e 3ebe 704b 0abe de08 713e
00000350: 5504 c539 93b2 8bbd 17df 143e 4946 c93d
00000360: 3816 a9bd 89ae 58be 4818 af3d ed11 c3bc
00000370: 1419 23bc eb31 123e b974 363e cfcd a9bd
00000380: a423 e5bc 50ad 03be 1160 a83b 170a 01be
00000390: 943c 38bd 73df 393e 6525 50be fc3a 303e
000003a0: ded1 213e 3c79 a3bd ff11 253c ae35 2bbe
000003b0: 16a8 173e 7de9 d2bd 305a 8cbb 9f59 453e
000003c0: ab86 c4bd 4687 d7bd aec7 a53d 58c2 733d
000003d0: b4ac 88bd dba3 43be 0f6a 063e c3b4 03bd
000003e0: a2d4 7bbd 7be3 473e 9205 a83d 229f c5bd
000003f0: c2ce cbbb 2e90 873d 1257 27be ef87 9e3d
-0.10720891 0.14203662 0.05370202 0.12162159 -0.053601876 0.056910064 -0.13476066 -0.1077332
0.024099097 0.07056166 0.066992655 0.19629735 0.19400287 0.041262724 -0.21662968 -0.006879775
-0.19341815 -0.15276627 -0.21382312 -0.17216913 0.0052982145 0.10503635 0.050747413 -0.07875937
0.015301096 0.08918589 0.21340922 -0.19576275 -0.050422046 0.029533772 -0.028407807 -0.051118158
0.07887589 -0.25477234 -0.07839686 -0.14302702 -0.14565435 -0.14392035 -0.1427339 -0.044089314
0.059002005 -0.008603865 -0.060557704 -0.017992947 0.13385747 -0.032568194 -0.048625343 0.15514772
-0.11509103 0.16353191 0.11862062 -0.20720594 -0.16064674 -0.07675426 0.04383302 0.115532175
-0.122935325 -0.12798537 -0.07119413 0.1585834 0.103413805 0.02754276 -0.17402335 -0.023792766
0.14878963 0.18942878 0.14242218 -0.22515209 -0.048811287 -0.0064814016 -0.24416672 0.10346754
-0.07217433 0.0060757347 -0.0034054702 -0.19581531 -0.105124466 -0.17512 0.1666642 0.16044627
0.1576361 0.01178412 0.190346 -0.22384824 -0.1354421 0.04596948 0.12602612 -0.097924456
0.062964804 0.0051318365 0.087574214 0.2116452 -0.10691415 -0.20443714 -0.15256175 0.07404254
0.16586524 -0.0596472 -0.00024595953 0.041739702 -0.00090393645 -0.1159581 -0.09515643 -0.080777295
0.22151081 0.10935011 -0.0066460907 -0.07294087 0.09232002 0.059510414 -0.1024945 0.1417287
-0.01659399 -0.1821232 0.20436613 -0.055920254 -0.22771281 0.05046087 0.15191762 -0.104862966
-0.09057458 0.16765305 0.12854196 -0.051808957 0.08840514 -0.23188084 -0.14336301 0.11726451
0.008727047 -0.056667935 -0.042289983 -0.113112874 0.09834974 0.14925167 -0.04449761 -0.23577228
0.13875186 -0.017359588 0.047330998 -0.068686314 0.1742241 0.14745039 0.009766935 0.023685157
0.104344696 0.18447798 0.06919864 -0.053113535 0.018308101 -0.20830524 -0.004335247 -0.16568884
-0.1263984 0.14429408 0.20376423 -0.18222861 -0.052111436 0.13326225 -0.09870739 -0.04951383
-0.11153131 -0.10886443 0.13018961 -0.23080431 -0.15138513 0.040908128 -0.1512756 0.21527748
0.15714845 -0.074903 0.09581517 0.16724949 -0.09497307 -0.057463314 0.09540971 -0.14193751
0.16935188 -0.08438093 -0.11266057 0.04361311 -0.035514757 -0.14566262 0.15976454 0.14879066
-0.09739542 0.20940699 -0.15242055 0.096235566 -0.19826849 0.23104377 0.10111455 0.022532579
0.13407375 -0.13320819 0.05030106 -0.025756568 -0.20434856 -0.15993036 -0.15613768 -0.06377837
0.09285783 -0.07757455 -0.11799133 0.0078003607 0.13517721 0.112796664 0.050759852 -0.11818532
0.032061107 -0.1859689 -0.1350534 0.23538539 0.00037577996 -0.0682117 0.14538227 0.09827859
-0.08256191 -0.2116033 0.08549553 -0.023812259 -0.00995471 0.14276855 0.17817964 -0.08291208
-0.027971096 -0.12859082 0.005138405 -0.12601505 -0.044979647 0.18151645 -0.20326765 0.17210001
0.15802714 -0.07982108 0.010075091 -0.16719696 0.14810213 -0.102984406 -0.004283212 0.19272469
-0.095959984 -0.10523848 0.080947265 0.059511513 -0.066735655 -0.19105475 0.13126396 -0.03215481
-0.06148208 0.1952037 0.082041875 -0.09649493 -0.006219716 0.06619297 -0.16341808 0.07740771

block.0.bias f4 [32]
00000000: 1f23 733d 1473 0ebe a587 e0bd 3951 46be
00000010: 885a f8bd 7b1e cdbd dde6 d7bd 8c79 debd
00000020: 1cf0 e4bd 218c 29bd 7089 42be 72a2 f23b
00000030: 6d8d 8bbd a38f 383e de21 2fbe 27ca 74bc
00000040: a94e 033d 0440 b4bd b0e5 f1bd cd52 2dbe
00000050: 0f1d b7bc e138 a0bc 35a5 43bd d72a 37be
00000060: 4b4c 9d3c 22a9 b6bd fbac 9dbc 69ce fcbd
00000070: bb6a 3a3d 2a6b 4dbe 99df 473d 8873 083e
0.059359666 -0.13911086 -0.10963372 -0.19366921 -0.121266425 -0.10015579 -0.105420806 -0.10863027
-0.1117861 -0.041393403 -0.18997741 0.007404619 -0.06814084 0.18023543 -0.17102763 -0.014940775
0.032057438 -0.088012725 -0.118113875 -0.16926117 -0.022352723 -0.019558372 -0.047764976 -0.17887436
0.019201418 -0.08918978 -0.019247523 -0.12344057 0.045511942 -0.20060411 0.048797224 0.13325322

block.1.weight f4 [32]
00000000: 45e2 843f c439 4a3f b9ab 863f adee 933f
00000010: 546f 853f 09be 793f 6510 a53f 8e17 953f
00000020: 14aa 823f 5146 8a3f d287 6a3f 727c 5d3f
00000030: 6982 933f 9290 8f3f adea 7d3f 5b27 6e3f
00000040: 7b5d 7c3f d121 7e3f 1397 643f 5789 523f
00000050: 6d52 973f 9ecf 733f e5ee 543f ac52 693f
00000060: 89cd 663f 1f56 6a3f 584c 5c3f f7a3 753f
00000070: 4ef4 a53f 554a 6e3f 77c1 7d3f 3dc8 933f
1.0381552 0.78994393 1.0521156 1.1557213 1.04246 0.97555596 1.2895628 1.1647813
1.0208154 1.0802709 0.91613495 0.86518013 1.1524173 1.1215994 0.9918621 0.930288
0.9858014 0.9927035 0.8929302 0.82240814 1.1822029 0.95238674 0.83177024 0.9114177
0.9015737 0.9153766 0.8605399 0.95953315 1.2965181 0.9308217 0.9912333 1.1545483

block.1.bias f4 [32]
00000000: ea60 b73d ac1b 2dbe c965 edbc fd40 24be
00000010: ac6d 00bd f4fd 7abd a411 2cbd 4451 25be
00000020: f00b 083e ae5c d0bd d568 9dbc 35c0 15be
00000030: e7a2 01bd d66d 82bd 1478 a43c ea49 c6bd
00000040: 4fb3 713c 7685 01be 9712 77bd 0975 b83b
00000050: d9d7 933e e25d 42bc 929a 22be aa35 c2bb
00000060: 031b b2bd 2627 17be 2374 b5bd 1e0f 59bd
00000070: c203 f7bc 325f 85be 8e65 94bd b1bf 4abd
0.08954032 -0.16905087 -0.028979199 -0.16040416 -0.03135459 -0.061277345 -0.04200901 -0.16144282
0.13285804 -0.10173927 -0.019215027 -0.14624102 -0.031649496 -0.06368606 0.020076789 -0.09682067
0.014752223 -0.12648568 -0.060320463 0.005629186 0.28875616 -0.011863204 -0.15879276 -0.0059268074
-0.08696558 -0.14761028 -0.08860042 -0.052992932 -0.030153159 -0.2604919 -0.072459325 -0.049499217

block.1.running_mean f4 [32]
00000000: 3c98 803d cde6 d5bc 25af b6bd ba76 3dbe
00000010: 6a67 fabd 30fe 8bbd 63be c9bd fbdb e4bd
00000020: 0660 cbbd 545f 2bbd 1a17 64be 3a95 31bc
00000030: 48ae 13bd c7e5 3e3e f170 87bd a630 0abe
00000040: 4311 043d e6aa 37be 5c12 0bbe 7e9a 39be
00000050: a62b c5bc 5a9d afbc a524 00bd 5133 0fbe
00000060: 61f3 d4bb 768a 5dbe 5733 19bc 7446 0abe
00000070: 5726 4d3d 3bed 5abe b099 793d efe2 0c3e
0.062790364 -0.026111031 -0.08920125 -0.18502322 -0.12226756 -0.06835592 -0.098507665 -0.111747704
-0.099304244 -0.04183896 -0.22274438 -0.010838801 -0.03605488 0.1864234 -0.06613339 -0.1349512
0.032243025 -0.17936286 -0.13581222 -0.1812534 -0.024068665 -0.021437336 -0.031284947 -0.1398442
-0.0064987396 -0.2163485 -0.009350619 -0.13503438 0.05008539 -0.21379559 0.060937583 0.13758443

block.1.running_var f4 [32]
00000000: 3de3 ea3b b4a3 a63e e5d9 1b3c d75a bd3b
00000010: 58a2 cf3c 24a6 ce3c 097b 763c a609 973b
00000020: 4cb8 5b3c e7ef f33c fecb 813c f84c b63c
00000030: 9cb9 793c 9ced 7a3d 8e84 1c3d 0a4b aa3d
00000040: 1173 ae3c 9e1e 263d 8e32 b63c 3dd6 8e3c
00000050: 7751 1a3c 51e5 363c 7480 923c b57a 1f3d
00000060: c3f3 793e 8cff c03d 036d 8c3c 8881 e23b
00000070: 50dc 1a3d c44e 833d ce5a 453d 6bb0 f13c
0.007168202 0.3254677 0.009512399 0.005778651 0.025345966 0.025225706 0.015043982 0.0046093045
0.013410639 0.02977748 0.015844341 0.022253498 0.015242007 0.06126176 0.03821235 0.08315094
0.021295102 0.040556543 0.022240903 0.017436141 0.009418837 0.011163072 0.017883517 0.038935382
0.24409394 0.09423742 0.017141825 0.006912414 0.037807763 0.06411508 0.0481823 0.029503068

block.3.block.0.weight f4 [64, 32, 3, 3]
00000000: 6b08 f9bc 53dd c5bd c562 91bd c34c 583a
00000010: 7b9c 18be 2d00 29be 5dab c0bd 1a0f c7bc
00000020: 8ac7 47bd f2c6 f03c 556c 9a3d b440 943d
00000030: 76a8 793d cdef c03c f65d 00bd 8fe6 3d3d
00000040: 488c ac3d 72ac 033d 668c f7bd d148 d9bd
00000050: a718 41bc acd3 7ebd 1c5a 50bd 50b3 e73b
00000060: a4d0 d2bd c1e0 f4bd 3e7b b5bd e442 033c
00000070: 7fa1 57bd d7b5 8dbe d82c bfbd 3d06 5e3c
00000080: 58f0 cdbd cb5d 23bd 8b4b adbd 6c08 84be
00000090: 5944 3b3c e203 783d e4cb 9b3d 537d fbbc
000000a0: 4477 9f3c 5c65 0d3d 9602 443d 918e a63d
000000b0: 5c15 d83d a116 72bd bc4c a0bd 64af afbd
000000c0: c4c9 d83d 06ee 423d 2aae aebc 2896 f63b
000000d0: d89d 00bb fc00 d0bb ae6e eebc 73c2 debd
000000e0: a364 e2bd 3ad4 4c3c 6f3e b8bd da64 f7bd
000000f0: 48b8 53bc eb80 b1bd 22df 04be 8add 21bd
00000100: 0c81 83bd 6a1a 123b 38f7 07be ef54 8fbc
00000110: 54e3 fdb9 0b38 d3bd f042 30bd 9d72 763d
00000120: e32e c2bc 9649 cbbd 44b0 58bd d6b8 20bd
00000130: c21c f3bd ce98 b1bd 6db2 383d 9ffd 0e3c
00000140: b648 803c b79f 98bb 1f40 34bd 4311 e1bd
00000150: b10f 05bd 8501 9f3d bab6 a7bb 8476 bc3c
00000160: 816b 953d 42b3 2fbc 42ad 08be 28b2 42bc
00000170: d841 bfbd 718e 25bd f0e5 ccbd 4ffd a6bd
00000180: 970b d7bc a611 cbba 90a6 daba 6b92 0dbe
00000190: ea2b f2bd ca4f 773b 559a 77ba 4e5c e5bc
000001a0: 64f5 8f3c 2679 84bd 754f 553c 2569 cd3c
000001b0: 9009 49bc f845 9c3c a983 9a3c 43d9 09be
000001c0: 4a33 40bd cc8b 14bd 8ba8 bebd 756b 543b
000001d0: 0b12 ab3d d583 513d ccb8 033d e134 383d
000001e0: 6566 0b3e 6d6f 6e3d 27f2 be3d e38c 033e
000001f0: 17f7 cb3d 863a f03d 0323 19bd 3125 413d
00000200: 4079 b43d ea67 f2bc 818f ad39 f5a4 693d
00000210: e1d2 9fbc f3f1 833b 8b6d 8ebb 09bc 34bd
00000220: f2f0 60bc 3297 9dbd 40db 043d 525d f43c
00000230: 4b58 7a3c c52e b7bc 7114 a23c d71e 923d
00000240: 4a0b 833d c0fd b3bd 7070 11bd c36f f13d
00000250: 9941 19bd 17b6 833d 63ef d23d a042 81bc
00000260: 575c 95bd affe b1ba 5a95 8abd c189 a0bd
00000270: b724 74bd ec08 c63c b088 dbbb 8c14 423d
00000280: 2600 08bd dbd0 103d d82d 4fbd 3c3d bcbb
00000290: f564 bdbc b411 d53a bee9 8fbd 0448 01bc
000002a0: 2537 273d b6c9 d83a ccaa 803d bf32 a9bd
000002b0: 6483 bbbb ab01 4b3d 0a4c 0ebc 8b5d 09bc
000002c0: 4a71 c43c a8a1 57bd 0250 6dbd aac7 1d3c
000002d0: 3deb 15be 9f62 72bc 3f34 673d e1d1 9bbd
000002e0: 3b82 f8bd 2dd5 8dbd 2755 ecbd 712e bdbd
000002f0: 7f0f ac3d 47a7 c3bd 0b9a 58bd 0acb 80bd
00000300: 34b3 263d 55a3 603d 7371 b9bc d9c9 fc3a
00000310: f2e5 5dbd 1e13 a93a 010c 0c3d 36db 1abd
00000320: 6554 84bd 7e31 39bd 75f5 47bd efae 1ebb
00000330: 8918 84bd fc78 45bd 4880 03bd 02e8 70bd
00000340: 1ad0 25bd 91ae 2c3d bde8 85bb 2ad5 b23c
00000350: 2c4e 6cba ee56 de3c 96e7 4cbc 645e 493d
00000360: 394e 27bd 058a 743d 5110 deba da75 8a3d
00000370: 085e a83c 02c2 5a3d 7b89 f5bb d340 0c3c
00000380: 6f4d 9cbb 4402 a7bc 87a9 babd f992 84bd
00000390: f1b7 a3bd c698 57bd 9ce0 82bd ad46 a93c
000003a0: 71d8 b1b9 3da7 6f3d 5db1 1e3b 8581 1abd
000003b0: c3e9 d2bc 1509 5abd c8d0 423d 1947 fdbb
000003c0: 35c2 743d 7672 f0bb 2714 b0bc 13b6 5a3b
000003d0: 989a 213c 1cc2 53bd e994 babd 86ec 75bd
000003e0: 249c ef3b f3ff 043d 7209 84bd a11d 07bb
000003f0: b7a8 a1be fb4e a2be bb99 b5be c6a0 b0bd
-0.030399522 -0.09661355 -0.07098917 0.00082511845 -0.14903443 -0.16503973 -0.09407685 -0.024299193
-0.04877428 0.02939174 0.07540194 0.07238904 0.060951672 0.023551846 -0.031339608 0.046362456
0.08425194 0.03214688 -0.12087326 -0.10609592 -0.011785663 -0.062213585 -0.050867185 0.0070709363
-0.10293701 -0.11956931 -0.08861397 0.008011553 -0.05264425 -0.27677795 -0.09334725 0.013551292
-0.100556076 -0.03988437 -0.08461674 -0.25787675 0.01142987 0.060550578 0.076072484 -0.030699408
0.01946605 0.034520492 0.04785403 0.08132661 0.10550949 -0.05910361 -0.07827136 -0.08578375
0.10585359 0.047590278 -0.021323282 0.0075252242 -0.0019625332 -0.0063477736 -0.02910551 -0.10876932
-0.11054351 0.012501771 -0.08996283 -0.12079783 -0.012922354 -0.08667167 -0.12975743 -0.039517917
-0.06421098 0.0022293576 -0.132779 -0.017496554 -0.00048425293 -0.10313424 -0.043032587 0.060167897
-0.023703998 -0.09926145 -0.052902475 -0.039238773 -0.118707195 -0.08671723 0.045092035 0.00872746
0.015659671 -0.0046577114 -0.044006463 -0.109896205 -0.032485668 0.07763962 -0.0051182183 0.023005731
0.07295895 -0.010723891 -0.13347343 -0.011883296 -0.093387306 -0.040419046 -0.100047946 -0.081537835
-0.026250644 -0.001549293 -0.001668172 -0.13825385 -0.11824782 0.0037736767 -0.00094452995 -0.027998116
0.017573066 -0.0646842 0.013019432 0.02507455 -0.012270346 0.019076332 0.018861609 -0.13461785
-0.046923913 -0.036266133 -0.09309491 0.0032412682 0.08353051 0.051151115 0.032158658 0.044972304
0.13613279 0.058211733 0.09323531 0.12846713 0.09959238 0.117299125 -0.037386905 0.04715461
0.08812189 -0.029590566 0.0003310405 0.05704208 -0.019509735 0.0040266453 -0.0043465546 -0.044124637
-0.013729321 -0.07694854 0.032435656 0.029829655 0.01527984 -0.022361169 0.019785138 0.071347885
0.063986376 -0.08788633 -0.03550762 0.11788895 -0.037416074 0.06431215 0.10299566 -0.01577884
-0.07293003 -0.001357993 -0.06766768 -0.078387745 -0.059605327 0.024174176 -0.006699644 0.047382876
-0.033203267 0.03535543 -0.05058083 -0.0057446044 -0.02311943 0.0016255886 -0.07027005 -0.007890705
0.040824074 0.0016539607 0.06282577 -0.08261632 -0.00572245 0.049562138 -0.008685121 -0.008384119
0.023979802 -0.0526444 -0.05793763 0.009630123 -0.14640518 -0.014794021 0.05644631 -0.076083906
-0.121342145 -0.06925426 -0.11539679 -0.092373736 0.08401393 -0.0955339 -0.05288128 -0.06288727
0.040698245 0.054843266 -0.022637105 0.001928623 -0.05417437 0.0012899374 0.034191135 -0.037806712
-0.064614095 -0.045213215 -0.04881807 -0.0024213155 -0.06449992 -0.048211083 -0.03210476 -0.05881501
-0.040481664 0.042158667 -0.0040865825 0.02183016 -0.0009014334 0.02714106 -0.012506386 0.049162284
-0.040846083 0.05970194 -0.0016942119 0.0676076 0.02055265 0.053407677 -0.0074931956 0.008560377
-0.004769973 -0.020386823 -0.09114366 -0.06473345 -0.079940684 -0.05263593 -0.06390497 0.020663584
-0.00033921332 0.0585091 0.0024214603 -0.037721176 -0.025746232 -0.053231318 0.04756239 -0.0077294228
0.059755523 -0.0073378636 -0.021493984 0.0033372685 0.009863518 -0.05169879 -0.091104336 -0.06004002
0.0073123146 0.032470655 -0.06447114 -0.0020617025 -0.31574032 -0.31700882 -0.3546885 -0.08624415

block.3.block.0.bias f4 [64]
00000000: 0186 20bd 87a0 0fbd 351c 05bd 4b36 533d
00000010: 8656 643c ca8e 2dbd 6c8f 9c3b 3263 50bd
00000020: 490b a63c 54b7 64bd b2c4 573d 4c0a 0b3d
00000030: 38e3 fc3c 554e 4f3c 6600 933c 1a8d 3e3d
00000040: c683 323d 3dc0 17bc 2d5e 15bd e7e7 4bbd
00000050: 9208 29bd 5a9b 063d ba9a d83c 5a27 22bd
00000060: decb e03c 17c4 1e3d 1e0d fc3b e5f3 10bd
00000070: a717 75bd 3c05 0dbd 49d1 dfbc fc56 803c
00000080: 3c69 363d 13ec 643d 7dc9 45bd 6613 ba3a
00000090: 5f44 aa3c c843 96bc d7e4 90bd 5d23 43bc
000000a0: b64d 2fbd ba54 f63c b6c7 38bc 7aac 3a3d
000000b0: 84c5 08bd 9509 4fbd 8380 81bc 7e7d 883c
000000c0: f050 34bd 8383 c83c 0d69 f3bb f7db 6f3d
000000d0: 193f 02bd c0ec a33c c126 05bc 5c22 383d
000000e0: 80bd 4d3d 9e92 51bd 28e9 0a3d 1616 e23c
000000f0: 0e68 66bc dec9 4c3d 5c2c 023d 7540 763c
-0.039190296 -0.0350652 -0.032497603 0.05156545 0.013936644 -0.042372502 0.0047778394 -0.05087585
0.020269053 -0.055838898 0.052677818 0.033945367 0.030870065 0.012652953 0.017944526 0.046521284
0.0435827 -0.009262142 -0.036466766 -0.049781706 -0.04126794 0.032863 0.026440967 -0.03958831
0.027440961 0.038761225 0.0076919934 -0.035388846 -0.05983701 -0.03442882 -0.027321475 0.015666477
0.044533953 0.0558892 -0.048287857 0.0014196455 0.020784555 -0.018342867 -0.07074898 -0.011910287
-0.04279872 0.030069698 -0.011278084 0.045574643 -0.03339149 -0.050546248 -0.01580835 0.016661402
-0.0440225 0.024476772 -0.0074282945 0.058559384 -0.031798456 0.020010352 -0.008126915 0.044954643
0.05022955 -0.051165216 0.03391376 0.027598422 -0.0140628945 0.049997203 0.031780586 0.015030016

block.3.block.1.weight f4 [64]
00000000: b6bc 793f 7b71 653f e7d3 483f 5e9c 5a3f
00000010: 5418 7c3f 8fc5 7a3f ad62 803f fe71 9d3f
00000020: db32 683f c749 6b3f f664 713f d52b 533f
00000030: 6318 4c3f 31a1 513f 0318 713f 9faf 6f3f
00000040: 259b 653f 3a84 813f b7a2 893f 80c4 903f
00000050: 6c06 703f 8b89 ac3f 6efb 6a3f d2e1 533f
00000060: 516d 703f 6bb6 663f 8319 853f b1fd 833f
00000070: feac 7d3f 2182 653f 03ef 683f b5b5 6b3f
00000080: fd40 803f d180 843f cab8 673f c93e 473f
00000090: d842 853f 41a8 533f f5ec 7e3f 1a90 823f
000000a0: c511 763f bd9e 693f 5911 563f 2fe1 863f
000000b0: d8b4 7e3f c9fa 493f 7019 713f ac1b 533f
000000c0: c6e2 783f 9564 593f b252 993f f324 7e3f
000000d0: 0ed4 5b3f 6a11 663f d30b 733f b14f 833f
000000e0: 4ebb 773f 43a9 613f fd3d b23f aaa2 8a3f
000000f0: 927a 773f 930c 6e3f 09ae 843f 1442 653f
0.97553575 0.8962628 0.7844834 0.8539485 0.9847462 0.979577 1.0030113 1.2300413
0.907026 0.9190945 0.9429468 0.8248876 0.7972471 0.81886584 0.94177264 0.9362735
0.89689857 1.0118477 1.0752782 1.1309967 0.937598 1.3479475 0.917899 0.8276645
0.93916804 0.901221 1.039841 1.0311795 0.9909209 0.89651686 0.909897 0.9207414
1.0019833 1.0351812 0.9051634 0.7783018 1.0411024 0.8267861 0.9958032 1.0200226
0.96120864 0.9125784 0.8362022 1.053747 0.99494696 0.7889829 0.9417944 0.824641
0.9722103 0.849191 1.1978362 0.9927513 0.85870445 0.8987032 0.9493992 1.0258695
0.9677018 0.881489 1.3925167 1.0830891 0.966714 0.92987937 1.0365611 0.8955395

block.3.block.1.bias f4 [64]
00000000: 2129 93be 5563 cfbe 35d3 bfbe cdc0 2abe
00000010: 8398 d4be 9c1d c3be 3143 90be e662 0abe
00000020: e095 5bbe 4edc 51be f7a6 a6be b766 79be
00000030: 49d1 b1be 6a61 a7be 92f2 8bbe 413f 6ebe
00000040: ae24 60be 8900 8bbe 20ec cfbe 5fa9 91be
00000050: cf66 dbbe a268 36be 97be 5abe 37ba b6be
00000060: 18c9 bcbe 9202 8dbe daf4 61be c755 99be
00000070: e15e c0be e80f 67be 7779 54be d08b 81be
00000080: 1544 93be 4066 6cbe 4532 8dbe 8d34 99be
00000090: a749 97be b0aa aebe 4c1b a1be ceb8 6dbe
000000a0: 3947 a3be 354d 81be b67f 9abe 7037 76be
000000b0: 8184 d2be 7bae 61be 1d4a 7dbe 9e5e 7cbe
000000c0: 4e4e 75be 0098 a6be 7b82 6abe d82d bbbe
000000d0: 951f 99be 7db2 88be be05 8dbe d6ea 45be
000000e0: e856 f3be cd18 bcbe b503 d9bd 29dd b4be
000000f0: 4cff d4be 6c3f aebe 495e 8abe e5e1 98be
-0.28742316 -0.40505472 -0.37465826 -0.1667511 -0.41522607 -0.38108528 -0.28176263 -0.1351429
-0.21443892 -0.20494196 -0.3254926 -0.24355589 -0.34729984 -0.3269151 -0.27333504 -0.23266317
-0.21888992 -0.27148846 -0.40609837 -0.28449532 -0.42851874 -0.17813352 -0.21361767 -0.35688946
-0.36872172 -0.27541023 -0.2206606 -0.29948255 -0.37572387 -0.22564662 -0.2074946 -0.2530198
-0.2876288 -0.2308588 -0.27577415 -0.29922906 -0.2954838 -0.341146 -0.31466138 -0.23215029
-0.31890276 -0.25254217 -0.3017556 -0.24044585 -0.41116717 -0.22039215 -0.24735303 -0.24645469
-0.23955652 -0.32537842 -0.22901337 -0.36558414 -0.29906908 -0.26698676 -0.27543443 -0.19327864
-0.47527242 -0.36737671 -0.1059641 -0.35324982 -0.41601026 -0.34032762 -0.2702506 -0.29859844

block.3.block.1.running_mean f4 [64]
00000000: faa2 02c0 b68f a2bf 2af8 e0be 27a6 303f
00000010: f442 0ebf 2186 08bd 79ce f5bf 1cf9 c7bf
00000020: dfcb f5bf 2b30 02c0 e144 c0bf 981b 80bf
00000030: 979d 2040 01e7 edbe 4c93 eabf 3201 b1bf
00000040: 7e1a 02c0 be18 49bf 7e0e 5fbf d987 65bf
00000050: cfb6 1ebf 359b 9fbf e949 46c0 8b5e a8bf
00000060: b27a 61bf 4879 b3be 79cf 97bf 1361 88bf
00000070: f896 a0be 0514 b3bf 7939 02c0 fce8 f5bf
00000080: 7e41 d9bf 2335 f4bf 9fdd 90bf e809 d13f
00000090: 22a8 80be c579 88bf 8cf7 b7bf 534d 56bf
000000a0: c62a 4bbe c12a cebf a6bc a3bf 684f aebf
000000b0: 811e 3dbf b87a 843f 8125 9abf 5478 15c0
000000c0: 38e6 e3bf d3c6 e1bf 6b80 a6bf a67f a6be
000000d0: 6244 2bbe c1bf febf 8ab1 03c0 d224 f2bf
000000e0: 77dd 9cbf 3ab4 ddbe 849a 7abf acbe 29bf
000000f0: 5e3a b4bf 1667 34bf 3a1c 89bf fff8 5ebe
-2.0411973 -1.2700107 -0.43939334 0.6900353 -0.5557091 -0.03333104 -1.9203635 -1.5622897
-1.9202842 -2.03419 -1.502102 -1.0008421 2.5096185 -0.46465304 -1.8326201 -1.382849
-2.032867 -0.7855338 -0.8713149 -0.8966041 -0.61997694 -1.246924 -3.098261 -1.3153852
-0.88077843 -0.35053468 -1.1860191 -1.0654625 -0.3136518 -1.3990484 -2.0347579 -1.9211726
-1.6973112 -1.9078716 -1.1317633 1.6331148 -0.25128275 -1.0662161 -1.437242 -0.8371174
-0.19840536 -1.6106797 -1.2791946 -1.3617983 -0.7387467 1.0349951 -1.2042695 -2.3354692
-1.7804632 -1.7638801 -1.300794 -0.32519263 -0.16725305 -1.9902269 -2.0577111 -1.8917487
-1.2255086 -0.43301564 -0.9789202 -0.6630657 -1.4080312 -0.70469797 -1.0711739 -0.21774672

block.3.block.1.running_var f4 [64]
00000000: 3ec5 7540 c10d 0940 8d1d e63f 35d8 ea3f
00000010: 4636 7b3f 37a6 ca3f eb57 1a40 4013 fe3f
00000020: abea 8240 be8b 0940 e9ef e13f 8f9b d33f
00000030: 907c 1d40 7e48 ce3f 37c6 1040 ac68 c83f
00000040: f01c 4140 7724 783f 4f01 dc3f 8e24 823f
00000050: 85f8 e33f 329b ee3f f21c a240 223a 2540
00000060: fdda c23f b8ea 0240 0725 0740 8d5c 0740
00000070: 5060 dd3f ce60 0940 5d04 4540 e945 3540
00000080: 5422 1540 b3e1 8140 ef68 3440 72af 7440
00000090: 432c 8d3f b341 c93f e423 f63f 5791 c13f
000000a0: 40af 833f d855 1d40 2282 2440 999d 0940
000000b0: e487 663f 4c15 2e40 0f94 bd3f d7b7 5040
000000c0: 6b27 d23f 16f1 1f40 7924 bc3f d4f1 793f
000000d0: 4cbd 8a3f fa46 2240 c549 8040 8a21 a040
000000e0: 484b ff3f ee80 873f a5d7 d83f 3c8e ea3f
000000f0: 7171 f43f e658 de3f 4b0f 963f a335 d63f
3.8401637 2.1414645 1.7977768 1.8347231 0.9812969 1.5831975 2.411616 1.9849625
4.091146 2.1491542 1.765134 1.6531848 2.4607277 1.6115873 2.262098 1.5656943
3.0173912 0.9693064 1.7187899 1.0167406 1.7810217 1.8641112 5.0660334 2.5816731
1.522308 2.045576 2.111635 2.1150239 1.7295017 2.1465335 3.0783913 2.832392
2.3302202 4.058801 2.8189046 3.8232083 1.1029133 1.5723175 1.9229703 1.5122479
1.0287857 2.4583645 2.5704427 2.150244 0.900511 2.7200499 1.4810809 3.2612207
1.641828 2.4990897 1.469863 0.97634625 1.0839019 2.535582 4.009005 5.004094
1.9944849 1.0586221 1.694081 1.8324656 1.909712 1.737088 1.1723417 1.6735119

block.3.block.3.weight f4 [64, 64, 3, 3]
00000000: db3e 1cbd 466c febc b057 0a3d ce8a 28bc
00000010: 0ef7 d3bb fbf5 18bc 210d 803a d8f8 55ba
00000020: 80c2 0ebc ea5f 4a3d 120d f93c c0bd c93c
00000030: fa39 f33c ac1b 843d 5fbb f83c 049d de3d
00000040: e0bc b93d dcc0 9f3d 86fd 76bd 86b0 4abc
00000050: b69e 8e3c 7671 82bd c921 043c 6a57 ccbb
00000060: d569 d4bc fcf2 c43c e2d1 6cbc 3ac2 a8bc
00000070: 3aea 02bd 5469 2bbd 960e debc 3b53 a7bc
00000080: 42c1 c5bc 4d05 19bd 4c2c 1fbd 7066 e0bc
00000090: 4a9e ec3c dd85 8a3d 2a5b 823d 901e 153d
000000a0: 0ada 573d 9c72 d93c 9eae 433d 3d67 e33c
000000b0: 29ae cd3c fc19 c8bd 553c 63bd 3226 b8bd
000000c0: 62ab bebd d182 cdbd 56db e1bd 141e cdbd
000000d0: 929b c2bd 29b9 cebd 873b 6abd 7135 24bd
000000e0: 678e 88bd db13 6cbd bfaa 4abd bd80 1cbd
000000f0: ac5b 0ebd 15bc 44bd 689c 47bd f89a 99bc
00000100: 893f 17bc 69f0 1e3c b0a1 fcbc af85 33bb
00000110: c616 b33c 952b d7bb 5370 d1bc f51b 973a
00000120: a739 50bd 1ca1 88bc a4ae 34bd 016d 63bd
00000130: df7b 74bd fd54 cf3b 96bc 88bc cf8e be3a
00000140: 64dc 2ebd 5491 1dbd 3845 23bd 0859 76bd
00000150: f76c afbd 68bf bdbc a1f2 22bd 7598 d5bc
00000160: 0378 a9bd 9e12 e5bc cc24 7fbb d5cc a33c
00000170: e349 74bc 00ba ec3c ead3 443c 931a 443c
00000180: fec2 79bc 2d40 953b 927f 1a3c 50ca 47bd
00000190: 7e57 b83c 90a0 5c3d 0048 75bc a01d 153c
000001a0: 357b b8ba 6fb4 cc3c a6cb 20bc 8acb 3ebb
000001b0: 2f41 87bd f479 98bc c529 1ebd 962d 39bd
000001c0: 8593 bcbd 8216 2bbd 63cb 9ebd db2b b1bd
000001d0: bb57 bbbd ee64 e4bb 05ca 40bd 4de4 93bc
000001e0: dd15 813b 293f d23c 962e cf3c f54f 0cbd
000001f0: 4ac7 9f3b e5a8 da3a 4b2d 26bd e7cb d9bc
00000200: 448a 4d3c 32ba e4bc 2b4f 10bd ee48 2dbd
00000210: 365c 92bc 33b9 43bc 31cd 94bc 2439 633d
00000220: 849b 833d 4829 6d3d 9236 343c 1bb7 903d
00000230: 9fd5 273c f281 483d a2e6 9a3d 1587 373d
00000240: afb9 633c dffc 953c 086b d7bb c7f6 9abb
00000250: 497b cdbc 6046 fdbc ea98 303d fc34 04bd
00000260: 9d7d 103c ecd0 9bbd 8bb5 78bd ace5 94bd
00000270: 94b4 9fbd b8cc 86bd 414e 24bd a6d1 66bd
00000280: f01b 9abd e29a 31bc 4996 9c3b 3ea2 ab3c
00000290: 6398 2b3d 5f88 51bd 9197 90bd a9ed b5bc
000002a0: 04dc abbd 2c3e 07bd 9a50 b7bc 514b 5ebc
000002b0: a173 103e 47dc b33d a2c4 be3c 30f2 eb3d
000002c0: d22d febc be3f c43d 52c4 8fbd e6fb d2bc
000002d0: 6c85 afbc 145e 163c 8432 933c eba4 3fbc
000002e0: c647 60bd 7661 92bc 2d3a 2ebd 60ef 62bc
000002f0: 7de7 cfbc d9fa c7bc 1805 10bb 3c0a 523c
00000300: 3ead e1bc 205a 23bd ae8c 30bc 107c 83bd
00000310: 9d25 66bd 0a42 92bc e706 b5bc 342e 073d
00000320: 44e6 e0bc 2ba7 d93c 946e efbc e3ef cbbc
00000330: 1863 ecbc 9981 50bc 0ed0 01bd 26ec 85bc
00000340: 199b a7bc 08e2 3ebd f460 fdbb 92bf 10bd
00000350: dae4 743b 3de0 f4bb f45f a23c 7c94 393c
00000360: 5ea1 27bb f7ec d23c 4a56 733d ae6b e8bb
00000370: 975e 57bb f05d df3c 7298 35bb c72f 2e3d
00000380: 32f0 f6bb 58dc 6c3c fc81 c03c 3f7a d6bb
00000390: 6566 8c3d f4a5 d13c 6252 313d 7af7 383c
000003a0: 0d4e 363c d580 683d c186 05bd d403 33bc
000003b0: 5b61 24bd 014d 48bd 5d5f 03bd fd3c a1bd
000003c0: 5a78 1dbd 5702 99bd 667b 92bd bab3 02bd
000003d0: 7203 6ebd 2850 4ebd 02a1 27bd 1d80 a6bd
000003e0: 6ba1 3fbd e672 08bd 4c5b 933c d7f4 e2bc
000003f0: a40d 843d ee76 853d 6cd9 153d 89e5 dd3c
-0.03814588 -0.031057488 0.03377503 -0.010287 -0.00646866 -0.00933599 0.0009769538 -0.0008162386
-0.008713365 0.049407877 0.03040174 0.024626613 0.029690731 0.064505905 0.030362783 0.10869792
0.09069228 0.07800457 -0.060300373 -0.012371188 0.017409664 -0.06369297 0.008064696 -0.0062360065
-0.02592937 0.024041645 -0.014454337 -0.020600427 -0.031961657 -0.041848496 -0.027106564 -0.02042543
-0.024140004 -0.03735857 -0.038860604 -0.027392596 0.028884072 0.06763814 0.063650444 0.0364061
0.052698173 0.026543908 0.04777395 0.027759189 0.02510746 -0.09770581 -0.05547746 -0.0899166
-0.093100324 -0.10034717 -0.11028163 -0.100155026 -0.09502329 -0.1009391 -0.057185676 -0.04009003
-0.06667786 -0.057636123 -0.049479242 -0.038208712 -0.034755394 -0.04803093 -0.048733145 -0.018750653
-0.009231457 0.009700873 -0.030838817 -0.0027392914 0.021861445 -0.0065664747 -0.025566256 0.0011528718
-0.05083623 -0.016678385 -0.044111863 -0.055523876 -0.059688445 0.00632727 -0.016691487 0.001453841
-0.04269065 -0.038468674 -0.039860934 -0.0601435 -0.08565705 -0.023162559 -0.03978217 -0.026073674
-0.082748435 -0.027962979 -0.0038931845 0.019995132 -0.014910194 0.028897285 0.012013415 0.011969226
-0.015244244 0.0045547695 0.009429829 -0.048776925 0.022502657 0.05386406 -0.014970779 0.009101301
-0.0014074804 0.024988381 -0.009814179 -0.0029113018 -0.0660423 -0.01861284 -0.038614053 -0.04520949
-0.092078246 -0.041769512 -0.07753637 -0.08650943 -0.09147593 -0.0069700396 -0.04706766 -0.018053198
0.003939374 0.025664883 0.025290769 -0.03425594 0.004876052 0.0016682415 -0.04057054 -0.026586486
0.012545172 -0.027920816 -0.03523175 -0.04230588 -0.017866235 -0.01194601 -0.01816425 0.055474415
0.064261466 0.057900697 0.010999339 0.070661746 0.010243802 0.04895205 0.07563521 0.04480656
0.013899251 0.018309055 -0.0065740384 -0.004729125 -0.025083201 -0.030917346 0.04311458 -0.032277092
0.008819011 -0.07608208 -0.060720008 -0.07270369 -0.077981144 -0.06582016 -0.04011369 -0.05635228
-0.0752486 -0.01084015 0.0047786576 0.020951387 0.041893374 -0.051155444 -0.07060159 -0.022208052
-0.08391574 -0.033018276 -0.022377301 -0.0135677615 0.14106609 0.08782249 0.023287121 0.11520803
-0.031027708 0.0958247 -0.07019867 -0.02575488 -0.021425925 0.009177703 0.017968424 -0.011697034
-0.05475595 -0.017868739 -0.04253595 -0.013851017 -0.025378937 -0.024411606 -0.0021975692 0.012819823
-0.027548429 -0.03988087 -0.010775728 -0.064201474 -0.056188215 -0.017853756 -0.022098018 0.033003047
-0.02745355 0.02656897 -0.029227532 -0.02489466 -0.028855845 -0.012726211 -0.031692557 -0.016347956
-0.020459699 -0.04660228 -0.007732505 -0.035338946 0.0037367851 -0.0074730203 0.019821145 0.011326905
-0.002557836 0.02574776 0.059408464 -0.0070929145 -0.0032862776 0.027266473 -0.0027709273 0.042526033
-0.0075359577 0.014456831 0.023499481 -0.0065453346 0.06855468 0.025591828 0.043291457 0.011289472
0.011127007 0.05676349 -0.032599214 -0.010926206 -0.040131908 -0.04890156 -0.032073367 -0.07872961
-0.038444854 -0.074711494 -0.07152443 -0.03190968 -0.058108754 -0.05036941 -0.040925033 -0.081299044
-0.0467848 -0.0333127 0.01798787 -0.02770464 0.06447914 0.06516825 0.036584303 0.02708699

block.3.block.3.bias f4 [64]
00000000: a10b adbc 67ea be3c c0e3 0e3d 8ac0 d039
00000010: 4b98 93bc 760a 38ba 7892 8c3c 484f b43c
00000020: 537f 253c 98ec 8a3b da1c 2bbd 1d41 8e3c
00000030: 6d4a 32bd c291 27bd 9a15 d23c 87d8 e93c
00000040: cd08 cb3c 8d60 01bd 9427 e3ba 1049 343b
00000050: 7059 24bd 1dfd c3bc cb35 ca3c 0ae7 9c3c
00000060: 1787 35bc dc38 0cbb b636 8fbc 6a5f c13c
00000070: 7749 ae3a 6363 963c a542 f73c 296a e3bc
00000080: c718 243d f68e 13bd 4976 5f3c 30ce 0d3d
00000090: c418 d73c 10db 203d 45ef 5ebc 5497 24bd
000000a0: a168 193c f0c7 f93c 121a 6d3c 739f ee3c
000000b0: c21d 143d 2e6d 2fbc f2cc 51bb 5858 f73c
000000c0: eafd da3b 2728 093d b421 703c e9a9 0bbd
000000d0: 5e2f a13b 7948 1cbc fd02 f93c 22a9 6a38
000000e0: 3698 c6ba 5bf0 d5bc 03aa 493c b470 b8bb
000000f0: f8c8 59bc 0348 253d c2da 2d3d 045c 413d
-0.02112371 0.023305131 0.034885168 0.00039816304 -0.018016955 -0.0007020602 0.017159685 0.02201046
0.010101157 0.00423963 -0.041775562 0.017365033 -0.04352801 -0.04091049 0.025645066 0.028545631
0.02478447 -0.03158622 -0.0017330521 0.002750937 -0.040124357 -0.023924405 0.024683854 0.019153137
-0.011079571 -0.0021396196 -0.017482143 0.023605067 0.0013297041 0.018357938 0.030183146 -0.027760582
0.040062692 -0.03602501 0.013639041 0.034620464 0.026256926 0.039271414 -0.013606851 -0.04018338
0.009363324 0.030490845 0.014471548 0.029128766 0.03616119 -0.010707183 -0.0032013026 0.030193493
0.006683101 0.033485558 0.014656473 -0.034097586 0.0049189767 -0.009538763 0.030396933 5.5947465e-05
-0.0015151564 -0.026115587 0.0123086 -0.0056286696 -0.013292544 0.04035188 0.04244495 0.047206894

block.3.block.4.weight f4 [64]
00000000: 0869 a63f 26da 9e3f de01 ac3f bb23 a23f
00000010: 5809 ab3f 5be1 a83f 1065 a83f df58 a93f
00000020: bdfc 9b3f f698 a03f 107d a63f cf99 b03f
00000030: 5b7f a83f f8d8 9b3f 6f4d a33f fd08 a33f
00000040: 9a9c 923f f177 a13f f7c2 a63f 60f1 a63f
00000050: c2c4 a73f ae21 ab3f 3252 9d3f 763d 943f
00000060: 7a08 9d3f edd0 9d3f 9073 a63f 8984 a13f
00000070: 9323 b83f ef3a a23f 06b7 a83f ae4f b53f
00000080: 7ac9 9c3f b988 b63f 7c41 a93f b829 9b3f
00000090: 589f ad3f 825b a53f 1831 a33f fa2b a63f
000000a0: 6519 ab3f 383f 983f e631 9e3f c732 b83f
000000b0: f2a0 ae3f 9808 9f3f 5c54 b43f 59a4 b23f
000000c0: 3668 a93f eeef ad3f 3cda 9d3f 1fe7 ad3f
000000d0: 7041 9e3f 904e a83f 95fa a73f 29fe ac3f
000000e0: d10f ae3f 2bd8 b03f facb ac3f be8b 9d3f
000000f0: 694f b03f 5893 b73f 0028 9b3f c05f ad3f
1.3000803 1.2410324 1.343807 1.2667154 1.3362226 1.3193773 1.3155842 1.3230246
1.2186505 1.254668 1.3006916 1.3796939 1.3163866 1.2175589 1.2758006 1.2737118
1.1454041 1.2614728 1.3028249 1.3042412 1.3106921 1.3369653 1.2290709 1.1581256
1.2268212 1.2329384 1.3004017 1.2618572 1.4385856 1.2674235 1.3180854 1.4164941
1.2248986 1.4260474 1.3223109 1.2122107 1.3564253 1.2918551 1.2749357 1.298217
1.3367125 1.1894293 1.2358978 1.4390496 1.3642867 1.2424498 1.4088244 1.3956405
1.3234928 1.3588846 1.2332225 1.3586158 1.236372 1.3148975 1.3123347 1.3515064
1.3598577 1.3815969 1.3499749 1.2308271 1.3774234 1.4341841 1.2121582 1.3544846

block.3.block.4.bias f4 [64]
00000000: 9525 aa3c 8388 33bd 5a86 e33d 6285 ee3c
00000010: dcf8 52bc 11c0 403d a7ea 89bc 03f3 823d
00000020: 936f dd3d 43e3 4b3d 495c 183d f0f3 973d
00000030: c325 6d3d 0cc7 7b3d da14 c63b 6939 46bd
00000040: 64b8 8a3d 032f ce3d e90f a73d 108c 533d
00000050: d64c b93d 4076 be3d 71ec 343d fd10 57bd
00000060: 4fd2 633a 0a67 4abc d0c2 e53c 2dee 9c3d
00000070: 55d6 6a3d 292d cb3d 18d6 683c dc21 4fbc
00000080: ed02 25bb 910f f63d 7f07 153e d4cc cb3d
00000090: efb6 8e3d 2551 583d 3365 813b 5e64 b23d
000000a0: 66d8 c43d a04d 2abc 097f cbbc 5310 ba3d
000000b0: f19b 863d 8d55 df3d c569 e03d 0d69 d23d
000000c0: ad9a b43d e66e b73d 577f aa3d c9e7 063e
000000d0: 741c 3a3d 5825 9d3d 4bda fd3d 28d0 aa3d
000000e0: 6944 573d c8ce 073e 0574 da3d cc20 513d
000000f0: d9d8 e53d 3755 4d3e 1dd8 923d 879c 383d
0.020769874 -0.04383136 0.1110961 0.029116336 -0.0128767155 0.04705817 -0.016835524 0.06394007
0.10812297 0.04977728 0.037197385 0.07419574 0.05789734 0.061469123 0.006044966 -0.048394594
0.06773451 0.100675605 0.081573315 0.051647246 0.090478584 0.09299898 0.0441708 -0.052506436
0.0008690701 -0.012353668 0.028046995 0.07662616 0.05733331 0.09920723 0.0142112 -0.01264235
-0.0025178746 0.12014688 0.14553641 0.09951177 0.069684856 0.05281176 0.0039488315 0.0871055
0.09611587 -0.010394484 -0.024840849 0.09085145 0.06572712 0.109049894 0.10957674 0.10273943
0.088185646 0.08956699 0.083250694 0.13174357 0.04543729 0.076731384 0.12395152 0.08340484
0.052555475 0.13262475 0.1066666 0.05105667 0.11223001 0.20052038 0.071701266 0.04507115

block.3.block.4.running_mean f4 [64]
00000000: baf0 39be f034 0c3f 6ad8 85bf 8a90 09bf
00000010: 4c9e 78be 8abf 8fbe d100 823d fb7a 16bf
00000020: f45f 35bf 72b6 97be 81c6 563f 2522 993e
00000030: be6b f0bd 6c9d 6abe 8eb0 5cbf ae14 9d3d
00000040: 6da9 3f3f 9996 1bbf 6037 51be c273 51be
00000050: 30d4 263e 6372 173e bd2d 84be 4835 52bd
00000060: f68e d5bd 2a66 ae3e fbe0 bcbe a983 15bf
00000070: bfb5 c2be e972 f2be 1568 173e 9504 00be
00000080: 3313 5abe 3c8f cdbe 1bb7 d13e 14b9 a9be
00000090: bf7c 13bf f07e b63f df06 1fbe bf25 c9bd
000000a0: aaff 74be 28d8 d8bd ab3b 57be 511e 9bbe
000000b0: 4b7c 16bf 9d41 b9be 0202 34bf ce3c 11bf
000000c0: a092 99bc 387e a5be 9744 673d 95fa 34bf
000000d0: ac22 54bf 2132 383c fec3 37bf 1f17 423e
000000e0: 51b0 96bd de3f 193e c76e 1fbf 5ff9 29bf
000000f0: 000e 82bf 80bc 173f 0da6 ad3e 9dbe 933d
-0.18158236 0.54768276 -1.0456669 -0.53736174 -0.24279135 -0.2807582 0.06347812 -0.58781403
-0.7084954 -0.29631382 0.8389664 0.29908863 -0.117393 -0.22911614 -0.862069 0.0766996
0.748679 -0.6077667 -0.2043128 -0.20454314 0.1629188 0.14789729 -0.25816146 -0.051320344
-0.10427658 0.3406232 -0.36890396 -0.5840402 -0.38029286 -0.47353294 0.14785798 -0.12501748
-0.21296386 -0.40148342 0.4096001 -0.33149016 -0.5761222 1.4257488 -0.15529965 -0.098216526
-0.23925653 -0.105881035 -0.21018855 -0.30296567 -0.58783406 -0.3618287 -0.70315564 -0.56733406
-0.018746674 -0.3232286 0.056461897 -0.7069486 -0.82865405 0.01124242 -0.71783435 0.18954132
-0.073578484 0.1496577 -0.6227841 -0.66396135 -1.0160522 0.59272003 0.3391575 0.07214091

block.3.block.4.running_var f4 [64]
00000000: 2c9c 693f 2bd5 643f 0fee 823f aa7a 213f
00000010: f07a 893f 091c 503f bb88 743f 2ea5 c53f
00000020: d4e8 263f 2eec 843f ed32 993f 8132 ae3f
00000030: 3117 133f a033 903f 7dd8 593f d0ac 723f
00000040: 45a2 783f db3d 9a3f a36d 713f 4901 803f
00000050: 7d52 693f 57cd 673f 3a4f 933f 001d 433f
00000060: 04fe 463f bd28 3c3f 4048 ec3e 23e3 183f
00000070: b29f fb3f c7d0 713f 36fa 5f3f 8685 b23f
00000080: e2ff 233f e5ac 8d3f e85f 7c3f bc3d 3e3f
00000090: 706b 8c3f 3b3d 8c3f c1ab 8d3f 0fdc a23f
000000a0: 9eba 523f 2a2f 0f3f bba0 513f 51a5 e93e
000000b0: c2bb 743f 4f82 503f 3d5c b13f 4a1d 213f
000000c0: 656d 7a3f 8c01 7c3f 7b5f 513f dd11 a43f
000000d0: 82a2 8f3f ceb1 703f 9b04 2a3f 46fa 7e3f
000000e0: 93c2 323f 0914 673f c8d3 963f 14dd 553f
000000f0: 5183 b83f 98d3 883f 351e 353f a50a 103f
0.91253924 0.8938777 1.02289 0.63077796 1.0740643 0.8129278 0.95521134 1.5441034
0.6519902 1.0384576 1.1968666 1.3609163 0.5745726 1.1265755 0.8509596 0.9479494
0.97122604 1.2050127 0.9430792 1.0000392 0.9114149 0.905477 1.1508553 0.76216125
0.7773135 0.7349966 0.46148872 0.59721583 1.965811 0.94459194 0.87491167 1.3946998
0.6406232 1.1068388 0.9858384 0.7431295 1.0970287 1.0956186 1.106804 1.2723407
0.82316005 0.5593134 0.8188588 0.4563394 0.95598996 0.81448835 1.3856274 0.62935317
0.9782317 0.9843986 0.81786317 1.2817951 1.1221468 0.9402131 0.6641328 0.99600637
0.69828147 0.90264946 1.178338 0.83540463 1.4415075 1.0689573 0.7074922 0.5626624

block.3.skip_conv.weight f4 [64, 32, 1, 1]
00000000: 0133 fdbd 8aa1 c33b 1822 7bbd c5f3 b3bd
00000010: 184e e63d e702 a7bd 25c2 17be 241d 053a
00000020: 437b 973d 7b06 92bd 625c a6bd b155 d4bc
00000030: 6ebb 283e 0873 3fbc e4b1 123e 75e2 293d
00000040: 5e44 a03d a3d9 c63c 73e0 e8bd e488 b43c
00000050: 1434 0e3e 1999 0cbe a524 50be 67ef 423d
00000060: 4a8c 933d 911e 39be 970a 0abe 7c37 033e
00000070: c834 053d 1600 3cbe 4b49 60be 1aa5 d23c
00000080: 6051 da3b bd65 18be 6a1a 1abd ba46 23bd
00000090: 4782 93bc 3c0a 53bd 93d6 763c dcfb 12be
000000a0: 1e61 a8bd d424 9dbc e27b 893c 3b71 00bd
000000b0: 64aa cebd cbd8 efbc 37ca a4bd 39de 10bd
000000c0: e198 813d 2d87 6fbc dfa1 11be c427 90be
000000d0: 4580 e8bd 3ee0 06be cbad 19bd 0dba fc3d
000000e0: 6ac5 24be 3ab6 923d 1c77 ad3d 82a2 9dbd
000000f0: bbb2 533e 578d 7cbe 95f7 96bd ff2c 19be
00000100: 28a4 c0bd 1c16 0b3d d0dd fbbc 5f2c 1bbe
00000110: 516f f33c 7f20 35be ff80 e03b 9b36 2cbe
00000120: 081d c03c c82a a53d fbfb 013e 6081 b0bd
00000130: 5958 21be a74d 07be 9405 973d 24ab 06bc
00000140: 9994 7e3d e33b c9bd f36e 5e3c 935e 823d
00000150: 3abe 3c3c 5963 48bd 827c a7bc 2d35 753c
00000160: ea1e c5bd 23a7 89be 1bdd aa3c 7202 14be
00000170: 82ed 3e3d aca6 d13b 47e1 40be feaf 813d
00000180: 0023 853c bb32 07be ded0 00be 1684 00be
00000190: 4878 e7bc 7ec1 40be 75df 83bd 4b3e ec3c
000001a0: 65a3 503d c8a9 67be 30c0 7a3c 91c8 af3d
000001b0: eadb d5bd aa69 e4bd 7bd6 77be 6566 16be
000001c0: 1de0 2c3c 31c2 003e 94fb bc3d e0aa bebd
000001d0: 932a 77be aac4 d93d b5d7 19be a21d df3a
000001e0: 6388 ce3a 5d77 c53d 3174 05be 16f8 a63d
000001f0: 5c55 f4bd e531 143e 9d7a 8dbe 55df 0cbe
00000200: ac02 923d c22b 1c3c 7812 b1bd 69b5 893d
00000210: 6d21 ccbd 5783 b33b b634 8fbd e7a4 c23b
00000220: 8a67 b73c 28dc 04be 2331 d43c 3f55 83bd
00000230: ea17 2b3d 3de7 8b38 a460 d0bd fb80 38be
00000240: 4a92 533b 899f 71be 9421 153e ba42 b53d
00000250: 3a5f d2bc f701 dcbc 4525 c2bd b14b 01bd
00000260: 9720 54be 0fd9 62bd 80d6 25bd e93e e4bd
00000270: 1b65 9fbd f291 013e 76e8 78bd 3d10 b33d
00000280: 0fa6 2dbe 456a 55bd 152f 3e3c ae58 20bc
00000290: d5f3 6abe 28aa a5bd 8623 0b3b 2951 bdbd
000002a0: 15ff bf3d e58b 36be fa2e a63d f843 8a3d
000002b0: 74cf 853d 37c8 f33d 99ae f6bd f7d4 f6bb
000002c0: c80f 9ebd a875 28be c9f2 15be 1929 56bd
000002d0: d8ad eebd 5371 953d 3867 483d 4465 8bbd
000002e0: 5ec0 f13d 375d 8cbd 7aad 3ebe 9d9c 7c3d
000002f0: 1098 e5bd 67ac 3bbe 48a7 cc3c 2f07 62bd
00000300: 47d1 133c 9db2 0c3c 3cfd 2d3b e504 6a3c
00000310: e74f e2bd 38b5 373d 33bd f23d 6b1d 823d
00000320: 5d93 fabc 8e21 17bd 6728 5dbe 7e03 a73d
00000330: f457 5cbe b442 d2bd f478 30be 88e6 10be
00000340: 45f8 fcbd 9e3f 01be 7b87 293e 8480 e1bd
00000350: e5b5 98bd c75c cd3c b12e 123d b7aa 3f3d
00000360: 2e9e 5cbe cfca cc3d e72c 9b3a 9ab4 0ebe
00000370: 6b87 253e 9318 37be bff5 03be 4c0f b3bd
00000380: 10f3 08be b36d 0f3d 6ced 7ebe 4594 163d
00000390: 72bb 50be 0f2e 9cbd 4ff5 7f3d fa70 17bd
000003a0: a283 f8bd e82e d73c 57a4 093c e832 023c
000003b0: ff58 8fbd bec7 61be 1423 cdbd d2ee 003e
000003c0: a40b 41be 358c dcbc c747 5abd 8fa3 7d3d
000003d0: 7f3f 7cbe 97d9 a03c 0f0c 95bc 2c5d 4f3c
000003e0: 8847 cd3d 7f07 b3bc 4f90 e1bc 36df b63d
000003f0: 4094 39bd 9378 bbbd 3d57 923d c851 ce3d
-0.12363244 0.0059701847 -0.06131181 -0.0878673 0.11245364 -0.081548505 -0.14820154 0.00050778897
0.07396557 -0.07130142 -0.081230894 -0.025919767 0.16477749 -0.01168514 0.14325672 0.041475732
0.0782554 0.0242737 -0.11370935 0.02203793 0.13887054 -0.13730277 -0.20326479 0.047591593
0.072044924 -0.18078066 -0.13480602 0.12814134 0.03252104 -0.18359408 -0.21902959 0.025713492
0.0066625327 -0.1488256 -0.037622847 -0.039862372 -0.018006457 -0.051523432 0.015065807 -0.14353889
-0.08221649 -0.0191826 0.016782705 -0.031357985 -0.10091093 -0.02927818 -0.08046382 -0.035368178
0.063279875 -0.014619631 -0.14221905 -0.2815534 -0.113525905 -0.13171479 -0.037519258 0.12340174
-0.16090932 0.07163663 0.08469984 -0.076970115 0.20673649 -0.24663292 -0.07371441 -0.14958571
-0.0940631 0.033956632 -0.030745417 -0.15153645 0.029716166 -0.17688178 0.006851315 -0.16817705
0.023451343 0.080648005 0.12693779 -0.08618426 -0.15756358 -0.13213216 0.07374111 -0.008219514
0.062153433 -0.098258756 0.013576257 0.06365695 0.011519963 -0.04892287 -0.020445112 0.014966291
-0.09625037 -0.26885328 0.020857384 -0.14454058 0.046613224 0.0063980427 -0.18835936 0.06332396
0.01625204 -0.13202946 -0.12579677 -0.12550387 -0.028255597 -0.18823811 -0.064391054 0.028838297
0.050937075 -0.2262336 0.01530461 0.08583177 -0.10442336 -0.11152966 -0.24202912 -0.14687498
0.01055148 0.12574078 0.09227672 -0.093099356 -0.24137335 0.10633214 -0.15023692 0.0017022381
0.0015757199 0.09641907 -0.13032605 0.081527874 -0.119303435 0.14472158 -0.2763261 -0.1375707
0.07129416 0.009531917 -0.08646101 0.06724054 -0.09967313 0.0054783034 -0.06992476 0.005940068
0.022388238 -0.12974608 0.025902336 -0.06412744 0.041770853 6.671108e-05 -0.10174683 -0.18017952
0.003228324 -0.23596014 0.1456359 0.08850618 -0.025680173 -0.026856406 -0.09479765 -0.031566326
-0.20715557 -0.055382784 -0.040487766 -0.11144812 -0.07782956 0.1265333 -0.060768567 0.087433316
-0.16957878 -0.0521033 0.011607905 -0.009786768 -0.22944577 -0.08089095 0.002123089 -0.09243996
0.09374825 -0.17826803 0.08114429 0.06751245 0.06533709 0.11903422 -0.120450206 -0.0075327116
-0.07717854 -0.16451132 -0.14643396 -0.052285288 -0.11654252 0.072970055 0.048926562 -0.06806424
0.11804269 -0.06853717 -0.18620864 0.061672796 -0.11210644 -0.18327485 0.02498211 -0.055182632
0.009022064 0.008587507 0.0026548645 0.0142833935 -0.110503964 0.044850558 0.11852493 0.06353267
-0.030587846 -0.036897235 -0.21597444 0.08154963 -0.21517926 -0.10266629 -0.1723364 -0.1415044
-0.12352041 -0.12621924 0.16555588 -0.110108405 -0.07456569 0.025068654 0.03568906 0.046793666
-0.21544716 0.0999962 0.0011838943 -0.13936082 0.16164939 -0.17880468 -0.12886713 -0.08743152
-0.13373971 0.035016727 -0.24895257 0.036762495 -0.20384005 -0.076259725 0.062489804 -0.036972977
-0.12134482 0.026267484 0.008400998 0.007946707 -0.069993965 -0.22048852 -0.10016456 0.12591103
-0.18852097 -0.026922325 -0.05329111 0.06192356 -0.24633597 0.019635005 -0.018194227 0.012656491
0.10023409 -0.02185416 -0.027534632 0.08929293 -0.045307398 -0.09153857 0.07145546 0.10074192

block.3.skip_conv.bias f4 [64]
00000000: 74f9 f1bd bdfb 22be 6f37 febd 13b9 d43d
00000010: 2378 9f3b 8903 a3bd 0e35 47be 13e5 c93d
00000020: 0013 c23d 4eae 8abd 491d 88bd 36ce 173d
00000030: 78fa 82bd b68c 153e 8790 c5bd f893 5fbe
00000040: 688a 093e 533b 103b e7e6 a7bd d58c 1bbe
00000050: 3503 39bd 5884 783d 8878 99bc 6c4c a83c
00000060: 2a7c 873d 1a92 b4bb f295 91bb a14d 5c3d
00000070: eb4d e13c 75b1 0e3e 6c3d 8fbe 3dd0 c2bd
00000080: 73fc e3bd f485 12bd f9ca eabc 11cc 13be
00000090: 1492 21be 0188 37be f915 86bd 501a f0bd
000000a0: d09b 833d 2606 973d 5a1b 37bd 7c25 51be
000000b0: 770d 81be b687 6abd 93d9 f53d 85a1 c6bd
000000c0: 58f9 0e3d 6c65 e6bd 6ffe 92bd 7237 dc3d
000000d0: 5859 04be 2f2e 07be af93 5a3c 0c8b cf3d
000000e0: 3383 8dbe 62f7 473c 47aa 5ebe f488 053e
000000f0: 9c2f 6cbd 4f4d c63d 725b 01bd 99a3 62be
-0.118151575 -0.15916343 -0.12412917 0.103868626 0.0048666163 -0.07959659 -0.19453833 0.098581456
0.0947628 -0.06771527 -0.06646211 0.037061892 -0.063954294 0.14604458 -0.09646707 -0.2183379
0.13431704 0.0022008016 -0.08198338 -0.15190442 -0.045169074 0.060673088 -0.018734232 0.020544253
0.06615479 -0.0055105807 -0.0044429237 0.05378497 0.027502974 0.13934882 -0.2797655 -0.095123746
-0.11132135 -0.03577228 -0.028661238 -0.14433314 -0.1577838 -0.17922975 -0.0654716 -0.11723769
0.06426203 0.073742196 -0.04470382 -0.20424455 -0.25205585 -0.05725833 0.120043896 -0.09698776
0.03490576 -0.112498134 -0.071774356 0.10752763 -0.12924707 -0.13201211 0.013340875 0.10133943
-0.2763916 0.012204977 -0.21744643 0.13040525 -0.05766259 0.09682714 -0.03158135 -0.2213272
