models/ova_model.pth (torch, 251030 bytes, 22 tensors)

block.0.weight f4 [32, 3, 3, 3]
00000000: 57e9 8bbd 7cc1 8abd aea7 b7bd 6570 40be
00000010: e0de c23c 6637 683e e31c 84be 5996 f4bd
00000020: 5309 273e c777 203e 7351 fe3d bd4c b2bd
00000030: 3248 c93d 6d96 12bd 3e7e fb3d 8b14 0cbd
00000040: 65c1 35bd 9562 babd 186f 8a3d 2d85 693d
00000050: af9e 20be 2c60 893d 73d9 de3d 6ee6 d6bd
00000060: 32b5 2e3c 7124 31be 8731 7c3d a81d 84bd
00000070: 0241 2e3d 315c 43bc 2edb cc3d 1a57 ba3d
00000080: 2aa5 b5bd dca1 383c a57f f43d f080 8abc
00000090: 38fc 1f3c 3548 0abe f46c d03d d9cc c9bd
000000a0: 3fdb 54bd 0ea0 263e 8c91 3fbd 6b31 03be
000000b0: 9cc9 1dbe a447 8cbd ebda 34be f8be b9bd
000000c0: 1be3 5bbe c748 b4be ed77 6cbd 5690 cebc
000000d0: 17ea ebbc 6d8a 30be df76 123d 7eb0 003e
000000e0: 8798 02be 547d 643e b992 e83d 8013 ebbd
000000f0: 0b55 313c 1b3a c2bc ea65 4cbe e61f 133e
00000100: f9b5 e2bd 4921 e5bd 1854 e93d 5448 febd
00000110: 5756 45be e240 f33d d140 c4bc 7ced 89bd
00000120: b550 323d 91eb 3bbe ee0b c33d e348 b43d
00000130: a3a4 48be 6cca c83d 9b2c 273e a0df 21bd
00000140: b041 923d 748a ab3b aeff f3bd ce39 433e
00000150: 10ee 8e3d d325 80bd 9c7f 0d3e eaff 3bbe
00000160: cc25 9abd c843 8eba b765 f8bd 6a66 cdbd
00000170: b574 1c3d 34b2 0c3d 15ed 0dbe 4f7a 1f3e
00000180: 6f9f 1d3e f289 ca3d 9400 08be e6b2 01bc
00000190: c900 0dbd 92d3 5dbd 8f68 7c3e e61d 96bd
000001a0: 3aeb 5c3c abe6 483e a204 bbbd 5bce 2dbe
000001b0: ed8f 3e3d 97cd 0ebe 5384 07bd 0223 06be
000001c0: 8e91 373e da2f 4d3d 4109 0cbe 47b5 14bd
000001d0: 140c 3abd 8a47 52be b121 a3bd 38ff 27be
000001e0: adb4 ee3d 5b40 d83d 992f 11be 1fb5 8f3c
000001f0: e700 7abe f248 88bd 07c4 5e3e cf5f 05bc
00000200: 6e92 0c3e 687a 7d3e 7110 acbc 1167 453e
00000210: 14cb 923c 3bcf bc3c eb3b 233e ab6b 36be
00000220: 2930 16bd f645 c83b c8f3 adbe 33f5 d0bc
00000230: 2d3b b1bd 5590 3ebe db1e 3bbd aca4 a9bb
00000240: 00d8 843d 60eb 3dbe f360 e4bd 0700 84be
00000250: fe31 073e d1fe 093d e9e9 ea3c 37d9 073e
00000260: 32a1 3abe 6969 273e 6ced 993d 3f8a 1fbd
00000270: e48b 38bd 6068 aebd a4a8 0f3e 09b1 b53d
00000280: 5ed8 ccbd fc9d 1ebd f7b2 90bd 5f29 c43c
00000290: 87e9 47be 3d58 733d 5759 a43d 999c 46be
000002a0: e145 cabd d2ae efbd ce6e 663d 4ba4 f0bd
000002b0: 0647 883d a756 083a a60b 663c 6974 16bb
000002c0: 4342 fb3d a1c6 d33d 0a61 ce3d bd20 01be
000002d0: 552c 11bc bf92 19be 5b63 d63d 9bb3 733d
000002e0: 81b7 323e 6d54 17bd 6fae 1d3d c401 603e
000002f0: 0e32 433e 02fc 203e ce84 f2bd 0674 3f3e
00000300: b2cc 29bb ebbf 9e3d 1c7f f5bd 5e42 4f3d
00000310: 7754 39be 0132 18bd 52f8 453e 9d24 65bd
00000320: e5aa 8dbd d3b0 04be 4400 063e d526 d73d
00000330: 3cd9 1e3d fe86 87be 014f 203e 1112 1ebe
00000340: 9b20 d3bd 207c c2bd 8bea 46be 2ea8 803e
00000350: 85e8 02bd ae93 353e 99b3 cebd 5c19 aa3d
00000360: 1bb8 b9bd a887 13be cbd3 b53d acbc fcbd
00000370: c3bb 23be b519 f33c 5221 e1bd 9d9b 5cbd
00000380: 9638 14bd 5ac0 7d3e 3e5e 0e3e 4a37 e23d
00000390: 44df 7e3e 7bc1 a4bd e195 343e 2383 04bd
000003a0: 6a36 513e 6ce8 29bd 0679 1bbe df56 34be
000003b0: 9d42 9cbc f2b0 053e d8c7 8ebd 4fcb d2bd
000003c0: d739 01be 3c90 e03d 8b2a 12bd f465 933d
000003d0: 7371 b63d 1de5 2bbd 7d60 95bc b589 99bd
000003e0: 58a5 b7bc 6cbc d3bd e880 d839 9b1a 46be
000003f0: f0e3 b93c 4b3f dd3c 3dc0 5b3e 15ab 813e
-0.068316154 -0.067751855 -0.08967529 -0.18792875 0.023787916 0.22677383 -0.2580329 -0.11942739
0.1631215 0.15670691 0.12417879 -0.08706043 0.09828223 -0.03578799 0.12279938 -0.03419928
-0.04437389 -0.09100834 0.06759471 0.057011772 -0.15685533 0.067077965 0.10881319 -0.1049317
0.0106633175 -0.17299058 0.06157067 -0.06450969 0.042542465 -0.011923836 0.10002743 0.090986446
-0.08869393 0.011269059 0.11938409 -0.016907185 0.0097647235 -0.13504107 0.10177031 -0.09853525
-0.051966902 0.16271994 -0.046769664 -0.1281182 -0.15408939 -0.06849602 -0.17661636 -0.090696275
-0.21473353 -0.35211775 -0.057731558 -0.02521531 -0.028798146 -0.17240305 0.035757896 0.12567326
-0.12753497 0.22313434 0.1135611 -0.11478329 0.0108234985 -0.023709347 -0.19960752 0.14367637
-0.11069865 -0.11187989 0.11392993 -0.12416139 -0.19271217 0.1187761 -0.023956688 -0.0673475
0.043534 -0.1835158 0.0952376 0.088029645 -0.19594054 0.09804234 0.1632561 -0.039519906
0.07141435 0.0052350108 -0.119140014 0.1906502 0.069790006 -0.062572144 0.1381821 -0.18359342
-0.075267404 -0.0010853941 -0.121287756 -0.100292996 0.038197238 0.034349635 -0.13859971 0.15574001
0.1539285 0.09889592 -0.1328147 -0.007916188 -0.034424577 -0.054156847 0.24649261 -0.073299214
0.013483817 0.19619243 -0.09131743 -0.1697325 0.046523977 -0.13945614 -0.03308518 -0.13099292
0.17926618 0.050094463 -0.13675405 -0.036305692 -0.045421675 -0.20535102 -0.079654105 -0.16405952
0.11655555 0.1055915 -0.14178313 0.01754242 -0.24414407 -0.06654538 0.21754466 -0.008140518
0.13727733 0.24753726 -0.021003934 0.19277598 0.0179191 0.023048034 0.15940826 -0.1781451
-0.036667023 0.0061118556 -0.33975053 -0.025507545 -0.08653865 -0.18609746 -0.045683723 -0.005177101
0.06486511 -0.1854682 -0.11151304 -0.2578127 0.13202664 0.033690277 0.02867599 0.13266455
-0.18225554 0.16348805 0.07515988 -0.0389502 -0.045055285 -0.08516002 0.14029175 0.088716574
-0.10002206 -0.038724884 -0.07065385 0.023945509 -0.19522677 0.059410322 0.08024853 -0.19395675
-0.098766096 -0.11703266 0.056258015 -0.117500864 0.06654172 0.00052009005 0.014040863 -0.002295757
0.12268498 0.1034062 0.100771025 -0.12610145 -0.008860667 -0.14997385 0.10468169 0.059497457
0.17452814 -0.03694575 0.03849643 0.21875674 0.19062063 0.15721133 -0.11841737 0.18696603
-0.0025909361 0.07751449 -0.11987135 0.050600402 -0.18098627 -0.037157062 0.19333008 -0.05594312
-0.06917361 -0.12958078 0.13086039 0.105054535 0.03878139 -0.26470178 0.15655138 -0.1543658
-0.103089534 -0.09496331 -0.19425409 0.2512831 -0.03196003 0.17732117 -0.10092849 0.08305618
-0.090683185 -0.14407218 0.08878287 -0.12340674 -0.15989594 0.029675344 -0.109926835 -0.053859342
-0.036186777 0.24780408 0.13903138 0.11045702 0.24889857 -0.08044716 0.176353 -0.032351624
0.20430914 -0.04148142 -0.15182886 -0.17611264 -0.019074732 0.1305578 -0.06971711 -0.10292684
-0.1261972 0.109650105 -0.035685103 0.071971804 0.089083575 -0.041966546 -0.018234486 -0.07496969
-0.02241771 -0.10338673 0.00041294773 -0.19346087 0.022691697 0.02700772 0.21460052 0.25325838

block.0.bias f4 [32]
00000000: ac3b 453e 37ed cbbc 4a75 a6bc 14f6 06be
00000010: f3ec 103e 9cc1 853d 3736 273e aef2 11be
00000020: aa83 7ebd 0dff 0bbd a143 34be a3f5 2ebd
00000030: 3872 2e3e 0b68 fd3d 6afa 563d 4932 183d
00000040: 0b4b f13c 8142 9bbc 67c4 08bd 5078 1dbd
00000050: 224b 18bd 1927 17be 454d 82bc bc9f 5cbc
00000060: 8ddf 00be 5394 843e 160b 1bbe f62b 09be
00000070: 3242 f3bd c442 2abe 2141 863c c49d a0bd
0.19261044 -0.024893386 -0.0203196 -0.13179809 0.14152889 0.06531069 0.16329275 -0.14252731
-0.062137283 -0.034178782 -0.17603923 -0.042714726 0.17035758 0.1237336 0.052484907 0.03715733
0.029454729 -0.01895261 -0.03339043 -0.038444817 -0.037181027 -0.14761008 -0.015905986 -0.013465818
-0.12585278 0.25894412 -0.15140948 -0.13395676 -0.1187786 -0.16627032 0.016388478 -0.078425914

block.1.weight f4 [32]
00000000: fa85 6e3f 9899 613f 9d4b 803f d63b 9c3f
00000010: 580e 803f b8b7 6f3f 2a6d 5d3f 2841 953f
00000020: 2eba 7d3f 5150 6f3f e8c0 b93f 6b37 693f
00000030: c87e 703f 2102 993f e57e 9e3f 131e b33f
00000040: 3e66 8f3f e987 583f 0fb8 5c3f 521b 8a3f
00000050: c382 853f b2d1 543f e0d8 8a3f 27f1 a23f
00000060: 920b a43f b07d 903f 40f8 8a3f a005 463f
00000070: 04a2 853f 75cd 8d3f f9e1 683f 68df 4b3f
0.9317318 0.8812499 1.0023075 1.220576 1.0004377 0.9363971 0.86494696 1.1660509
0.9911221 0.9348193 1.4511995 0.91100186 0.9394345 1.1953775 1.2382475 1.3993553
1.1203077 0.8458238 0.8621835 1.0789587 1.043053 0.8313247 1.0847435 1.2729844
1.2816031 1.1288357 1.085701 0.77352333 1.0440068 1.1078326 0.90969807 0.79637766

block.1.bias f4 [32]
00000000: 5dd3 5ebd e383 26be 892c 33be 3bd9 bf3d
00000010: 2d0d 90bc 609e 99bd 98bd 91bd da88 853d
00000020: bffb 913d 09f1 df3c 52f2 223e 85fd c33c
00000030: e9ba 4bbe 30d7 03be e3e0 2e3d a1b8 c1bd
00000040: 3054 283e 6ecb 1dbb 7bfc dcbd 3062 0d3e
00000050: c7d7 223d 2fc7 fcbd 8e71 bcbd 66ee d7bd
00000060: aa7b cebd 5e4d ac3d 05bc 13bc b39b 51be
00000070: 2b35 8abd 2800 41be 4067 73bd ba04 cebd
-0.05440079 -0.16261248 -0.17497458 0.09367605 -0.017584408 -0.07500911 -0.0711624 0.06520243
0.07128095 0.027336614 0.1591275 0.023924598 -0.1989552 -0.12875056 0.042694937 -0.09459043
0.16438365 -0.0024077552 -0.10790344 0.13806987 0.039756563 -0.12342679 -0.09201346 -0.10543518
-0.10082181 0.08413194 -0.009016995 -0.20469551 -0.06748422 -0.18847716 -0.05942464 -0.10059495

block.1.running_mean f4 [32]
00000000: f49e 4b3e b3cf 8a3e bc53 febc a851 0dbe
00000010: 6f6a 35bb 78fe c83d 7133 dd3c 7b9f e2bd
00000020: cd50 d3bc 98e5 4dbb 69d9 2bbe 6b02 eebc
00000030: 1cc5 b23e 618d fc3d d96c 623d bd95 2d3d
00000040: 1f2a de3c 3673 10be 29d6 b3bd 0949 79bd
00000050: 854d 49bd 3ee1 82be 7dcb aebc f311 efbb
00000060: a147 f8bd 10f5 7b3e 9532 00be f49f 26be
00000070: c363 afbd c577 29be 74af 913c f08b 12be
0.19884855 0.27111587 -0.031045787 -0.1380068 -0.0027681848 0.09814161 0.027002068 -0.11065575
-0.025795365 -0.0031417366 -0.16782154 -0.029053887 0.34916008 0.123316534 0.055279586 0.04237913
0.027119694 -0.1410645 -0.08781082 -0.060860667 -0.049146194 -0.2556247 -0.021337265 -0.007295841
-0.12123037 0.24605203 -0.12519296 -0.16271955 -0.0856395 -0.16549595 0.017783858 -0.14311194

block.1.running_var f4 [32]
00000000: 9484 cc3c 7707 eb3e 4aaf 203d d4f8 223c
00000010: 04a0 873d 5950 933e 4542 993d fd5a eb3b
00000020: 3601 173d 9b50 183d e282 8d3b 8abd 643e
00000030: 0c1a 373e 215e ac3c 9d83 523c 3aef 3b3b
00000040: fb9d 033d 627b a53e 3730 2e3d a4a9 1a3d
00000050: b7ee cb3c a729 5a3d 2501 d23c 44ce a03b
00000060: 8471 473d b07e e83c 9888 4e3c dff0 8e3e
00000070: 45da 883c 2236 dc3b 0b2b de3d 962a b73d
0.024965562 0.45904133 0.03922967 0.009947021 0.066223174 0.28772238 0.07483343 0.0071824775
0.03686639 0.037186246 0.004318581 0.22337928 0.1788103 0.021040978 0.012848762 0.0028676526
0.032133084 0.32320696 0.04252645 0.03775944 0.024894102 0.05326238 0.025635311 0.0049074013
0.04869224 0.028380722 0.012605809 0.27918145 0.016705642 0.0067203203 0.108480535 0.089436695

block.3.block.0.weight f4 [64, 32, 3, 3]
00000000: 944f f53b 7601 bd3c 736f 2a3d 0f16 2b3d
00000010: b4f3 0bba fc57 283c 17c0 3d3d 82d5 2ebd
00000020: ecd6 873d eb16 3cbd 6bd8 0bbd 9ee7 6abd
00000030: 77db 7f3c e5d9 153d b1ce 36bc b730 6f3c
00000040: 72f0 61bd 1112 c2bb 3236 05be 547f acbc
00000050: 6073 e73d 6b56 f2bd e9ec 9b3d 56fb 023e
00000060: 5b93 edbd ccd1 51bd c499 e03d 33b4 c93b
00000070: 903a 19be f32d b6bd 9cbf 493c 2548 aabd
00000080: bb27 0bbd 96bc 203d 3208 78bd 4f1d 92bc
00000090: 692b 51bd 2e1f 45bd 5d41 2cbd 4576 423d
000000a0: df22 c73b ba8c ccbb 33c3 1d3d cf18 563c
000000b0: 144e 373d 618c 1d3c d948 18bc 4185 d3bd
000000c0: b2b4 cd3c 6c60 9fbd 4cc4 fb3c 651a b6ba
000000d0: ff4d 9fbc c699 90bd c1d1 2d3c b763 aa3c
000000e0: cdea c4bc 36af 993c d872 173d cbc5 013d
000000f0: e71c e13c bf16 34bd e065 f3bc 139e f4bd
00000100: bc7a e73d e272 68bd 7fa1 1b3e 2517 9abd
00000110: 8c8b c23d 56fc dfbd 11e8 dd3c d1a8 0cbd
00000120: 8cc8 df3c 1c5b 763d 2576 143a 9118 c0bb
00000130: b8f2 883c d27f 663c b4e9 1a3d 69ed 5a3c
00000140: b59f c3bd 4565 6a3d a0c0 84bd 668d a03d
00000150: 65af 10bd ee09 d13c f3af 0b3d b8c8 cd3b
00000160: 3f50 a0bd beac 8abc 8d32 423d 2489 05be
00000170: d981 30bd e31d fcbd 4118 d73d 1b7d 24bd
00000180: 7610 c63c f801 50be f6fe 70bd 9787 68bc
00000190: 8eca cd3b 45c0 7a3d cc01 763d e6f4 03bd
000001a0: 0975 933c d3e1 a1bc de6f 913d 1b49 763d
000001b0: 88e9 bebd ad01 ab3b 34e8 31bd b0c2 7ebd
000001c0: 1742 08bd 39b2 3cbd cdf8 0b3d 1149 5b3c
000001d0: d809 5a3d 0b62 e7bd f083 8c3d 7851 22bc
000001e0: 2e26 1fbe add6 0a3e abea e33d d17f 7abd
000001f0: d731 2bbd 6878 083d d9ca 963d 4dec b6bd
00000200: f00c 1dbc 97c7 ba3d 8472 e2bd 9f1c 273c
00000210: dc8d fdbc ffa0 833d def1 30bd 3809 7bbe
00000220: 48de 993d 48aa 8bbe 6f40 1c3d 58f6 a8be
00000230: 7dd3 4ebd 3302 82be 5747 ffbd c1be 70be
00000240: 3901 c7bd 2eb0 91bd d14f 36bd 8e57 3e3b
00000250: bb18 4f3d 58a5 453d d868 b2bd d4f2 073d
00000260: 278a d33c bfca 293d 5c54 8ebd 033e c93c
00000270: b498 60bd 472c 0f3d 67e7 44bd de36 07bd
00000280: f305 173d 4941 47bd 1a44 1f3d 1365 89bd
00000290: e058 88bd 2a52 183c 4297 dc3b 25d9 023b
000002a0: d6e9 22bd c4a9 bcbc fce2 3cbd e4f0 afbc
000002b0: dd04 4dbd 0066 92bd bcfa 3fbb 6d45 82bc
000002c0: fcf3 8b3c 1960 143d 8c74 a6bb 4c86 5cbd
000002d0: 634b d43b 8b31 0f3c 1e6e 563c 78c2 2fbd
000002e0: b9dd 593d 5003 3bbd 15c8 983c 6588 e63c
000002f0: 0118 72bb 07c8 edbc 9629 3abd d61d 34bd
00000300: e5f2 543d 7350 1d3c 5844 7abc 43e9 01bc
00000310: 3569 06bd 9a61 493c 1cec 14be 78d0 cdbc
00000320: f826 cabd 5ee7 1e3d d372 f9bd 6c50 bb3d
00000330: 0c5a c0bd 6771 8fbd 8619 82bd 1d13 d8bd
00000340: 81ad dabc 72ca 4bbe 2cbc 3e3d d8a0 24bd
00000350: b700 f7bd 3def 8abd 9a40 13be 6a88 2bbe
00000360: c0f0 d03c 010b d83d 087b e3bd a1b4 b43d
00000370: dd8d ec3d e570 b5bd d13f 613d 5c47 dc3d
00000380: 47aa 69bd 22da 573c f439 fdbc 6475 e8bd
00000390: 7fdc e03a 186e e2bd 1f74 52be a645 b13b
000003a0: c6ab 8abd e775 9ebe b37b 033d 226a d23d
000003b0: e8e4 483d c943 383d 48ef c03b 6ea6 7f3d
000003c0: 8f1c 42ba 853f 25bc d976 aebc 72ae 61bd
000003d0: e071 db3c 89c7 39bd d89f 47bc a662 98bb
000003e0: aa36 5cbb 0ca6 973c ec22 6bbb f652 b53c
000003f0: a257 0d3d f01d bd3c c587 c6bd edb3 473d
0.007486293 0.023071986 0.041610193 0.041769084 -0.0005338744 0.010274883 0.04632577 -0.042684086
0.0663279 -0.045920294 -0.03414194 -0.057349794 0.015616289 0.036584754 -0.0111576775 0.014599017
-0.055160947 -0.005922564 -0.13008955 -0.021056809 0.11301303 -0.11832889 0.076135464 0.1279119
-0.116003715 -0.05122547 0.109668285 0.0061555146 -0.14963746 -0.08895483 0.01231375 -0.08314542
-0.033973437 0.03924235 -0.06055469 -0.017836241 -0.05106679 -0.04812544 -0.042054523 0.047476072
0.006077155 -0.006242362 0.038516235 0.013067438 0.044752195 0.0096159885 -0.009294712 -0.103281505
0.025110576 -0.07782063 0.03073325 -0.0013893364 -0.019446371 -0.0706058 0.010609091 0.0207995
-0.024037743 0.018760305 0.036974758 0.03168277 0.027479602 -0.043967005 -0.029711664 -0.11944213
0.113027066 -0.056750186 0.15198325 -0.07523946 0.09499273 -0.10936801 0.027088197 -0.034340683
0.027317308 0.060145482 0.0005663357 -0.0058623035 0.0167173 0.014068561 0.037820533 0.013362267
-0.09551946 0.057225484 -0.06482053 0.078394696 -0.03532352 0.02551743 0.034103345 0.006280031
-0.07827806 -0.016928073 0.04741149 -0.13040596 -0.043092582 -0.12310388 0.10502673 -0.040158372
0.024177771 -0.20313251 -0.0588369 -0.014192483 0.00628025 0.06121852 0.060060307 -0.032215975
0.018000143 -0.019761002 0.07101415 0.060128313 -0.09321886 0.0052187056 -0.043434337 -0.062197387
-0.033266153 -0.046068404 0.03417282 0.01338412 0.053232044 -0.11297997 0.068611026 -0.009907119
-0.15541908 0.13558455 0.11128744 -0.06115705 -0.041795578 0.033317953 0.07362909 -0.089317895
-0.009585604 0.091201 -0.11056998 0.010199695 -0.030951433 0.06427192 -0.043199413 -0.24515235
0.075131 -0.27278352 0.038147386 -0.33000445 -0.05049466 -0.25392303 -0.12464779 -0.23510267
-0.0971703 -0.07113682 -0.044509713 0.0029043886 0.050560694 0.048253387 -0.087114036 0.033190563
0.025822712 0.04145312 -0.06949684 0.024565702 -0.05483313 0.034954336 -0.048072245 -0.03301131
0.036870908 -0.048646245 0.038883306 -0.067087315 -0.066575766 0.009296933 0.0067318985 0.0019965854
-0.039773785 -0.02303017 -0.046114907 -0.02147717 -0.050053466 -0.07148361 -0.0029293736 -0.015902245
0.017084114 0.03622446 -0.0050798114 -0.053839013 0.0064787134 0.008739839 0.013087777 -0.04291007
0.053189967 -0.045657456 0.018650094 0.02814121 -0.0036940577 -0.029026045 -0.045449816 -0.043973766
0.051989455 0.0096017 -0.0152750835 -0.007929149 -0.032815177 0.012291336 -0.14543194 -0.02512382
-0.09870714 0.038794868 -0.12180104 0.09146199 -0.09392175 -0.07004052 -0.063525245 -0.105505206
-0.026694061 -0.19901446 0.046566173 -0.040192455 -0.12060683 -0.06783912 -0.14380112 -0.16751257
0.025505424 0.10548974 -0.11107451 0.08823515 0.11550496 -0.088594235 0.0549925 0.10755798
-0.057047155 0.0131745655 -0.030911423 -0.113505155 0.0017155557 -0.11056155 -0.20552109 0.005409914
-0.067710444 -0.30949327 0.03210039 0.102741495 0.049046427 0.04498652 0.0058878995 0.06241458
-0.0007404768 -0.010085945 -0.021296905 -0.055098005 0.026787698 -0.045356307 -0.012184106 -0.0046504317
-0.0033601918 0.018511795 -0.003587897 0.022134285 0.0345074 0.023085564 -0.09693865 0.048755575

block.3.block.0.bias f4 [64]
00000000: 0984 143c ab11 e7bb 3807 b43c 00ef 3fbb
00000010: d542 b53b cbec 223d f803 d0bc 75df 28bc
00000020: 2db2 f73b 664a 77bd 511c 583c f2e5 a1bc
00000030: e521 0cbd b8cc f13b 2261 49bd ce03 c03c
00000040: 90c0 27bd 5ac0 233d 4a81 333d 9139 ccbb
00000050: 1b66 6dbd 3592 123d 1eeb 393d 02bc 02bd
00000060: 5d59 063d 4ef6 2d3d 3d83 94bc f103 363d
00000070: 13fd 42bd c162 be3c 5179 d23c 2980 2b3d
00000080: ad53 433d 8de9 49bd 0572 09bc 09b4 87bb
00000090: 71b7 ae3c 852c 05bd 0267 5d3d 26b2 b5bc
000000a0: dfb1 333d cbd0 5ebd 4f7b 65bc 511f 36bd
000000b0: 6006 243d 8e7e ecbc 549f a63b 74ff 67bc
000000c0: f39c b5bb 2a18 4abd b35c 0cbd c6bb 4cbd
000000d0: 5e4c 48bc 123a 613d ac30 bcb9 b933 403d
000000e0: 647b a63c 6f53 86bd 0a9d 9ebc eb14 41bd
000000f0: a59c 1bbd 7232 32bc cd15 10bc 0e98 463d
0.009064683 -0.0070516667 0.021976098 -0.0029286742 0.0055316486 0.039776605 -0.025392517 -0.010307183
0.007559082 -0.060373686 0.013190345 -0.019762967 -0.03421201 0.0073791407 -0.0491649 0.023439314
-0.040955126 0.039978363 0.04382447 -0.0062324484 -0.057958703 0.035783965 0.04539024 -0.03191758
0.032800067 0.042471223 -0.018128986 0.044437353 -0.04760463 0.023240449 0.025692614 0.04187027
0.04768722 -0.049294997 -0.008389001 -0.004141335 0.021327706 -0.03251316 0.054053314 -0.022179674
0.043870803 -0.05439834 -0.01400645 -0.04446346 0.040045142 -0.02886894 0.0050849114 -0.014160026
-0.0055423914 -0.04933945 -0.034268092 -0.049983762 -0.012225239 0.05498702 -0.00035894418 0.046924327
0.02032251 -0.065588824 -0.019361991 -0.04713909 -0.037991185 -0.010876285 -0.00879426 0.048484854

block.3.block.1.weight f4 [64]
00000000: eb9d 6c3f 5ee6 863f 8ef9 853f d22d 5a3f
00000010: ddee 6c3f c693 833f 7d20 8c3f 2aca 6e3f
00000020: fd02 893f 2d07 863f f5ba 863f f5fc 693f
00000030: b281 803f 6857 7b3f 8267 433f 0641 6d3f
00000040: 6a8c 953f b489 633f 2140 aa3f ba39 6d3f
00000050: e12c 773f 793c 893f 6f96 5d3f 4b4c 653f
00000060: 9dc0 843f dd3b 693f ef71 793f 2838 823f
00000070: 191f 863f b39a 6d3f 6411 903f 10dd 743f
00000080: 95a0 663f 5f49 713f 0506 583f 6698 623f
00000090: c30c 793f 2f88 9f3f 5e94 6a3f 44a2 423f
000000a0: ae60 853f 4d23 963f 1d6c 683f 100e 5c3f
000000b0: da59 7a3f d205 763f 3ec9 6b3f 007f 7e3f
000000c0: 80b8 763f 5f29 5f3f e02d 473f 782c 473f
000000d0: 8603 683f c73f 5f3f b284 743f b7fa 6f3f
000000e0: 65e1 853f e459 363f 1cce 673f 3866 6f3f
000000f0: 3dad 633f 3f3b 803f 1989 8a3f c26c 6f3f
0.92428464 1.0539052 1.0466783 0.85226166 0.92551976 1.0279472 1.0947415 0.9327723
1.0704037 1.047094 1.0525805 0.91401607 1.003958 0.98180246 0.76329815 0.9267734
1.1683476 0.88881993 1.330082 0.9266621 0.96552855 1.072158 0.8655767 0.8956954
1.0371281 0.9110697 0.97439474 1.0173388 1.047824 0.9281418 1.1255307 0.95649815
0.9008878 0.9425258 0.84384185 0.8851379 0.972851 1.2463435 0.9163264 0.7602885
1.0420129 1.1729523 0.9078997 0.8595896 0.9779335 0.9610263 0.92103946 0.99412537
0.96375275 0.871725 0.77804375 0.7780223 0.90630376 0.8720669 0.95514977 0.93741935
1.045941 0.7123091 0.9054887 0.9351535 0.88936216 1.001808 1.0823089 0.93525326

block.3.block.1.bias f4 [64]
00000000: c4cb 4bbe 84b0 04be 3970 4abe 7e41 40be
00000010: fee2 b4be 1bc9 9cbe 5c7c 73be 61af d7be
00000020: 948e 99be 6fc4 01bf dce6 b3be 71b4 81be
00000030: a6b4 febe dbe2 43be eb73 cabe 904e 94be
00000040: f42c e0be 7107 8fbe 6814 0ebe 0d12 90be
00000050: 566c 96be 1819 50be 8393 d1be 33ac 9cbe
00000060: 8b64 a6be 712b a0be 81e3 83be ec58 ffbe
00000070: a585 e1be 67bd 56be fec7 78be b340 6bbe
00000080: 8a50 9abe bfea 7fbe 0177 99be 35f4 80be
00000090: 0d65 64be 4d49 1abe c073 adbe 39c1 98be
000000a0: d1f5 b3be 73b3 29be c8c6 9ebe 3242 84be
000000b0: 0f16 97be c276 f3be 5845 abbe 502a a1be
000000c0: d6a4 9ebe cab4 37be e5c0 89be 5017 aebe
000000d0: 6d94 a4be a25e 80be 5ada 33be d932 adbe
000000e0: 308d 48be 0490 bbbe 19b5 75be c968 dabd
000000f0: 33a7 4fbe 13b3 adbe 85e2 a1be 4ad5 94be
-0.19901949 -0.1295796 -0.19769372 -0.18774983 -0.3532943 -0.3062218 -0.23777908 -0.4212599
-0.2999159 -0.5069036 -0.3513707 -0.25332978 -0.497472 -0.19129507 -0.39541563 -0.28966188
-0.43784297 -0.27935365 -0.13874972 -0.28138772 -0.2937953 -0.20322073 -0.40932855 -0.30600128
-0.32498583 -0.31283143 -0.2575951 -0.4987253 -0.44047275 -0.20970689 -0.24295041 -0.229739
-0.3013957 -0.24991892 -0.29973605 -0.25186315 -0.22304173 -0.15067025 -0.33877373 -0.29834917
-0.3514848 -0.1657236 -0.31011033 -0.25831753 -0.29509017 -0.47551543 -0.33451343 -0.31477594
-0.30985135 -0.1794006 -0.2690498 -0.3400216 -0.3214449 -0.250722 -0.17563763 -0.33827856
-0.19585109 -0.36633313 -0.23994865 -0.106645174 -0.20278625 -0.33925685 -0.31618133 -0.29068977

block.3.block.1.running_mean f4 [64]
00000000: 8a28 ffbf 13e6 aabf 2ab8 acbf e147 cfbf
00000010: 0014 dfbf 5d5b c4bf 32fb 86bf dcef eabf
00000020: 185f a2bf 4023 44be ccc2 b5bf a909 2ac0
00000030: ddc2 c7be c104 28c0 35b5 8ebd a0d8 10bf
00000040: c4fc 3abf abea 29bf d589 6bbf 93b9 a9bf
00000050: 34bc 53bd 74b6 c3bf 457a a73e b481 9ebf
00000060: 6e64 4cbf 132f 153f 6540 e5bf 67e3 30bf
00000070: 735a 2abf c8cc a0bf ce8a 9abf 8c48 b8bf
00000080: 6883 16bd 2b6b e1bf b8a8 84bf 48be 4dbf
00000090: 70c3 bcbf be55 bebf 84c1 6dbe 0704 e03f
000000a0: a674 9fbf 3154 87bf d641 43bf af44 e6bf
000000b0: 992d b7bf 3628 8fbf 1e95 21bf 1a3f 00c0
000000c0: 0b65 05c0 9592 cbbf 6711 103d 8356 123e
000000d0: ee60 b7bf d643 07bf 989c c3bf f5c1 68be
000000e0: 6780 acbf 78a3 0f40 9abe debf 878a aabf
000000f0: ac82 d6bf d8e2 b5bf d981 09bf 7ac4 60bf
-1.9934247 -1.3351463 -1.3493702 -1.6193811 -1.7427979 -1.5340382 -1.0545409 -1.8354449
-1.268527 -0.19154072 -1.4200072 -2.6568396 -0.39015856 -2.6252902 -0.06968156 -0.56580544
-0.7304194 -0.663737 -0.9200719 -1.3259758 -0.051693156 -1.5290055 0.32710472 -1.2383332
-0.79840744 0.58274955 -1.7910277 -0.6909699 -0.66544265 -1.2562494 -1.207361 -1.439714
-0.036746413 -1.761083 -1.0363989 -0.8036847 -1.4747143 -1.4869916 -0.23218352 1.7501229
-1.2457473 -1.0572568 -0.7627233 -1.798971 -1.431079 -1.1184146 -0.6311816 -2.0038514
-2.0842922 -1.5904108 0.035172846 0.14290814 -1.4326456 -0.52837884 -1.5282164 -0.22730239
-1.3476685 2.2443523 -1.7401917 -1.3323525 -1.6758628 -1.4209852 -0.53713757 -0.877998

block.3.block.1.running_var f4 [64]
00000000: bbf4 5a40 d42c 2140 0c27 da3f 7953 7c40
00000010: c272 0240 8ee4 c93f dd2e 0740 579e 1d40
00000020: db9f bd3f c174 943f cfa9 4040 0d10 7040
00000030: 342b 3b3f 301f 9140 e42a a03f 19ec ca3f
00000040: baa3 0640 57ab 2140 aa53 0240 92d6 1440
00000050: 714a fe3f 4760 ce3f e9c8 e53f 7df4 fd3f
00000060: 23b9 d03f f632 2440 83a1 e73f f224 f63f
00000070: e698 633f ce3b d53f bd82 ce3f 8905 1240
00000080: ce23 2f40 f72b 2d40 2eee b33f 7239 0b40
00000090: 386a 7540 b811 1440 77e1 a73f 4460 2d40
000000a0: 9cf4 0840 fe2e 8c3f 76bd a53f ef03 fc3f
000000b0: c61a 6a40 b220 0640 80f6 df3f 2e29 6d40
000000c0: 5409 6340 62fe f03f aefc 1b40 29f3 dc3f
000000d0: 3025 1640 04b2 0640 09cd 8640 9ba8 da3f
000000e0: 78b0 a43f 0877 c93f 3ccd 4340 d467 e23f
000000f0: 76f1 2040 2b8b ad3f 0cb9 8e3f d2b3 c73f
3.4211872 2.518361 1.7043166 3.9425948 2.0382543 1.5772874 2.1122353 2.4627893
1.4814409 1.159813 3.0103643 3.7509797 0.731128 4.535057 1.2513089 1.5853301
2.103743 2.5260828 2.0363564 2.3255963 1.9866468 1.6123132 1.7951938 1.9840237
1.6306499 2.5656104 1.8096164 1.9230025 0.8890518 1.6658876 1.6133648 2.2815878
2.7365603 2.7058084 1.4057062 2.1753812 3.834608 2.3135815 1.3115681 2.7090006
2.1399298 1.0951841 1.2948444 1.96887 3.6578841 2.0957456 1.7497101 3.7056384
3.5474443 1.8827631 2.4372973 1.7261707 2.3460197 2.1046152 4.2125287 1.7082704
1.2866354 1.573945 3.0594015 1.7687936 2.5147376 1.3558096 1.1150222 1.5601752

block.3.block.3.weight f4 [64, 64, 3, 3]
00000000: a50d e63c 1640 d5bc 3782 bfbb b573 4dbd
00000010: 05e7 0fbd 60a3 963c 75b3 55bc 773c a13b
00000020: 1f5b d1bd e9ce a0bc 2994 2a3d 933b 9c3c
00000030: 3246 31bc cc23 24bd efbc 54bd cf4a 09bd
00000040: 9a3a fcbc aa1e 1b3d 0c43 77bc 57e3 36bd
00000050: 8eb3 573d 42eb 0a3d feb8 2a3d 0a7c 9ebd
00000060: 369a 94bd 46b1 65bd 6b3a c03d 7187 5b3d
00000070: 2d67 d93d 639f 753d 57d6 643d a245 a83c
00000080: 4e82 ac3d a94d db3d 03a6 d03d 5896 983d
00000090: 0abd 1dbd 2a50 70bd 40be 0abd 42f6 1dbd
000000a0: 4713 5abd 6a55 383b a379 80bd 2548 3ebd
000000b0: 8490 1dbd 5864 803d 2957 8d3d 4672 973c
000000c0: ba4b 123c a731 46bd cc28 74bc bc66 59bd
000000d0: f00e 5d3c 6329 b3bc 49ac eabc db36 50bd
000000e0: 0641 843d 167c a5bc 0779 9f3c 0d7c e4bd
000000f0: 016b 313d 354e 5abd d4f9 f53d 8fa4 333c
00000100: 679d 69bd e7a0 6abd 2921 73bd 5e40 98bc
00000110: 84a4 08bd 53e3 b9bc 3679 89ba 6635 a13c
00000120: d475 b2ba 9724 6dbc 1989 083d 9883 21bc
00000130: db84 803c b855 a3bb 0369 ad3c 79f0 7f3b
00000140: 1bac d0bb 2742 80bc 7975 ff3b d0cb c63c
00000150: 9d71 133d 02e6 813d 3cfa 87bc d1ae 263d
00000160: de42 d3bb 4510 b03d 412c 6e3b ebdc d7bb
00000170: 9904 293c 1a27 db3c cb6a 673c 7300 b53c
00000180: f1ab fa3c db9c f1ba 41cf 753d a260 803c
00000190: 0a82 783d 8298 703d ce06 953c f0d8 b0bb
000001a0: 2713 babc edbf e43b 2c68 563d 536e be3d
000001b0: 07ec b13c 5e28 143d 9ae4 f1bc abbf cebb
000001c0: b27e 6bbc 543a 983d 8e4d 883b 0563 393d
000001d0: c8bf 51bc 7d9c 193d d380 4c3d 14aa 083d
000001e0: 6854 6fbc a257 34bd d8a3 be3d 50b2 debc
000001f0: 458c 183d 83fe 83bd ef2f 5bbc 6db2 be3c
00000200: 06d0 c73c 5e85 b1bc cd2b c63c 4d9b 2c3d
00000210: 0d02 0c3d 2ec0 8d3c 29b1 81bc 1c8f 85bb
00000220: 25b8 ec3b bc1a 573c eff3 06bd 2a12 6abd
00000230: ef1e bcbc 4dde a3bc abaa 42bc 716a 213b
00000240: eb58 d63c 5874 693b 3ad4 103c e50d a8bb
00000250: 83b9 98bd b24d 3fbb 6789 f9bb 82db 83bb
00000260: 88b9 cc3b d266 05bc a71f a13b b12b 253c
00000270: ee6f 8cbb 2416 b3bc d99a 0fbc 2b8d cabb
00000280: 384c 25bd f98a bdbc 5a8e 353d 5ef7 ae3d
00000290: 9cd0 d8bc c8b8 843c 3d19 01be c49e 163e
000002a0: 0bca 613d 24de 283e 8f12 dcbd 67c6 b93b
000002b0: 5330 85b8 e9a9 66bb 2635 b9ba 7583 e5bc
000002c0: f6cb 0b3d 2a29 20bd b80a 2c3d 13ab 31bd
000002d0: b08f 0e3d 176e 92bb a5f7 d7bc bfeb cbbc
000002e0: e99a 23bd 0d97 7a3d 55ce d7bc 5058 823d
000002f0: 181d 1ebc aaac 7abc a98a e73c 859e 993d
00000300: 0a60 783d 8863 8ebc 0b78 18bd c35f 1bbd
00000310: 85c2 5cbc 4820 083d 1ba0 c3bc 6f68 5cbc
00000320: 5a47 d83c dfd6 1fbd 6409 4b3b 919c 25bc
00000330: d166 c53b 1690 a2ba 1c56 ecbc 1d8e 84bc
00000340: cb38 06bc 3b72 7b3a 0d1a d9bc f0df 6dbc
00000350: c914 733d e3a2 f0bc f484 d93c 5895 32bd
00000360: 94ab 65bd d849 a5bd 9810 fbbb 885c a7bd
00000370: fcd2 5cbb 5e81 b5bc 9705 793c 0a74 0abc
00000380: c8c7 47bd ae6d 19bd 320e 0bbd 921b 8bbd
00000390: 7912 8cbd 675e 2dbd ddff 07bd 4e8a acbd
000003a0: 4d5e 7fbd e688 cfbd 9e0b 83bd f44c 7ebd
000003b0: 6251 553d f6d6 133b f44f 84bc 55f3 29bd
000003c0: b649 59bc b71f b4bc c034 0e3c 03ca c1bc
000003d0: efe8 83bd 019f c0bc a271 e2bc 490c 1b3c
000003e0: 79fa 83bd 8968 213c 1215 113c 3c29 6d3c
000003f0: 1075 003d 586c 6d3d 9a93 6c3d e70e 843c
0.028082678 -0.026031535 -0.0058443802 -0.050159175 -0.035132427 0.01838845 -0.013043274 0.004920538
-0.10222458 -0.019629912 0.041645203 0.019071376 -0.0108199585 -0.0400732 -0.051937994 -0.03351861
-0.030789662 0.03787104 -0.015091669 -0.044650402 0.05266147 0.033915766 0.04168033 -0.07738502
-0.07255976 -0.056077264 0.09386142 0.053595964 0.10615382 0.059966456 0.055868473 0.020541016
0.08423291 0.10708172 0.10187914 0.07450551 -0.03851036 -0.0586702 -0.033872843 -0.038564928
-0.05324104 0.0028127083 -0.062732 -0.04645552 -0.0384679 0.06269139 0.0690139 0.018487107
0.008929187 -0.048387196 -0.014902305 -0.05307649 0.013492331 -0.02187032 -0.028646605 -0.050833564
0.06457715 -0.02020077 0.01946689 -0.11156473 0.043314938 -0.05329724 0.120105416 0.010964527
-0.057034876 -0.057282355 -0.059357796 -0.01858538 -0.03336002 -0.022691404 -0.0010488394 0.019678783
-0.0013615438 -0.014474056 0.03333387 -0.009858035 0.01568835 -0.0049845837 0.021168238 0.0039053245
-0.006368173 -0.015656544 0.0077959863 0.024267107 0.035997022 0.06342699 -0.016598813 0.04069406
-0.00644718 0.08596853 0.0036342295 -0.006587615 0.010316038 0.026752044 0.0141245825 0.02209494
0.030599566 -0.0018433587 0.060012106 0.015671078 0.06067089 0.058739193 0.018191721 -0.0053969547
-0.02271421 0.006980887 0.05234544 0.092983864 0.021718992 0.03617131 -0.029527951 -0.0063094697
-0.014373468 0.07433 0.004159636 0.045260448 -0.012802072 0.037502754 0.049927544 0.033365324
-0.014607526 -0.044028886 0.093085945 -0.027184635 0.037243146 -0.06445029 -0.0133781275 0.02327844
0.024391185 -0.02167004 0.024190808 0.042140294 0.034181643 0.017303552 -0.015831547 -0.004075898
0.0072241 0.013128933 -0.032947477 -0.05714623 -0.022963969 -0.020003462 -0.011881511 0.0024630094
0.026165446 0.0035622325 0.008839661 -0.0051286095 -0.074572586 -0.0029190597 -0.0076152566 -0.00402397
0.006247703 -0.00814219 0.0049171033 0.010081218 -0.004285804 -0.021861143 -0.008764946 -0.0061813793
-0.04035589 -0.023137556 0.04432521 0.08543275 -0.02646666 0.016201392 -0.12607284 0.14709002
0.055124324 0.1649099 -0.10745727 0.0056694034 -6.350935e-05 -0.003519649 -0.0014130219 -0.028016785
0.03413006 -0.039101757 0.04200241 -0.04337604 0.034805 -0.00446869 -0.026363203 -0.024892686
-0.039942656 0.06117921 -0.026343504 0.063645005 -0.009650491 -0.015299955 0.02826436 0.07500938
0.060638465 -0.017381445 -0.037223857 -0.037933122 -0.013474111 0.03323391 -0.023880055 -0.013452633
0.02640121 -0.039023276 0.003098094 -0.010108129 0.0060242196 -0.001240256 -0.028849654 -0.016181046
-0.008192251 0.0009591912 -0.02650168 -0.014518723 0.059345994 -0.029374545 0.026552655 -0.043599457
-0.056071833 -0.08070725 -0.0076618902 -0.08171946 -0.0033695092 -0.022156414 0.015199087 -0.008450517
-0.04877451 -0.037458114 -0.033949085 -0.06792368 -0.06839461 -0.042326357 -0.033202995 -0.08424817
-0.06234579 -0.10133533 -0.063987 -0.062085107 0.052079566 0.0022558547 -0.016151406 -0.041491825
-0.013262203 -0.021987779 0.008679569 -0.023655897 -0.06440913 -0.023513319 -0.027642075 0.009463378
-0.06444258 0.009851583 0.008855121 0.014475163 0.03136164 0.057964653 0.05775795 0.016120387

block.3.block.3.bias f4 [64]
00000000: 0daa d53c 3aae 243d 4688 903c 316b 643c
00000010: 7047 f8ba cc9d 903c d8f0 58bd 95c6 e8bc
00000020: aec7 683c 2dd1 0ebd 590d 4f3d 8581 1e3d
00000030: 83d6 2d3c 309b 78bc 48b2 9ebc 505b ef3c
00000040: 00ea 003d 73cf 79ba 624a f23b 4a2f 133d
00000050: ff9b 0abd 3e4a 1bbc b767 abbc 4a35 83bc
00000060: d40e ac3b 0bc1 6cbc c1b0 113d 98e7 f7bc
00000070: 9e1e a83c 7c23 b23a 982a 4c3d 1fa5 25bd
00000080: e119 fdbc dc4c 193d edb2 a03c 5bfa d43b
00000090: 12f7 99bc 43e1 9cbc 3c99 503c bfc7 12bd
000000a0: 4ec3 033d 466d f6bc e908 2d3d 560f 75bc
000000b0: abad fc3b 6352 c13c 62a9 da3c 54e9 e03c
000000c0: 3368 dd3c 7973 2cbc 54b0 3fbc 92ce e73c
000000d0: 1ca0 c43c 9676 523d 3067 243d ece1 17bd
000000e0: 2d57 03bd bfce cd3c df59 e8bb a5b0 f9bc
000000f0: f5ce 0ebd 166e 0a3d 1b9d fd3c a996 313c
0.026082063 0.040205218 0.017643105 0.013941572 -0.0018942188 0.017653368 -0.05296406 -0.028415004
0.014207764 -0.034867454 0.05054984 0.03869774 0.010610226 -0.015173718 -0.01937212 0.029218346
0.03147316 -0.00095295085 0.007394121 0.03593377 -0.033840176 -0.00947815 -0.020923479 -0.016016621
0.005250791 -0.014450322 0.035568956 -0.0302618 0.020522412 0.0013590897 0.049845308 -0.040440675
-0.03089613 0.037426814 0.019616568 0.0064995713 -0.01879457 -0.019150382 0.012731846 -0.035835024
0.03216868 -0.030081403 0.042244826 -0.01495727 0.0077111325 0.023598855 0.026692096 0.02745501
0.027027225 -0.010525578 -0.011699755 0.028296743 0.024002127 0.051382624 0.04013747 -0.03708069
-0.03206556 0.025122998 -0.0070907916 -0.030479738 -0.03486534 0.033796392 0.030958703 0.010839143

block.3.block.4.weight f4 [64]
00000000: a79e a03f 481e ac3f 8462 d73f 0e3c ac3f
00000010: 0219 c63f be42 b43f 741a b33f f1ff b03f
00000020: 95fb bc3f acb9 b23f da17 bf3f 378f b93f
00000030: f804 bb3f 2905 a33f 40d6 b23f 2e1e b03f
00000040: d02d aa3f d27a c13f a58f cb3f 5f88 d53f
00000050: ce12 ab3f 9c57 b93f e4fc bd3f ef2c 9c3f
00000060: 823b a63f 5de5 c73f 3d28 c23f e6b7 aa3f
00000070: 2aca a33f ed81 b33f bbe5 db3f 3efa ad3f
00000080: ad87 a73f 1a30 b73f bab8 ce3f 6fb6 b93f
00000090: 6d3e b53f bf0b aa3f 12a0 c73f 4a10 b73f
000000a0: 5e56 b93f dd83 ad3f 193c 9d3f 7e0b e13f
000000b0: 5c8f c23f 0930 a63f 0ff8 d93f 5e73 a83f
000000c0: ddb2 b73f 7ca0 ac3f 24e8 b53f 8183 c33f
000000d0: 57cf cc3f 28e3 c53f 8df2 b73f 1724 a83f
000000e0: 66f3 ad3f 8406 b33f 8d3a a93f a25d c23f
000000f0: 1ba2 b93f f790 b23f 2b01 aa3f 9cef b53f
1.2548417 1.3446741 1.682694 1.3455827 1.5476382 1.4082868 1.3992448 1.3828107
1.4764277 1.3962913 1.4929154 1.4496831 1.4610891 1.273595 1.3971634 1.375921
1.3295231 1.5115607 1.5903212 1.6682242 1.3365114 1.4479861 1.4842801 1.2201213
1.298691 1.5616871 1.516853 1.3337371 1.279607 1.4024025 1.7179483 1.3591993
1.308828 1.4311554 1.6150124 1.4508799 1.4159676 1.3284835 1.5595725 1.4301846
1.4479482 1.3555866 1.2283965 1.7581632 1.52 1.2983409 1.7028826 1.3160207
1.435146 1.3486476 1.4211469 1.5274507 1.6000775 1.5459948 1.4370896 1.3136014
1.3589904 1.3986363 1.3220993 1.5184824 1.4502596 1.395049 1.3281606 1.4213748

block.3.block.4.bias f4 [64]
00000000: 5ab0 f53d eefa a03d 95cf 1c3e 8b24 fd3c
00000010: 556c 123e 0b58 e43d 0b3e 1d3e c61e 783d
00000020: 6583 843e 6ccd 0e3d f2ba 173e b8d2 093e
00000030: 85ba 083e 0c99 fb3d 2638 393e 89de 3f3e
00000040: cdad b43d bb9f 083e 9c81 f43d c856 3f3e
00000050: 9098 ca3d 6e7f 033e 84a3 0f3e 5422 873d
00000060: 1dfb 023e b977 823e 3fde 873e fd9c 2a3e
00000070: edd6 1d3e 5a94 253d 34d8 fb3d e33f 1f3e
00000080: f202 f73d 8aba b33d 4410 623e 16c9 313e
00000090: 1bac 5f3e d8b8 103e 478b 043e df2a 073e
000000a0: 3290 3c3d 0291 1d3e a558 e83d d3e4 4a3e
000000b0: b446 2c3d 9307 e03d 2da0 e43d 2b17 083e
000000c0: 6858 9b3d 14c5 433e 3f02 ff3d 91e4 b13d
000000d0: 2836 1e3e f9f2 d43d 36cc 533e 3a67 923d
000000e0: d551 dd3d dab8 333e 5daa 043e 574d 0b3e
000000f0: 32f8 eb3d 11f9 a93d 96bf 043e aa00 013e
0.11996527 0.07860361 0.15313561 0.030901214 0.14299138 0.11149605 0.15355699 0.060576223
0.25881496 0.034863874 0.14817408 0.13459289 0.13352402 0.12285051 0.18087825 0.18737234
0.08822212 0.13342182 0.119387835 0.18685448 0.0989238 0.1284158 0.1402722 0.065983444
0.12791105 0.25481966 0.26536748 0.16661449 0.15414019 0.040424682 0.12297097 0.15551715
0.12061109 0.08775814 0.22076517 0.17361864 0.21842997 0.14133012 0.12943755 0.13199948
0.046035953 0.15387347 0.113450326 0.19813852 0.042059615 0.10938945 0.111633636 0.13290088
0.075852215 0.19118148 0.124516 0.08686174 0.15450346 0.10397906 0.20683369 0.07148595
0.10806624 0.17550984 0.12955613 0.13603722 0.11521949 0.08299459 0.12963709 0.1259791

block.3.block.4.running_mean f4 [64]
00000000: 18f4 a4be 80bf ccbe df9b 0e3b af16 043f
00000010: da35 98be d19b a93c 6bb1 813f d1b6 2c3f
00000020: 3eea 793f d303 96be 970f b43e 4a99 2e3f
00000030: 4d4c 043f 2624 0fbf 494a 3fbe 5003 573e
00000040: 802e da3e 3470 433e 91f3 88be 8e66 cc3e
00000050: 8c5c 5e3e f64a c7be 6ed9 3bbf 46e8 8fbf
00000060: 1eb9 b83e 51ab 7fbf 877e a33e e353 0b3f
00000070: 64bd b5be 054f 08bf 54ef b83e ff29 1d3f
00000080: 96bb 1b3e 11f8 2cbf f3af 75bd d1b8 223f
00000090: 4202 24bf 9338 06bf 87a5 033d 4ed2 87be
000000a0: ffdb 16bf b932 103f 4c17 053f 9ad0 d9bc
000000b0: 5190 39bf 7dc8 eabe a3c2 2f3e 2458 90be
000000c0: 97c8 c43e ea2c c23e 20e1 913e 16ef e5bd
000000d0: d2f3 623f 2d4a 243f ae3a 333f 1855 6fbf
000000e0: bff8 07bf 0236 4b3e 907b 853f 8f27 d6be
000000f0: 2db4 823e 6365 5bbf 02b5 4ebf 04cb 15bf
-0.3221748 -0.39989853 0.0021760387 0.5159711 -0.29728585 0.020704182 1.0132269 0.67466456
0.9762305 -0.29299793 0.35168144 0.6820265 0.51678926 -0.55914533 -0.18680681 0.20997357
0.42613602 0.19085771 -0.26748326 0.39921993 0.21714991 -0.38924378 -0.73378646 -1.1242759
0.36078733 -0.99870783 0.3193247 0.54424876 -0.35496056 -0.53245574 0.36120093 0.61392206
0.15208277 -0.6756602 -0.05998225 0.6356326 -0.64065945 -0.52430075 0.03214028 -0.26527637
-0.5892944 0.56327397 0.51988673 -0.026588727 -0.72485834 -0.45856085 0.17164092 -0.28192246
0.38434288 0.37924892 0.2849207 -0.11227243 0.8865329 0.64175683 0.70011413 -0.9348922
-0.5311393 0.19844821 1.0428333 -0.41827056 0.25528088 -0.8570158 -0.80744946 -0.585129

block.3.block.4.running_var f4 [64]
00000000: 3508 ff3e df92 103f 9379 903f 2040 7f3f
00000010: a670 343f 02fc 583f 16e9 4e3f 3ee5 323f
00000020: b5be bc3f 26ef 5d3f 74e6 653f e198 2b3f
00000030: 60d5 ca3f a6ba 113f 7122 4e3f 8ee1 273f
00000040: c1fb 0b3f b81c aa3f decb 293f 7d19 803f
00000050: 3306 c13e 8bd8 293f 4a83 993f ffc8 823f
00000060: b44d 473f 37b5 e13f 72e7 893f 9d63 a63f
00000070: 5f0f ff3e 26d9 0a3f 43a9 853f 3c08 863f
00000080: a0f4 033f b500 753f f8c7 453f 7ec9 803f
00000090: 07ba 373f 9e26 333f 593a 7b3f ab22 cd3e
000000a0: 300d 843f ad4d 263f a12e f63e cc5d 243f
000000b0: de80 8a3f 6c15 e03e f190 c73f 4185 0b3f
000000c0: 865e a63f 3fb4 223f 9cd2 723f 3f89 a43f
000000d0: 4ec0 b63f 01e0 203f a514 573f d856 783f
000000e0: 50ba 863f b338 2f3f a3cf 5d3f c020 813f
000000f0: 2c70 573f d480 4a3f f34c f03e 7d67 903f
0.4981095 0.5647411 1.1287102 0.9970722 0.7048439 0.84759533 0.8082441 0.69881046
1.4745699 0.86693037 0.8980477 0.6703015 1.5846367 0.5692543 0.80521303 0.65578544
0.5468102 1.3290014 0.663267 1.0007778 0.37700042 0.66346043 1.1993191 1.0217589
0.7785294 1.7633427 1.0773757 1.299915 0.49816415 0.5423759 1.044228 1.0471263
0.51545143 0.95704204 0.77258253 1.006149 0.7176823 0.699808 0.98135906 0.40065512
1.0316525 0.64962274 0.4808245 0.6420562 1.0820577 0.43766344 1.5591108 0.54500204
1.2997596 0.63556284 0.94852614 1.2854384 1.4277437 0.628418 0.84015876 0.97007513
1.0525608 0.6844589 0.86644953 1.008812 0.84155536 0.79102826 0.46933708 1.1281582

block.3.skip_conv.weight f4 [64, 32, 1, 1]
00000000: 7bae 623d f952 5d3e 8902 bf3d 2428 14be
00000010: bb07 92bc 6591 b23b 48e9 ab3d 7bb3 75bc
00000020: 86b9 423d e106 c5bc 25d5 fa3b 88a8 d0bd
00000030: 026d 193e cb5a 8cbd 7462 cb3d 19a4 b93d
00000040: ee77 02be 0ac5 523d 42a6 993d 564e 91bd
00000050: e720 acbd 5002 5bbc 21c2 743c 2ebf 973d
00000060: b76d 65be 7cff 9bbd 12f5 69bd 7a3e ed3d
00000070: ae74 fcbd 6ce6 0fbe 25b1 a8bd bf33 0d3e
00000080: f03c 113d 0288 83bd 16a1 d7bb 91c6 8abd
00000090: 3284 fe3d 1959 b03c 7e6b fd3d d6f6 0a3d
000000a0: e859 c63d c214 07bd 53eb 873d 74bb a53c
000000b0: 1e71 be3d 5d9c c63c 091d b23d 6211 b73d
000000c0: c42e 22be 8fe9 aabd 9e96 7f3d 2ff2 78bd
000000d0: af9c f3bd f23f babd 3b07 6ebd 0d71 eabc
000000e0: 200e 37be ea00 53bd 91d4 5c3e cc42 62bd
000000f0: 16a5 0ebe 0bac 01be d3f8 2e3e d068 be3c
00000100: 894b 4abe 97fd e7bd 6c8d 4f3d b066 913d
00000110: 54c4 5abd d01d 94be 155f 07be 4e0b ebbc
00000120: 8c59 b1be 45dd fdbc 7ce1 223d a210 b5bd
00000130: 94a9 9bbd 79b6 a93e f841 67be eaed bebb
00000140: 5b16 643c 6272 7cbd 70ef 9a3d 0e96 33be
00000150: f3b0 093e 6eff c1bd 2649 41be feb4 1f3d
00000160: 68ba 043e dbba 34be 8f01 563d 79a5 d7bb
00000170: 57d4 7fbd 76f5 983d 7580 31be a042 e43c
00000180: d887 2b3e b8d6 283c 8152 19be 4be8 3b3d
00000190: a588 ba3d 9315 45bb d410 d9bd 26a7 92bb
000001a0: 01a9 393e 27e5 1d3d 1aaa 3cbe 4e6e 0dbe
000001b0: d76f 1abd 2054 7dbe f85d 0ebd a4f0 52be
000001c0: c227 35be db18 053e 82fd 44be 0146 1cbe
000001d0: f03f 66be c6be d8bd ad17 80bb 061f 08bd
000001e0: fa1a c2bd 26c0 6e3d a337 22be eabc 36bd
000001f0: db9b d73d 8255 97bd b764 043d 5b41 d63d
00000200: afeb ecbd ff20 d33d b2d3 a0bd 8b84 1f3e
00000210: 5853 0abe 49be 3cbe 1346 453e 4e01 0d3e
00000220: 8e42 063e e3a3 0f3e 06c8 9e3d 3044 ebbd
00000230: cf03 24bd 89ea a2bd 8180 543c e3f3 f03a
00000240: 0e9b 20be 0303 d93b 291a c1bd 7f9c 0a3c
00000250: 7833 d4bd 7963 833e 6ec6 443d 2c56 6dbe
00000260: 30fe 8abe 6822 40be d518 803c a841 01bd
00000270: 65ca 8bbc b2bb 95be 8e8f 77be 7265 bc3d
00000280: 2983 72bb 566a 4f3e 9e89 83bd 32cb 64bd
00000290: c6ba 933e f689 8b3d 8502 6c3e ac57 01be
000002a0: a20b fc3d 838b a8bd 96de ed3d 6100 aabd
000002b0: e0f9 1b3e 7736 aebe 159a b23d b1c9 84bd
000002c0: de81 03be 82f2 5a3e 81a9 5b3e 4b65 953d
000002d0: 6bad 1cbc c769 f8bc 0fcd 19be c8c7 65be
000002e0: 65c3 3ebe 737b b6bd a9c1 06be 95e0 fa3d
000002f0: 0a91 873d 5253 64bd 5d98 533e 9c83 8cbc
00000300: aa69 9b3d 8be1 d8bc 21ea 6abd 4f96 0cbb
00000310: fa76 0c3e 9748 fc3d e00b f33d 0bba f63c
00000320: 1499 6b3e a7f3 2b3e 8df7 d23d 975b 2c3e
00000330: e0d1 423e 8534 37be 4f46 483d f951 ed3d
00000340: 7ead 85bd 89f6 823d afbe 1cbe 6d21 203e
00000350: e086 183e 2542 113e 43a0 81bd 0ee8 2e3d
00000360: 474a ccbd 2e35 70bd c5c2 803d bc32 233e
00000370: df08 23be 2836 783d 16ca 643e bd7d ce3d
00000380: 7d6b 993d 0442 413e 71a9 abbd f554 3d3d
00000390: 7462 b9bd 1f0d 5b3d 539d 283e a050 b13d
000003a0: cf29 19bd c702 0ebe 8d24 133e dec6 213e
000003b0: 9839 7b3e 5527 f7bd cb66 12bd b3ea c1bc
000003c0: 5164 99bd 3a84 203e 4561 ff3b a250 353e
000003d0: 9388 693e 50e2 173d 4205 0f3e db59 023c
000003e0: 7ce7 efbd b9d1 e93d 34f6 5a3e 47e3 7bbd
000003f0: 28df dfbd beec ec3d 216e 3fbd 5ac9 e53a
0.05534218 0.21613683 0.093266554 -0.14468437 -0.017825952 0.0054494613 0.08394104 -0.014996405
0.04754021 -0.024051132 0.0076548033 -0.10188395 0.1498299 -0.06853255 0.09930888 0.09064502
-0.12741062 0.051457442 0.07502414 -0.070950195 -0.08404713 -0.013367251 0.014938862 0.074095115
-0.22405134 -0.07617089 -0.057118483 0.11584182 -0.123269424 -0.14052743 -0.08236913 0.13789271
0.035458505 -0.06422426 -0.0065804822 -0.06776155 0.12427558 0.02152686 0.12374018 0.033926807
0.09685117 -0.03297878 0.066366814 0.020230986 0.09298919 0.024244482 0.08696944 0.089388624
-0.15838152 -0.08345329 0.0623995 -0.06077784 -0.118951194 -0.09094228 -0.058112364 -0.02861836
-0.17876482 -0.051514544 0.21565463 -0.055239484 -0.13930163 -0.12663285 0.17087106 0.023243338
-0.19755377 -0.11327665 0.05067198 0.07099664 -0.05340989 -0.28928995 -0.13219865 -0.028691914
-0.3463863 -0.030989299 0.03976582 -0.08841063 -0.07600704 0.33147028 -0.22583759 -0.0058267014
0.013921346 -0.06163252 0.075652 -0.1753771 0.13446407 -0.094725475 -0.1887556 0.038990967
0.12961733 -0.17649405 0.05224758 -0.006581005 -0.062458362 0.07468693 -0.17334159 0.0278638
0.16751039 0.010305099 -0.14972879 0.04587583 0.09108094 -0.0030072674 -0.10598913 -0.004475492
0.18130876 0.038548615 -0.18424264 -0.13811609 -0.037704315 -0.24739122 -0.034757584 -0.2059961
-0.17690948 0.12997763 -0.1923733 -0.1526108 -0.22485328 -0.10583262 -0.0039090724 -0.03323271
-0.094778016 0.058288716 -0.15841536 -0.044613756 0.10527774 -0.07389356 0.03232261 0.10461684
-0.115683906 0.10309028 -0.07852878 0.15577905 -0.13508356 -0.18431963 0.19265012 0.13770029
0.13111326 0.14027362 0.07752995 -0.11487615 -0.040042695 -0.0795489 0.012970091 0.0018383231
-0.15684149 0.0066226735 -0.09428818 0.008460163 -0.103613794 0.2566183 0.0480408 -0.23177403
-0.27147055 -0.18763125 0.01563684 -0.031556755 -0.017064283 -0.29244763 -0.24175856 0.09199037
-0.0037004447 0.20255408 -0.06422733 -0.055857845 0.28853434 0.06813423 0.23047836 -0.126311
0.12306906 -0.08229735 0.116147205 -0.083008535 0.15232038 -0.34025928 0.08720795 -0.06483782
-0.12842509 0.21381572 0.2145138 0.07294711 -0.00956283 -0.030323876 -0.1501963 -0.22439492
-0.18629225 -0.08910265 -0.13159813 0.12249867 0.06619461 -0.055743523 0.2066359 -0.0171526
0.07588513 -0.026474735 -0.05735219 -0.0021451896 0.13717261 0.12318533 0.11867499 0.03011801
0.23007613 0.16792165 0.10301123 0.16831814 0.19025373 -0.17891128 0.048895177 0.11587901
-0.06527232 0.06394679 -0.15307115 0.15637751 0.148952 0.14185388 -0.063293956 0.042701773
-0.09975105 -0.058644466 0.06287149 0.15937322 -0.15921353 0.060598522 0.22342715 0.100825764
0.07491205 0.18872839 -0.08381928 0.0462236 -0.090519816 0.05347931 0.16466264 0.08657956
-0.037393387 -0.13868247 0.14369412 0.15798518 0.24533689 -0.12068049 -0.035742562 -0.023671484
-0.07489837 0.1567544 0.007793578 0.1770654 0.22806005 0.037081063 0.1396685 0.0079559935
-0.11714074 0.114169545 0.21382982 -0.061496045 -0.109312356 0.115685925 -0.046735886 0.0017531321

block.3.skip_conv.bias f4 [64]
00000000: ea13 9c3c 06e1 6b3d e6c5 cbbd bbec 813d
00000010: 8c4a fd3d 1655 393e fc8a 673e 1e45 c43d
00000020: 9747 0d3d 10ec 98bc 3771 dfbd c7ab 6f3e
00000030: 5d56 04be 29d8 e23d f104 2a3e 6227 c13d
00000040: 0289 593e 2159 e0bd 11b6 4fbe 4bae 22be
00000050: c4b4 183e 4d82 373e ee03 59bd 326f 59bd
00000060: 5e80 cd3c 6636 d6bd f3b6 213e c42a 443e
00000070: a92d 95bd 1a38 20be 06bb 9f3d 2d6c 25bd
00000080: 96a9 373e f8ed b43c dc96 1cbc 48b1 f7bd
00000090: 8e92 bb3d 9ea6 a2bd 6e7c 2cbe 68bf 82bc
000000a0: 09bf 073e c376 97bc ec20 43bd 8781 f03d
000000b0: ff26 05bd 2cbd 393e 9677 dd3b ad6d fc3d
000000c0: fb8e 2cbd da97 3b3e 7e29 f13c dad4 07be
000000d0: c2b2 26bc df50 18be 4fd6 d33d 9981 d4bb
000000e0: 84fd 433e 4c07 ad3d 1758 cdbb d0cf d63d
000000f0: dfaf be3c 605f ccbd 9489 f2bd 87be 8f3d
0.019052465 0.057587646 -0.099498555 0.06343981 0.12367734 0.18098864 0.22611612 0.095834956
0.0344921 -0.01866725 -0.10910266 0.23405372 -0.1292357 0.110763855 0.16603447 0.0943134
0.2124367 -0.109545 -0.20284297 -0.158868 0.14912707 0.179208 -0.052982263 -0.05308456
0.025085624 -0.104595944 0.15792446 0.19156939 -0.072840996 -0.15646401 0.07799344 -0.040386368
0.17935786 0.022086129 -0.009557452 -0.120943606 0.091588125 -0.07941936 -0.16844341 -0.01596041
0.13256468 -0.018489247 -0.04763882 0.117434554 -0.032507893 0.1813857 0.0067586405 0.123256065
-0.042128544 0.18319646 0.02943873 -0.1326479 -0.010174455 -0.148746 0.103436105 -0.006485176
0.19139677 0.084486574 -0.0062666046 0.10488856 0.023277221 -0.09979129 -0.11842647 0.07018762
